[
  {
    "type": "Before",
    "pass_desc": "Inliner",
    "pass_id": "inline",
    "op_type": "builtin.module",
    "ir": "#loc = loc(\"/root/superlensai/sensitivity_study/perturbed_BLOCK_SIZE_32.py\":6:0)\n#loc14 = loc(\"x_ptr\"(#loc))\n#loc15 = loc(\"y_ptr\"(#loc))\n#loc16 = loc(\"output_ptr\"(#loc))\n#loc17 = loc(\"n_elements\"(#loc))\nmodule {\n  tt.func public @vector_add_kernel(%x_ptr: !tt.ptr<f32> {tt.divisibility = 16 : i32} loc(\"x_ptr\"(#loc)), %y_ptr: !tt.ptr<f32> {tt.divisibility = 16 : i32} loc(\"y_ptr\"(#loc)), %output_ptr: !tt.ptr<f32> {tt.divisibility = 16 : i32} loc(\"output_ptr\"(#loc)), %n_elements: i32 {tt.divisibility = 16 : i32} loc(\"n_elements\"(#loc))) attributes {noinline = false} {\n    %pid = tt.get_program_id x : i32 loc(#loc18)\n    %block_start = arith.constant 32 : i32 loc(#loc19)\n    %block_start_0 = arith.constant 32 : i32 loc(#loc19)\n    %block_start_1 = arith.extsi %pid : i32 to i64 loc(#loc19)\n    %block_start_2 = arith.extsi %block_start_0 : i32 to i64 loc(#loc19)\n    %block_start_3 = arith.muli %block_start_1, %block_start_2 : i64 loc(#loc19)\n    %block_start_4 = arith.constant 2147483647 : i64 loc(#loc19)\n    %block_start_5 = arith.constant -2147483648 : i64 loc(#loc19)\n    %block_start_6 = arith.cmpi sle, %block_start_3, %block_start_4 : i64 loc(#loc19)\n    %block_start_7 = arith.cmpi sge, %block_start_3, %block_start_5 : i64 loc(#loc19)\n    %block_start_8 = arith.andi %block_start_6, %block_start_7 : i1 loc(#loc19)\n    %block_start_9 = arith.muli %pid, %block_start_0 : i32 loc(#loc19)\n    %offsets = tt.make_range {end = 32 : i32, start = 0 : i32} : tensor<32xi32> loc(#loc20)\n    %offsets_10 = tt.splat %block_start_9 : i32 -> tensor<32xi32> loc(#loc21)\n    %offsets_11 = arith.extsi %offsets_10 : tensor<32xi32> to tensor<32xi64> loc(#loc21)\n    %offsets_12 = arith.extsi %offsets : tensor<32xi32> to tensor<32xi64> loc(#loc21)\n    %offsets_13 = arith.addi %offsets_11, %offsets_12 : tensor<32xi64> loc(#loc21)\n    %offsets_14 = arith.constant 2147483647 : i64 loc(#loc21)\n    %offsets_15 = arith.constant -2147483648 : i64 loc(#loc21)\n    %offsets_16 = arith.constant dense<2147483647> : tensor<32xi64> loc(#loc21)\n    %offsets_17 = arith.cmpi sle, %offsets_13, %offsets_16 : tensor<32xi64> loc(#loc21)\n    %offsets_18 = arith.constant dense<-2147483648> : tensor<32xi64> loc(#loc21)\n    %offsets_19 = arith.cmpi sge, %offsets_13, %offsets_18 : tensor<32xi64> loc(#loc21)\n    %offsets_20 = arith.andi %offsets_17, %offsets_19 : tensor<32xi1> loc(#loc21)\n    %offsets_21 = arith.addi %offsets_10, %offsets : tensor<32xi32> loc(#loc21)\n    %mask = tt.splat %n_elements : i32 -> tensor<32xi32> loc(#loc22)\n    %mask_22 = arith.cmpi slt, %offsets_21, %mask : tensor<32xi32> loc(#loc22)\n    %x = tt.splat %x_ptr : !tt.ptr<f32> -> tensor<32x!tt.ptr<f32>> loc(#loc23)\n    %x_23 = tt.addptr %x, %offsets_21 : tensor<32x!tt.ptr<f32>>, tensor<32xi32> loc(#loc23)\n    %x_24 = tt.load %x_23, %mask_22 : tensor<32x!tt.ptr<f32>> loc(#loc24)\n    %y = tt.splat %y_ptr : !tt.ptr<f32> -> tensor<32x!tt.ptr<f32>> loc(#loc25)\n    %y_25 = tt.addptr %y, %offsets_21 : tensor<32x!tt.ptr<f32>>, tensor<32xi32> loc(#loc25)\n    %y_26 = tt.load %y_25, %mask_22 : tensor<32x!tt.ptr<f32>> loc(#loc26)\n    %output = arith.addf %x_24, %y_26 : tensor<32xf32> loc(#loc27)\n    %0 = tt.splat %output_ptr : !tt.ptr<f32> -> tensor<32x!tt.ptr<f32>> loc(#loc11)\n    %1 = tt.addptr %0, %offsets_21 : tensor<32x!tt.ptr<f32>>, tensor<32xi32> loc(#loc11)\n    tt.store %1, %output, %mask_22 : tensor<32x!tt.ptr<f32>> loc(#loc12)\n    tt.return loc(#loc13)\n  } loc(#loc)\n} loc(#loc)\n#loc1 = loc(\"/root/superlensai/sensitivity_study/perturbed_BLOCK_SIZE_32.py\":15:24)\n#loc2 = loc(\"/root/superlensai/sensitivity_study/perturbed_BLOCK_SIZE_32.py\":20:24)\n#loc3 = loc(\"/root/superlensai/sensitivity_study/perturbed_BLOCK_SIZE_32.py\":21:41)\n#loc4 = loc(\"/root/superlensai/sensitivity_study/perturbed_BLOCK_SIZE_32.py\":21:28)\n#loc5 = loc(\"/root/superlensai/sensitivity_study/perturbed_BLOCK_SIZE_32.py\":23:21)\n#loc6 = loc(\"/root/superlensai/sensitivity_study/perturbed_BLOCK_SIZE_32.py\":25:24)\n#loc7 = loc(\"/root/superlensai/sensitivity_study/perturbed_BLOCK_SIZE_32.py\":25:16)\n#loc8 = loc(\"/root/superlensai/sensitivity_study/perturbed_BLOCK_SIZE_32.py\":26:24)\n#loc9 = loc(\"/root/superlensai/sensitivity_study/perturbed_BLOCK_SIZE_32.py\":26:16)\n#loc10 = loc(\"/root/superlensai/sensitivity_study/perturbed_BLOCK_SIZE_32.py\":27:17)\n#loc11 = loc(\"/root/superlensai/sensitivity_study/perturbed_BLOCK_SIZE_32.py\":29:26)\n#loc12 = loc(\"/root/superlensai/sensitivity_study/perturbed_BLOCK_SIZE_32.py\":29:35)\n#loc13 = loc(\"/root/superlensai/sensitivity_study/perturbed_BLOCK_SIZE_32.py\":29:4)\n#loc18 = loc(\"pid\"(#loc1))\n#loc19 = loc(\"block_start\"(#loc2))\n#loc20 = loc(\"offsets\"(#loc3))\n#loc21 = loc(\"offsets\"(#loc4))\n#loc22 = loc(\"mask\"(#loc5))\n#loc23 = loc(\"x\"(#loc6))\n#loc24 = loc(\"x\"(#loc7))\n#loc25 = loc(\"y\"(#loc8))\n#loc26 = loc(\"y\"(#loc9))\n#loc27 = loc(\"output\"(#loc10))\n\n\n// -----// IR Dump Before Canonicalizer (canonicalize) ('tt.func' operation: @vector_add_kernel) //----- //\n#loc = loc(\"/root/superlensai/sensitivity_study/perturbed_BLOCK_SIZE_32.py\":6:0)\n#loc14 = loc(\"x_ptr\"(#loc))\n#loc15 = loc(\"y_ptr\"(#loc))\n#loc16 = loc(\"output_ptr\"(#loc))\n#loc17 = loc(\"n_elements\"(#loc))\nmodule {\n  tt.func public @vector_add_kernel(%x_ptr: !tt.ptr<f32> {tt.divisibility = 16 : i32} loc(\"x_ptr\"(#loc)), %y_ptr: !tt.ptr<f32> {tt.divisibility = 16 : i32} loc(\"y_ptr\"(#loc)), %output_ptr: !tt.ptr<f32> {tt.divisibility = 16 : i32} loc(\"output_ptr\"(#loc)), %n_elements: i32 {tt.divisibility = 16 : i32} loc(\"n_elements\"(#loc))) attributes {noinline = false} {\n    %pid = tt.get_program_id x : i32 loc(#loc18)\n    %block_start = arith.constant 32 : i32 loc(#loc19)\n    %block_start_0 = arith.constant 32 : i32 loc(#loc19)\n    %block_start_1 = arith.extsi %pid : i32 to i64 loc(#loc19)\n    %block_start_2 = arith.extsi %block_start_0 : i32 to i64 loc(#loc19)\n    %block_start_3 = arith.muli %block_start_1, %block_start_2 : i64 loc(#loc19)\n    %block_start_4 = arith.constant 2147483647 : i64 loc(#loc19)\n    %block_start_5 = arith.constant -2147483648 : i64 loc(#loc19)\n    %block_start_6 = arith.cmpi sle, %block_start_3, %block_start_4 : i64 loc(#loc19)\n    %block_start_7 = arith.cmpi sge, %block_start_3, %block_start_5 : i64 loc(#loc19)\n    %block_start_8 = arith.andi %block_start_6, %block_start_7 : i1 loc(#loc19)\n    %block_start_9 = arith.muli %pid, %block_start_0 : i32 loc(#loc19)\n    %offsets = tt.make_range {end = 32 : i32, start = 0 : i32} : tensor<32xi32> loc(#loc20)\n    %offsets_10 = tt.splat %block_start_9 : i32 -> tensor<32xi32> loc(#loc21)\n    %offsets_11 = arith.extsi %offsets_10 : tensor<32xi32> to tensor<32xi64> loc(#loc21)\n    %offsets_12 = arith.extsi %offsets : tensor<32xi32> to tensor<32xi64> loc(#loc21)\n    %offsets_13 = arith.addi %offsets_11, %offsets_12 : tensor<32xi64> loc(#loc21)\n    %offsets_14 = arith.constant 2147483647 : i64 loc(#loc21)\n    %offsets_15 = arith.constant -2147483648 : i64 loc(#loc21)\n    %offsets_16 = arith.constant dense<2147483647> : tensor<32xi64> loc(#loc21)\n    %offsets_17 = arith.cmpi sle, %offsets_13, %offsets_16 : tensor<32xi64> loc(#loc21)\n    %offsets_18 = arith.constant dense<-2147483648> : tensor<32xi64> loc(#loc21)\n    %offsets_19 = arith.cmpi sge, %offsets_13, %offsets_18 : tensor<32xi64> loc(#loc21)\n    %offsets_20 = arith.andi %offsets_17, %offsets_19 : tensor<32xi1> loc(#loc21)\n    %offsets_21 = arith.addi %offsets_10, %offsets : tensor<32xi32> loc(#loc21)\n    %mask = tt.splat %n_elements : i32 -> tensor<32xi32> loc(#loc22)\n    %mask_22 = arith.cmpi slt, %offsets_21, %mask : tensor<32xi32> loc(#loc22)\n    %x = tt.splat %x_ptr : !tt.ptr<f32> -> tensor<32x!tt.ptr<f32>> loc(#loc23)\n    %x_23 = tt.addptr %x, %offsets_21 : tensor<32x!tt.ptr<f32>>, tensor<32xi32> loc(#loc23)\n    %x_24 = tt.load %x_23, %mask_22 : tensor<32x!tt.ptr<f32>> loc(#loc24)\n    %y = tt.splat %y_ptr : !tt.ptr<f32> -> tensor<32x!tt.ptr<f32>> loc(#loc25)\n    %y_25 = tt.addptr %y, %offsets_21 : tensor<32x!tt.ptr<f32>>, tensor<32xi32> loc(#loc25)\n    %y_26 = tt.load %y_25, %mask_22 : tensor<32x!tt.ptr<f32>> loc(#loc26)\n    %output = arith.addf %x_24, %y_26 : tensor<32xf32> loc(#loc27)\n    %0 = tt.splat %output_ptr : !tt.ptr<f32> -> tensor<32x!tt.ptr<f32>> loc(#loc11)\n    %1 = tt.addptr %0, %offsets_21 : tensor<32x!tt.ptr<f32>>, tensor<32xi32> loc(#loc11)\n    tt.store %1, %output, %mask_22 : tensor<32x!tt.ptr<f32>> loc(#loc12)\n    tt.return loc(#loc13)\n  } loc(#loc)\n} loc(#loc)\n#loc1 = loc(\"/root/superlensai/sensitivity_study/perturbed_BLOCK_SIZE_32.py\":15:24)\n#loc2 = loc(\"/root/superlensai/sensitivity_study/perturbed_BLOCK_SIZE_32.py\":20:24)\n#loc3 = loc(\"/root/superlensai/sensitivity_study/perturbed_BLOCK_SIZE_32.py\":21:41)\n#loc4 = loc(\"/root/superlensai/sensitivity_study/perturbed_BLOCK_SIZE_32.py\":21:28)\n#loc5 = loc(\"/root/superlensai/sensitivity_study/perturbed_BLOCK_SIZE_32.py\":23:21)\n#loc6 = loc(\"/root/superlensai/sensitivity_study/perturbed_BLOCK_SIZE_32.py\":25:24)\n#loc7 = loc(\"/root/superlensai/sensitivity_study/perturbed_BLOCK_SIZE_32.py\":25:16)\n#loc8 = loc(\"/root/superlensai/sensitivity_study/perturbed_BLOCK_SIZE_32.py\":26:24)\n#loc9 = loc(\"/root/superlensai/sensitivity_study/perturbed_BLOCK_SIZE_32.py\":26:16)\n#loc10 = loc(\"/root/superlensai/sensitivity_study/perturbed_BLOCK_SIZE_32.py\":27:17)\n#loc11 = loc(\"/root/superlensai/sensitivity_study/perturbed_BLOCK_SIZE_32.py\":29:26)\n#loc12 = loc(\"/root/superlensai/sensitivity_study/perturbed_BLOCK_SIZE_32.py\":29:35)\n#loc13 = loc(\"/root/superlensai/sensitivity_study/perturbed_BLOCK_SIZE_32.py\":29:4)\n#loc18 = loc(\"pid\"(#loc1))\n#loc19 = loc(\"block_start\"(#loc2))\n#loc20 = loc(\"offsets\"(#loc3))\n#loc21 = loc(\"offsets\"(#loc4))\n#loc22 = loc(\"mask\"(#loc5))\n#loc23 = loc(\"x\"(#loc6))\n#loc24 = loc(\"x\"(#loc7))\n#loc25 = loc(\"y\"(#loc8))\n#loc26 = loc(\"y\"(#loc9))\n#loc27 = loc(\"output\"(#loc10))"
  },
  {
    "type": "Before",
    "pass_desc": "TritonRewriteTensorPointer",
    "pass_id": "triton-rewrite-tensor-pointer",
    "op_type": "builtin.module",
    "ir": "#loc = loc(\"/root/superlensai/sensitivity_study/perturbed_BLOCK_SIZE_32.py\":6:0)\n#loc15 = loc(\"x_ptr\"(#loc))\n#loc16 = loc(\"y_ptr\"(#loc))\n#loc17 = loc(\"output_ptr\"(#loc))\n#loc18 = loc(\"n_elements\"(#loc))\nmodule {\n  tt.func public @vector_add_kernel(%x_ptr: !tt.ptr<f32> {tt.divisibility = 16 : i32} loc(\"x_ptr\"(#loc)), %y_ptr: !tt.ptr<f32> {tt.divisibility = 16 : i32} loc(\"y_ptr\"(#loc)), %output_ptr: !tt.ptr<f32> {tt.divisibility = 16 : i32} loc(\"output_ptr\"(#loc)), %n_elements: i32 {tt.divisibility = 16 : i32} loc(\"n_elements\"(#loc))) attributes {noinline = false} {\n    %c32_i32 = arith.constant 32 : i32 loc(#loc1)\n    %pid = tt.get_program_id x : i32 loc(#loc19)\n    %block_start = arith.muli %pid, %c32_i32 : i32 loc(#loc20)\n    %offsets = tt.make_range {end = 32 : i32, start = 0 : i32} : tensor<32xi32> loc(#loc21)\n    %offsets_0 = tt.splat %block_start : i32 -> tensor<32xi32> loc(#loc22)\n    %offsets_1 = arith.addi %offsets_0, %offsets : tensor<32xi32> loc(#loc22)\n    %mask = tt.splat %n_elements : i32 -> tensor<32xi32> loc(#loc23)\n    %mask_2 = arith.cmpi slt, %offsets_1, %mask : tensor<32xi32> loc(#loc23)\n    %x = tt.splat %x_ptr : !tt.ptr<f32> -> tensor<32x!tt.ptr<f32>> loc(#loc24)\n    %x_3 = tt.addptr %x, %offsets_1 : tensor<32x!tt.ptr<f32>>, tensor<32xi32> loc(#loc24)\n    %x_4 = tt.load %x_3, %mask_2 : tensor<32x!tt.ptr<f32>> loc(#loc25)\n    %y = tt.splat %y_ptr : !tt.ptr<f32> -> tensor<32x!tt.ptr<f32>> loc(#loc26)\n    %y_5 = tt.addptr %y, %offsets_1 : tensor<32x!tt.ptr<f32>>, tensor<32xi32> loc(#loc26)\n    %y_6 = tt.load %y_5, %mask_2 : tensor<32x!tt.ptr<f32>> loc(#loc27)\n    %output = arith.addf %x_4, %y_6 : tensor<32xf32> loc(#loc28)\n    %0 = tt.splat %output_ptr : !tt.ptr<f32> -> tensor<32x!tt.ptr<f32>> loc(#loc12)\n    %1 = tt.addptr %0, %offsets_1 : tensor<32x!tt.ptr<f32>>, tensor<32xi32> loc(#loc12)\n    tt.store %1, %output, %mask_2 : tensor<32x!tt.ptr<f32>> loc(#loc13)\n    tt.return loc(#loc14)\n  } loc(#loc)\n} loc(#loc)\n#loc1 = loc(unknown)\n#loc2 = loc(\"/root/superlensai/sensitivity_study/perturbed_BLOCK_SIZE_32.py\":15:24)\n#loc3 = loc(\"/root/superlensai/sensitivity_study/perturbed_BLOCK_SIZE_32.py\":20:24)\n#loc4 = loc(\"/root/superlensai/sensitivity_study/perturbed_BLOCK_SIZE_32.py\":21:41)\n#loc5 = loc(\"/root/superlensai/sensitivity_study/perturbed_BLOCK_SIZE_32.py\":21:28)\n#loc6 = loc(\"/root/superlensai/sensitivity_study/perturbed_BLOCK_SIZE_32.py\":23:21)\n#loc7 = loc(\"/root/superlensai/sensitivity_study/perturbed_BLOCK_SIZE_32.py\":25:24)\n#loc8 = loc(\"/root/superlensai/sensitivity_study/perturbed_BLOCK_SIZE_32.py\":25:16)\n#loc9 = loc(\"/root/superlensai/sensitivity_study/perturbed_BLOCK_SIZE_32.py\":26:24)\n#loc10 = loc(\"/root/superlensai/sensitivity_study/perturbed_BLOCK_SIZE_32.py\":26:16)\n#loc11 = loc(\"/root/superlensai/sensitivity_study/perturbed_BLOCK_SIZE_32.py\":27:17)\n#loc12 = loc(\"/root/superlensai/sensitivity_study/perturbed_BLOCK_SIZE_32.py\":29:26)\n#loc13 = loc(\"/root/superlensai/sensitivity_study/perturbed_BLOCK_SIZE_32.py\":29:35)\n#loc14 = loc(\"/root/superlensai/sensitivity_study/perturbed_BLOCK_SIZE_32.py\":29:4)\n#loc19 = loc(\"pid\"(#loc2))\n#loc20 = loc(\"block_start\"(#loc3))\n#loc21 = loc(\"offsets\"(#loc4))\n#loc22 = loc(\"offsets\"(#loc5))\n#loc23 = loc(\"mask\"(#loc6))\n#loc24 = loc(\"x\"(#loc7))\n#loc25 = loc(\"x\"(#loc8))\n#loc26 = loc(\"y\"(#loc9))\n#loc27 = loc(\"y\"(#loc10))\n#loc28 = loc(\"output\"(#loc11))"
  },
  {
    "type": "Before",
    "pass_desc": "TritonRewriteTensorDescriptorToPointer",
    "pass_id": "triton-rewrite-tensor-descriptor-to-pointer",
    "op_type": "builtin.module",
    "ir": "#loc = loc(\"/root/superlensai/sensitivity_study/perturbed_BLOCK_SIZE_32.py\":6:0)\n#loc15 = loc(\"x_ptr\"(#loc))\n#loc16 = loc(\"y_ptr\"(#loc))\n#loc17 = loc(\"output_ptr\"(#loc))\n#loc18 = loc(\"n_elements\"(#loc))\nmodule {\n  tt.func public @vector_add_kernel(%x_ptr: !tt.ptr<f32> {tt.divisibility = 16 : i32} loc(\"x_ptr\"(#loc)), %y_ptr: !tt.ptr<f32> {tt.divisibility = 16 : i32} loc(\"y_ptr\"(#loc)), %output_ptr: !tt.ptr<f32> {tt.divisibility = 16 : i32} loc(\"output_ptr\"(#loc)), %n_elements: i32 {tt.divisibility = 16 : i32} loc(\"n_elements\"(#loc))) attributes {noinline = false} {\n    %c32_i32 = arith.constant 32 : i32 loc(#loc1)\n    %pid = tt.get_program_id x : i32 loc(#loc19)\n    %block_start = arith.muli %pid, %c32_i32 : i32 loc(#loc20)\n    %offsets = tt.make_range {end = 32 : i32, start = 0 : i32} : tensor<32xi32> loc(#loc21)\n    %offsets_0 = tt.splat %block_start : i32 -> tensor<32xi32> loc(#loc22)\n    %offsets_1 = arith.addi %offsets_0, %offsets : tensor<32xi32> loc(#loc22)\n    %mask = tt.splat %n_elements : i32 -> tensor<32xi32> loc(#loc23)\n    %mask_2 = arith.cmpi slt, %offsets_1, %mask : tensor<32xi32> loc(#loc23)\n    %x = tt.splat %x_ptr : !tt.ptr<f32> -> tensor<32x!tt.ptr<f32>> loc(#loc24)\n    %x_3 = tt.addptr %x, %offsets_1 : tensor<32x!tt.ptr<f32>>, tensor<32xi32> loc(#loc24)\n    %x_4 = tt.load %x_3, %mask_2 : tensor<32x!tt.ptr<f32>> loc(#loc25)\n    %y = tt.splat %y_ptr : !tt.ptr<f32> -> tensor<32x!tt.ptr<f32>> loc(#loc26)\n    %y_5 = tt.addptr %y, %offsets_1 : tensor<32x!tt.ptr<f32>>, tensor<32xi32> loc(#loc26)\n    %y_6 = tt.load %y_5, %mask_2 : tensor<32x!tt.ptr<f32>> loc(#loc27)\n    %output = arith.addf %x_4, %y_6 : tensor<32xf32> loc(#loc28)\n    %0 = tt.splat %output_ptr : !tt.ptr<f32> -> tensor<32x!tt.ptr<f32>> loc(#loc12)\n    %1 = tt.addptr %0, %offsets_1 : tensor<32x!tt.ptr<f32>>, tensor<32xi32> loc(#loc12)\n    tt.store %1, %output, %mask_2 : tensor<32x!tt.ptr<f32>> loc(#loc13)\n    tt.return loc(#loc14)\n  } loc(#loc)\n} loc(#loc)\n#loc1 = loc(unknown)\n#loc2 = loc(\"/root/superlensai/sensitivity_study/perturbed_BLOCK_SIZE_32.py\":15:24)\n#loc3 = loc(\"/root/superlensai/sensitivity_study/perturbed_BLOCK_SIZE_32.py\":20:24)\n#loc4 = loc(\"/root/superlensai/sensitivity_study/perturbed_BLOCK_SIZE_32.py\":21:41)\n#loc5 = loc(\"/root/superlensai/sensitivity_study/perturbed_BLOCK_SIZE_32.py\":21:28)\n#loc6 = loc(\"/root/superlensai/sensitivity_study/perturbed_BLOCK_SIZE_32.py\":23:21)\n#loc7 = loc(\"/root/superlensai/sensitivity_study/perturbed_BLOCK_SIZE_32.py\":25:24)\n#loc8 = loc(\"/root/superlensai/sensitivity_study/perturbed_BLOCK_SIZE_32.py\":25:16)\n#loc9 = loc(\"/root/superlensai/sensitivity_study/perturbed_BLOCK_SIZE_32.py\":26:24)\n#loc10 = loc(\"/root/superlensai/sensitivity_study/perturbed_BLOCK_SIZE_32.py\":26:16)\n#loc11 = loc(\"/root/superlensai/sensitivity_study/perturbed_BLOCK_SIZE_32.py\":27:17)\n#loc12 = loc(\"/root/superlensai/sensitivity_study/perturbed_BLOCK_SIZE_32.py\":29:26)\n#loc13 = loc(\"/root/superlensai/sensitivity_study/perturbed_BLOCK_SIZE_32.py\":29:35)\n#loc14 = loc(\"/root/superlensai/sensitivity_study/perturbed_BLOCK_SIZE_32.py\":29:4)\n#loc19 = loc(\"pid\"(#loc2))\n#loc20 = loc(\"block_start\"(#loc3))\n#loc21 = loc(\"offsets\"(#loc4))\n#loc22 = loc(\"offsets\"(#loc5))\n#loc23 = loc(\"mask\"(#loc6))\n#loc24 = loc(\"x\"(#loc7))\n#loc25 = loc(\"x\"(#loc8))\n#loc26 = loc(\"y\"(#loc9))\n#loc27 = loc(\"y\"(#loc10))\n#loc28 = loc(\"output\"(#loc11))"
  },
  {
    "type": "Before",
    "pass_desc": "Canonicalizer",
    "pass_id": "canonicalize",
    "op_type": "builtin.module",
    "ir": "#loc = loc(\"/root/superlensai/sensitivity_study/perturbed_BLOCK_SIZE_32.py\":6:0)\n#loc15 = loc(\"x_ptr\"(#loc))\n#loc16 = loc(\"y_ptr\"(#loc))\n#loc17 = loc(\"output_ptr\"(#loc))\n#loc18 = loc(\"n_elements\"(#loc))\nmodule {\n  tt.func public @vector_add_kernel(%x_ptr: !tt.ptr<f32> {tt.divisibility = 16 : i32} loc(\"x_ptr\"(#loc)), %y_ptr: !tt.ptr<f32> {tt.divisibility = 16 : i32} loc(\"y_ptr\"(#loc)), %output_ptr: !tt.ptr<f32> {tt.divisibility = 16 : i32} loc(\"output_ptr\"(#loc)), %n_elements: i32 {tt.divisibility = 16 : i32} loc(\"n_elements\"(#loc))) attributes {noinline = false} {\n    %c32_i32 = arith.constant 32 : i32 loc(#loc1)\n    %pid = tt.get_program_id x : i32 loc(#loc19)\n    %block_start = arith.muli %pid, %c32_i32 : i32 loc(#loc20)\n    %offsets = tt.make_range {end = 32 : i32, start = 0 : i32} : tensor<32xi32> loc(#loc21)\n    %offsets_0 = tt.splat %block_start : i32 -> tensor<32xi32> loc(#loc22)\n    %offsets_1 = arith.addi %offsets_0, %offsets : tensor<32xi32> loc(#loc22)\n    %mask = tt.splat %n_elements : i32 -> tensor<32xi32> loc(#loc23)\n    %mask_2 = arith.cmpi slt, %offsets_1, %mask : tensor<32xi32> loc(#loc23)\n    %x = tt.splat %x_ptr : !tt.ptr<f32> -> tensor<32x!tt.ptr<f32>> loc(#loc24)\n    %x_3 = tt.addptr %x, %offsets_1 : tensor<32x!tt.ptr<f32>>, tensor<32xi32> loc(#loc24)\n    %x_4 = tt.load %x_3, %mask_2 : tensor<32x!tt.ptr<f32>> loc(#loc25)\n    %y = tt.splat %y_ptr : !tt.ptr<f32> -> tensor<32x!tt.ptr<f32>> loc(#loc26)\n    %y_5 = tt.addptr %y, %offsets_1 : tensor<32x!tt.ptr<f32>>, tensor<32xi32> loc(#loc26)\n    %y_6 = tt.load %y_5, %mask_2 : tensor<32x!tt.ptr<f32>> loc(#loc27)\n    %output = arith.addf %x_4, %y_6 : tensor<32xf32> loc(#loc28)\n    %0 = tt.splat %output_ptr : !tt.ptr<f32> -> tensor<32x!tt.ptr<f32>> loc(#loc12)\n    %1 = tt.addptr %0, %offsets_1 : tensor<32x!tt.ptr<f32>>, tensor<32xi32> loc(#loc12)\n    tt.store %1, %output, %mask_2 : tensor<32x!tt.ptr<f32>> loc(#loc13)\n    tt.return loc(#loc14)\n  } loc(#loc)\n} loc(#loc)\n#loc1 = loc(unknown)\n#loc2 = loc(\"/root/superlensai/sensitivity_study/perturbed_BLOCK_SIZE_32.py\":15:24)\n#loc3 = loc(\"/root/superlensai/sensitivity_study/perturbed_BLOCK_SIZE_32.py\":20:24)\n#loc4 = loc(\"/root/superlensai/sensitivity_study/perturbed_BLOCK_SIZE_32.py\":21:41)\n#loc5 = loc(\"/root/superlensai/sensitivity_study/perturbed_BLOCK_SIZE_32.py\":21:28)\n#loc6 = loc(\"/root/superlensai/sensitivity_study/perturbed_BLOCK_SIZE_32.py\":23:21)\n#loc7 = loc(\"/root/superlensai/sensitivity_study/perturbed_BLOCK_SIZE_32.py\":25:24)\n#loc8 = loc(\"/root/superlensai/sensitivity_study/perturbed_BLOCK_SIZE_32.py\":25:16)\n#loc9 = loc(\"/root/superlensai/sensitivity_study/perturbed_BLOCK_SIZE_32.py\":26:24)\n#loc10 = loc(\"/root/superlensai/sensitivity_study/perturbed_BLOCK_SIZE_32.py\":26:16)\n#loc11 = loc(\"/root/superlensai/sensitivity_study/perturbed_BLOCK_SIZE_32.py\":27:17)\n#loc12 = loc(\"/root/superlensai/sensitivity_study/perturbed_BLOCK_SIZE_32.py\":29:26)\n#loc13 = loc(\"/root/superlensai/sensitivity_study/perturbed_BLOCK_SIZE_32.py\":29:35)\n#loc14 = loc(\"/root/superlensai/sensitivity_study/perturbed_BLOCK_SIZE_32.py\":29:4)\n#loc19 = loc(\"pid\"(#loc2))\n#loc20 = loc(\"block_start\"(#loc3))\n#loc21 = loc(\"offsets\"(#loc4))\n#loc22 = loc(\"offsets\"(#loc5))\n#loc23 = loc(\"mask\"(#loc6))\n#loc24 = loc(\"x\"(#loc7))\n#loc25 = loc(\"x\"(#loc8))\n#loc26 = loc(\"y\"(#loc9))\n#loc27 = loc(\"y\"(#loc10))\n#loc28 = loc(\"output\"(#loc11))"
  },
  {
    "type": "Before",
    "pass_desc": "TritonCombineOps",
    "pass_id": "triton-combine",
    "op_type": "builtin.module",
    "ir": "#loc = loc(\"/root/superlensai/sensitivity_study/perturbed_BLOCK_SIZE_32.py\":6:0)\n#loc15 = loc(\"x_ptr\"(#loc))\n#loc16 = loc(\"y_ptr\"(#loc))\n#loc17 = loc(\"output_ptr\"(#loc))\n#loc18 = loc(\"n_elements\"(#loc))\nmodule {\n  tt.func public @vector_add_kernel(%x_ptr: !tt.ptr<f32> {tt.divisibility = 16 : i32} loc(\"x_ptr\"(#loc)), %y_ptr: !tt.ptr<f32> {tt.divisibility = 16 : i32} loc(\"y_ptr\"(#loc)), %output_ptr: !tt.ptr<f32> {tt.divisibility = 16 : i32} loc(\"output_ptr\"(#loc)), %n_elements: i32 {tt.divisibility = 16 : i32} loc(\"n_elements\"(#loc))) attributes {noinline = false} {\n    %c32_i32 = arith.constant 32 : i32 loc(#loc1)\n    %pid = tt.get_program_id x : i32 loc(#loc19)\n    %block_start = arith.muli %pid, %c32_i32 : i32 loc(#loc20)\n    %offsets = tt.make_range {end = 32 : i32, start = 0 : i32} : tensor<32xi32> loc(#loc21)\n    %offsets_0 = tt.splat %block_start : i32 -> tensor<32xi32> loc(#loc22)\n    %offsets_1 = arith.addi %offsets_0, %offsets : tensor<32xi32> loc(#loc22)\n    %mask = tt.splat %n_elements : i32 -> tensor<32xi32> loc(#loc23)\n    %mask_2 = arith.cmpi slt, %offsets_1, %mask : tensor<32xi32> loc(#loc23)\n    %x = tt.splat %x_ptr : !tt.ptr<f32> -> tensor<32x!tt.ptr<f32>> loc(#loc24)\n    %x_3 = tt.addptr %x, %offsets_1 : tensor<32x!tt.ptr<f32>>, tensor<32xi32> loc(#loc24)\n    %x_4 = tt.load %x_3, %mask_2 : tensor<32x!tt.ptr<f32>> loc(#loc25)\n    %y = tt.splat %y_ptr : !tt.ptr<f32> -> tensor<32x!tt.ptr<f32>> loc(#loc26)\n    %y_5 = tt.addptr %y, %offsets_1 : tensor<32x!tt.ptr<f32>>, tensor<32xi32> loc(#loc26)\n    %y_6 = tt.load %y_5, %mask_2 : tensor<32x!tt.ptr<f32>> loc(#loc27)\n    %output = arith.addf %x_4, %y_6 : tensor<32xf32> loc(#loc28)\n    %0 = tt.splat %output_ptr : !tt.ptr<f32> -> tensor<32x!tt.ptr<f32>> loc(#loc12)\n    %1 = tt.addptr %0, %offsets_1 : tensor<32x!tt.ptr<f32>>, tensor<32xi32> loc(#loc12)\n    tt.store %1, %output, %mask_2 : tensor<32x!tt.ptr<f32>> loc(#loc13)\n    tt.return loc(#loc14)\n  } loc(#loc)\n} loc(#loc)\n#loc1 = loc(unknown)\n#loc2 = loc(\"/root/superlensai/sensitivity_study/perturbed_BLOCK_SIZE_32.py\":15:24)\n#loc3 = loc(\"/root/superlensai/sensitivity_study/perturbed_BLOCK_SIZE_32.py\":20:24)\n#loc4 = loc(\"/root/superlensai/sensitivity_study/perturbed_BLOCK_SIZE_32.py\":21:41)\n#loc5 = loc(\"/root/superlensai/sensitivity_study/perturbed_BLOCK_SIZE_32.py\":21:28)\n#loc6 = loc(\"/root/superlensai/sensitivity_study/perturbed_BLOCK_SIZE_32.py\":23:21)\n#loc7 = loc(\"/root/superlensai/sensitivity_study/perturbed_BLOCK_SIZE_32.py\":25:24)\n#loc8 = loc(\"/root/superlensai/sensitivity_study/perturbed_BLOCK_SIZE_32.py\":25:16)\n#loc9 = loc(\"/root/superlensai/sensitivity_study/perturbed_BLOCK_SIZE_32.py\":26:24)\n#loc10 = loc(\"/root/superlensai/sensitivity_study/perturbed_BLOCK_SIZE_32.py\":26:16)\n#loc11 = loc(\"/root/superlensai/sensitivity_study/perturbed_BLOCK_SIZE_32.py\":27:17)\n#loc12 = loc(\"/root/superlensai/sensitivity_study/perturbed_BLOCK_SIZE_32.py\":29:26)\n#loc13 = loc(\"/root/superlensai/sensitivity_study/perturbed_BLOCK_SIZE_32.py\":29:35)\n#loc14 = loc(\"/root/superlensai/sensitivity_study/perturbed_BLOCK_SIZE_32.py\":29:4)\n#loc19 = loc(\"pid\"(#loc2))\n#loc20 = loc(\"block_start\"(#loc3))\n#loc21 = loc(\"offsets\"(#loc4))\n#loc22 = loc(\"offsets\"(#loc5))\n#loc23 = loc(\"mask\"(#loc6))\n#loc24 = loc(\"x\"(#loc7))\n#loc25 = loc(\"x\"(#loc8))\n#loc26 = loc(\"y\"(#loc9))\n#loc27 = loc(\"y\"(#loc10))\n#loc28 = loc(\"output\"(#loc11))"
  },
  {
    "type": "Before",
    "pass_desc": "TritonReorderBroadcast",
    "pass_id": "triton-reorder-broadcast",
    "op_type": "builtin.module",
    "ir": "#loc = loc(\"/root/superlensai/sensitivity_study/perturbed_BLOCK_SIZE_32.py\":6:0)\n#loc15 = loc(\"x_ptr\"(#loc))\n#loc16 = loc(\"y_ptr\"(#loc))\n#loc17 = loc(\"output_ptr\"(#loc))\n#loc18 = loc(\"n_elements\"(#loc))\nmodule {\n  tt.func public @vector_add_kernel(%x_ptr: !tt.ptr<f32> {tt.divisibility = 16 : i32} loc(\"x_ptr\"(#loc)), %y_ptr: !tt.ptr<f32> {tt.divisibility = 16 : i32} loc(\"y_ptr\"(#loc)), %output_ptr: !tt.ptr<f32> {tt.divisibility = 16 : i32} loc(\"output_ptr\"(#loc)), %n_elements: i32 {tt.divisibility = 16 : i32} loc(\"n_elements\"(#loc))) attributes {noinline = false} {\n    %c32_i32 = arith.constant 32 : i32 loc(#loc1)\n    %pid = tt.get_program_id x : i32 loc(#loc19)\n    %block_start = arith.muli %pid, %c32_i32 : i32 loc(#loc20)\n    %offsets = tt.make_range {end = 32 : i32, start = 0 : i32} : tensor<32xi32> loc(#loc21)\n    %offsets_0 = tt.splat %block_start : i32 -> tensor<32xi32> loc(#loc22)\n    %offsets_1 = arith.addi %offsets_0, %offsets : tensor<32xi32> loc(#loc22)\n    %mask = tt.splat %n_elements : i32 -> tensor<32xi32> loc(#loc23)\n    %mask_2 = arith.cmpi slt, %offsets_1, %mask : tensor<32xi32> loc(#loc23)\n    %x = tt.splat %x_ptr : !tt.ptr<f32> -> tensor<32x!tt.ptr<f32>> loc(#loc24)\n    %x_3 = tt.addptr %x, %offsets_1 : tensor<32x!tt.ptr<f32>>, tensor<32xi32> loc(#loc24)\n    %x_4 = tt.load %x_3, %mask_2 : tensor<32x!tt.ptr<f32>> loc(#loc25)\n    %y = tt.splat %y_ptr : !tt.ptr<f32> -> tensor<32x!tt.ptr<f32>> loc(#loc26)\n    %y_5 = tt.addptr %y, %offsets_1 : tensor<32x!tt.ptr<f32>>, tensor<32xi32> loc(#loc26)\n    %y_6 = tt.load %y_5, %mask_2 : tensor<32x!tt.ptr<f32>> loc(#loc27)\n    %output = arith.addf %x_4, %y_6 : tensor<32xf32> loc(#loc28)\n    %0 = tt.splat %output_ptr : !tt.ptr<f32> -> tensor<32x!tt.ptr<f32>> loc(#loc12)\n    %1 = tt.addptr %0, %offsets_1 : tensor<32x!tt.ptr<f32>>, tensor<32xi32> loc(#loc12)\n    tt.store %1, %output, %mask_2 : tensor<32x!tt.ptr<f32>> loc(#loc13)\n    tt.return loc(#loc14)\n  } loc(#loc)\n} loc(#loc)\n#loc1 = loc(unknown)\n#loc2 = loc(\"/root/superlensai/sensitivity_study/perturbed_BLOCK_SIZE_32.py\":15:24)\n#loc3 = loc(\"/root/superlensai/sensitivity_study/perturbed_BLOCK_SIZE_32.py\":20:24)\n#loc4 = loc(\"/root/superlensai/sensitivity_study/perturbed_BLOCK_SIZE_32.py\":21:41)\n#loc5 = loc(\"/root/superlensai/sensitivity_study/perturbed_BLOCK_SIZE_32.py\":21:28)\n#loc6 = loc(\"/root/superlensai/sensitivity_study/perturbed_BLOCK_SIZE_32.py\":23:21)\n#loc7 = loc(\"/root/superlensai/sensitivity_study/perturbed_BLOCK_SIZE_32.py\":25:24)\n#loc8 = loc(\"/root/superlensai/sensitivity_study/perturbed_BLOCK_SIZE_32.py\":25:16)\n#loc9 = loc(\"/root/superlensai/sensitivity_study/perturbed_BLOCK_SIZE_32.py\":26:24)\n#loc10 = loc(\"/root/superlensai/sensitivity_study/perturbed_BLOCK_SIZE_32.py\":26:16)\n#loc11 = loc(\"/root/superlensai/sensitivity_study/perturbed_BLOCK_SIZE_32.py\":27:17)\n#loc12 = loc(\"/root/superlensai/sensitivity_study/perturbed_BLOCK_SIZE_32.py\":29:26)\n#loc13 = loc(\"/root/superlensai/sensitivity_study/perturbed_BLOCK_SIZE_32.py\":29:35)\n#loc14 = loc(\"/root/superlensai/sensitivity_study/perturbed_BLOCK_SIZE_32.py\":29:4)\n#loc19 = loc(\"pid\"(#loc2))\n#loc20 = loc(\"block_start\"(#loc3))\n#loc21 = loc(\"offsets\"(#loc4))\n#loc22 = loc(\"offsets\"(#loc5))\n#loc23 = loc(\"mask\"(#loc6))\n#loc24 = loc(\"x\"(#loc7))\n#loc25 = loc(\"x\"(#loc8))\n#loc26 = loc(\"y\"(#loc9))\n#loc27 = loc(\"y\"(#loc10))\n#loc28 = loc(\"output\"(#loc11))"
  },
  {
    "type": "Before",
    "pass_desc": "CSE",
    "pass_id": "cse",
    "op_type": "builtin.module",
    "ir": "#loc = loc(\"/root/superlensai/sensitivity_study/perturbed_BLOCK_SIZE_32.py\":6:0)\n#loc15 = loc(\"x_ptr\"(#loc))\n#loc16 = loc(\"y_ptr\"(#loc))\n#loc17 = loc(\"output_ptr\"(#loc))\n#loc18 = loc(\"n_elements\"(#loc))\nmodule {\n  tt.func public @vector_add_kernel(%x_ptr: !tt.ptr<f32> {tt.divisibility = 16 : i32} loc(\"x_ptr\"(#loc)), %y_ptr: !tt.ptr<f32> {tt.divisibility = 16 : i32} loc(\"y_ptr\"(#loc)), %output_ptr: !tt.ptr<f32> {tt.divisibility = 16 : i32} loc(\"output_ptr\"(#loc)), %n_elements: i32 {tt.divisibility = 16 : i32} loc(\"n_elements\"(#loc))) attributes {noinline = false} {\n    %c32_i32 = arith.constant 32 : i32 loc(#loc1)\n    %pid = tt.get_program_id x : i32 loc(#loc19)\n    %block_start = arith.muli %pid, %c32_i32 : i32 loc(#loc20)\n    %offsets = tt.make_range {end = 32 : i32, start = 0 : i32} : tensor<32xi32> loc(#loc21)\n    %offsets_0 = tt.splat %block_start : i32 -> tensor<32xi32> loc(#loc22)\n    %offsets_1 = arith.addi %offsets_0, %offsets : tensor<32xi32> loc(#loc22)\n    %mask = tt.splat %n_elements : i32 -> tensor<32xi32> loc(#loc23)\n    %mask_2 = arith.cmpi slt, %offsets_1, %mask : tensor<32xi32> loc(#loc23)\n    %x = tt.splat %x_ptr : !tt.ptr<f32> -> tensor<32x!tt.ptr<f32>> loc(#loc24)\n    %x_3 = tt.addptr %x, %offsets_1 : tensor<32x!tt.ptr<f32>>, tensor<32xi32> loc(#loc24)\n    %x_4 = tt.load %x_3, %mask_2 : tensor<32x!tt.ptr<f32>> loc(#loc25)\n    %y = tt.splat %y_ptr : !tt.ptr<f32> -> tensor<32x!tt.ptr<f32>> loc(#loc26)\n    %y_5 = tt.addptr %y, %offsets_1 : tensor<32x!tt.ptr<f32>>, tensor<32xi32> loc(#loc26)\n    %y_6 = tt.load %y_5, %mask_2 : tensor<32x!tt.ptr<f32>> loc(#loc27)\n    %output = arith.addf %x_4, %y_6 : tensor<32xf32> loc(#loc28)\n    %0 = tt.splat %output_ptr : !tt.ptr<f32> -> tensor<32x!tt.ptr<f32>> loc(#loc12)\n    %1 = tt.addptr %0, %offsets_1 : tensor<32x!tt.ptr<f32>>, tensor<32xi32> loc(#loc12)\n    tt.store %1, %output, %mask_2 : tensor<32x!tt.ptr<f32>> loc(#loc13)\n    tt.return loc(#loc14)\n  } loc(#loc)\n} loc(#loc)\n#loc1 = loc(unknown)\n#loc2 = loc(\"/root/superlensai/sensitivity_study/perturbed_BLOCK_SIZE_32.py\":15:24)\n#loc3 = loc(\"/root/superlensai/sensitivity_study/perturbed_BLOCK_SIZE_32.py\":20:24)\n#loc4 = loc(\"/root/superlensai/sensitivity_study/perturbed_BLOCK_SIZE_32.py\":21:41)\n#loc5 = loc(\"/root/superlensai/sensitivity_study/perturbed_BLOCK_SIZE_32.py\":21:28)\n#loc6 = loc(\"/root/superlensai/sensitivity_study/perturbed_BLOCK_SIZE_32.py\":23:21)\n#loc7 = loc(\"/root/superlensai/sensitivity_study/perturbed_BLOCK_SIZE_32.py\":25:24)\n#loc8 = loc(\"/root/superlensai/sensitivity_study/perturbed_BLOCK_SIZE_32.py\":25:16)\n#loc9 = loc(\"/root/superlensai/sensitivity_study/perturbed_BLOCK_SIZE_32.py\":26:24)\n#loc10 = loc(\"/root/superlensai/sensitivity_study/perturbed_BLOCK_SIZE_32.py\":26:16)\n#loc11 = loc(\"/root/superlensai/sensitivity_study/perturbed_BLOCK_SIZE_32.py\":27:17)\n#loc12 = loc(\"/root/superlensai/sensitivity_study/perturbed_BLOCK_SIZE_32.py\":29:26)\n#loc13 = loc(\"/root/superlensai/sensitivity_study/perturbed_BLOCK_SIZE_32.py\":29:35)\n#loc14 = loc(\"/root/superlensai/sensitivity_study/perturbed_BLOCK_SIZE_32.py\":29:4)\n#loc19 = loc(\"pid\"(#loc2))\n#loc20 = loc(\"block_start\"(#loc3))\n#loc21 = loc(\"offsets\"(#loc4))\n#loc22 = loc(\"offsets\"(#loc5))\n#loc23 = loc(\"mask\"(#loc6))\n#loc24 = loc(\"x\"(#loc7))\n#loc25 = loc(\"x\"(#loc8))\n#loc26 = loc(\"y\"(#loc9))\n#loc27 = loc(\"y\"(#loc10))\n#loc28 = loc(\"output\"(#loc11))"
  },
  {
    "type": "Before",
    "pass_desc": "SymbolDCE",
    "pass_id": "symbol-dce",
    "op_type": "builtin.module",
    "ir": "#loc = loc(\"/root/superlensai/sensitivity_study/perturbed_BLOCK_SIZE_32.py\":6:0)\n#loc15 = loc(\"x_ptr\"(#loc))\n#loc16 = loc(\"y_ptr\"(#loc))\n#loc17 = loc(\"output_ptr\"(#loc))\n#loc18 = loc(\"n_elements\"(#loc))\nmodule {\n  tt.func public @vector_add_kernel(%x_ptr: !tt.ptr<f32> {tt.divisibility = 16 : i32} loc(\"x_ptr\"(#loc)), %y_ptr: !tt.ptr<f32> {tt.divisibility = 16 : i32} loc(\"y_ptr\"(#loc)), %output_ptr: !tt.ptr<f32> {tt.divisibility = 16 : i32} loc(\"output_ptr\"(#loc)), %n_elements: i32 {tt.divisibility = 16 : i32} loc(\"n_elements\"(#loc))) attributes {noinline = false} {\n    %c32_i32 = arith.constant 32 : i32 loc(#loc1)\n    %pid = tt.get_program_id x : i32 loc(#loc19)\n    %block_start = arith.muli %pid, %c32_i32 : i32 loc(#loc20)\n    %offsets = tt.make_range {end = 32 : i32, start = 0 : i32} : tensor<32xi32> loc(#loc21)\n    %offsets_0 = tt.splat %block_start : i32 -> tensor<32xi32> loc(#loc22)\n    %offsets_1 = arith.addi %offsets_0, %offsets : tensor<32xi32> loc(#loc22)\n    %mask = tt.splat %n_elements : i32 -> tensor<32xi32> loc(#loc23)\n    %mask_2 = arith.cmpi slt, %offsets_1, %mask : tensor<32xi32> loc(#loc23)\n    %x = tt.splat %x_ptr : !tt.ptr<f32> -> tensor<32x!tt.ptr<f32>> loc(#loc24)\n    %x_3 = tt.addptr %x, %offsets_1 : tensor<32x!tt.ptr<f32>>, tensor<32xi32> loc(#loc24)\n    %x_4 = tt.load %x_3, %mask_2 : tensor<32x!tt.ptr<f32>> loc(#loc25)\n    %y = tt.splat %y_ptr : !tt.ptr<f32> -> tensor<32x!tt.ptr<f32>> loc(#loc26)\n    %y_5 = tt.addptr %y, %offsets_1 : tensor<32x!tt.ptr<f32>>, tensor<32xi32> loc(#loc26)\n    %y_6 = tt.load %y_5, %mask_2 : tensor<32x!tt.ptr<f32>> loc(#loc27)\n    %output = arith.addf %x_4, %y_6 : tensor<32xf32> loc(#loc28)\n    %0 = tt.splat %output_ptr : !tt.ptr<f32> -> tensor<32x!tt.ptr<f32>> loc(#loc12)\n    %1 = tt.addptr %0, %offsets_1 : tensor<32x!tt.ptr<f32>>, tensor<32xi32> loc(#loc12)\n    tt.store %1, %output, %mask_2 : tensor<32x!tt.ptr<f32>> loc(#loc13)\n    tt.return loc(#loc14)\n  } loc(#loc)\n} loc(#loc)\n#loc1 = loc(unknown)\n#loc2 = loc(\"/root/superlensai/sensitivity_study/perturbed_BLOCK_SIZE_32.py\":15:24)\n#loc3 = loc(\"/root/superlensai/sensitivity_study/perturbed_BLOCK_SIZE_32.py\":20:24)\n#loc4 = loc(\"/root/superlensai/sensitivity_study/perturbed_BLOCK_SIZE_32.py\":21:41)\n#loc5 = loc(\"/root/superlensai/sensitivity_study/perturbed_BLOCK_SIZE_32.py\":21:28)\n#loc6 = loc(\"/root/superlensai/sensitivity_study/perturbed_BLOCK_SIZE_32.py\":23:21)\n#loc7 = loc(\"/root/superlensai/sensitivity_study/perturbed_BLOCK_SIZE_32.py\":25:24)\n#loc8 = loc(\"/root/superlensai/sensitivity_study/perturbed_BLOCK_SIZE_32.py\":25:16)\n#loc9 = loc(\"/root/superlensai/sensitivity_study/perturbed_BLOCK_SIZE_32.py\":26:24)\n#loc10 = loc(\"/root/superlensai/sensitivity_study/perturbed_BLOCK_SIZE_32.py\":26:16)\n#loc11 = loc(\"/root/superlensai/sensitivity_study/perturbed_BLOCK_SIZE_32.py\":27:17)\n#loc12 = loc(\"/root/superlensai/sensitivity_study/perturbed_BLOCK_SIZE_32.py\":29:26)\n#loc13 = loc(\"/root/superlensai/sensitivity_study/perturbed_BLOCK_SIZE_32.py\":29:35)\n#loc14 = loc(\"/root/superlensai/sensitivity_study/perturbed_BLOCK_SIZE_32.py\":29:4)\n#loc19 = loc(\"pid\"(#loc2))\n#loc20 = loc(\"block_start\"(#loc3))\n#loc21 = loc(\"offsets\"(#loc4))\n#loc22 = loc(\"offsets\"(#loc5))\n#loc23 = loc(\"mask\"(#loc6))\n#loc24 = loc(\"x\"(#loc7))\n#loc25 = loc(\"x\"(#loc8))\n#loc26 = loc(\"y\"(#loc9))\n#loc27 = loc(\"y\"(#loc10))\n#loc28 = loc(\"output\"(#loc11))"
  },
  {
    "type": "Before",
    "pass_desc": "TritonLoopUnroll",
    "pass_id": "triton-loop-unroll",
    "op_type": "builtin.module",
    "ir": "#loc = loc(\"/root/superlensai/sensitivity_study/perturbed_BLOCK_SIZE_32.py\":6:0)\n#loc15 = loc(\"x_ptr\"(#loc))\n#loc16 = loc(\"y_ptr\"(#loc))\n#loc17 = loc(\"output_ptr\"(#loc))\n#loc18 = loc(\"n_elements\"(#loc))\nmodule {\n  tt.func public @vector_add_kernel(%x_ptr: !tt.ptr<f32> {tt.divisibility = 16 : i32} loc(\"x_ptr\"(#loc)), %y_ptr: !tt.ptr<f32> {tt.divisibility = 16 : i32} loc(\"y_ptr\"(#loc)), %output_ptr: !tt.ptr<f32> {tt.divisibility = 16 : i32} loc(\"output_ptr\"(#loc)), %n_elements: i32 {tt.divisibility = 16 : i32} loc(\"n_elements\"(#loc))) attributes {noinline = false} {\n    %c32_i32 = arith.constant 32 : i32 loc(#loc1)\n    %pid = tt.get_program_id x : i32 loc(#loc19)\n    %block_start = arith.muli %pid, %c32_i32 : i32 loc(#loc20)\n    %offsets = tt.make_range {end = 32 : i32, start = 0 : i32} : tensor<32xi32> loc(#loc21)\n    %offsets_0 = tt.splat %block_start : i32 -> tensor<32xi32> loc(#loc22)\n    %offsets_1 = arith.addi %offsets_0, %offsets : tensor<32xi32> loc(#loc22)\n    %mask = tt.splat %n_elements : i32 -> tensor<32xi32> loc(#loc23)\n    %mask_2 = arith.cmpi slt, %offsets_1, %mask : tensor<32xi32> loc(#loc23)\n    %x = tt.splat %x_ptr : !tt.ptr<f32> -> tensor<32x!tt.ptr<f32>> loc(#loc24)\n    %x_3 = tt.addptr %x, %offsets_1 : tensor<32x!tt.ptr<f32>>, tensor<32xi32> loc(#loc24)\n    %x_4 = tt.load %x_3, %mask_2 : tensor<32x!tt.ptr<f32>> loc(#loc25)\n    %y = tt.splat %y_ptr : !tt.ptr<f32> -> tensor<32x!tt.ptr<f32>> loc(#loc26)\n    %y_5 = tt.addptr %y, %offsets_1 : tensor<32x!tt.ptr<f32>>, tensor<32xi32> loc(#loc26)\n    %y_6 = tt.load %y_5, %mask_2 : tensor<32x!tt.ptr<f32>> loc(#loc27)\n    %output = arith.addf %x_4, %y_6 : tensor<32xf32> loc(#loc28)\n    %0 = tt.splat %output_ptr : !tt.ptr<f32> -> tensor<32x!tt.ptr<f32>> loc(#loc12)\n    %1 = tt.addptr %0, %offsets_1 : tensor<32x!tt.ptr<f32>>, tensor<32xi32> loc(#loc12)\n    tt.store %1, %output, %mask_2 : tensor<32x!tt.ptr<f32>> loc(#loc13)\n    tt.return loc(#loc14)\n  } loc(#loc)\n} loc(#loc)\n#loc1 = loc(unknown)\n#loc2 = loc(\"/root/superlensai/sensitivity_study/perturbed_BLOCK_SIZE_32.py\":15:24)\n#loc3 = loc(\"/root/superlensai/sensitivity_study/perturbed_BLOCK_SIZE_32.py\":20:24)\n#loc4 = loc(\"/root/superlensai/sensitivity_study/perturbed_BLOCK_SIZE_32.py\":21:41)\n#loc5 = loc(\"/root/superlensai/sensitivity_study/perturbed_BLOCK_SIZE_32.py\":21:28)\n#loc6 = loc(\"/root/superlensai/sensitivity_study/perturbed_BLOCK_SIZE_32.py\":23:21)\n#loc7 = loc(\"/root/superlensai/sensitivity_study/perturbed_BLOCK_SIZE_32.py\":25:24)\n#loc8 = loc(\"/root/superlensai/sensitivity_study/perturbed_BLOCK_SIZE_32.py\":25:16)\n#loc9 = loc(\"/root/superlensai/sensitivity_study/perturbed_BLOCK_SIZE_32.py\":26:24)\n#loc10 = loc(\"/root/superlensai/sensitivity_study/perturbed_BLOCK_SIZE_32.py\":26:16)\n#loc11 = loc(\"/root/superlensai/sensitivity_study/perturbed_BLOCK_SIZE_32.py\":27:17)\n#loc12 = loc(\"/root/superlensai/sensitivity_study/perturbed_BLOCK_SIZE_32.py\":29:26)\n#loc13 = loc(\"/root/superlensai/sensitivity_study/perturbed_BLOCK_SIZE_32.py\":29:35)\n#loc14 = loc(\"/root/superlensai/sensitivity_study/perturbed_BLOCK_SIZE_32.py\":29:4)\n#loc19 = loc(\"pid\"(#loc2))\n#loc20 = loc(\"block_start\"(#loc3))\n#loc21 = loc(\"offsets\"(#loc4))\n#loc22 = loc(\"offsets\"(#loc5))\n#loc23 = loc(\"mask\"(#loc6))\n#loc24 = loc(\"x\"(#loc7))\n#loc25 = loc(\"x\"(#loc8))\n#loc26 = loc(\"y\"(#loc9))\n#loc27 = loc(\"y\"(#loc10))\n#loc28 = loc(\"output\"(#loc11))"
  },
  {
    "type": "Before",
    "pass_desc": "ConvertTritonToTritonGPU",
    "pass_id": "convert-triton-to-tritongpu",
    "op_type": "builtin.module",
    "ir": "#loc = loc(\"/root/superlensai/sensitivity_study/perturbed_BLOCK_SIZE_32.py\":6:0)\n#loc15 = loc(\"x_ptr\"(#loc))\n#loc16 = loc(\"y_ptr\"(#loc))\n#loc17 = loc(\"output_ptr\"(#loc))\n#loc18 = loc(\"n_elements\"(#loc))\nmodule {\n  tt.func public @vector_add_kernel(%x_ptr: !tt.ptr<f32> {tt.divisibility = 16 : i32} loc(\"x_ptr\"(#loc)), %y_ptr: !tt.ptr<f32> {tt.divisibility = 16 : i32} loc(\"y_ptr\"(#loc)), %output_ptr: !tt.ptr<f32> {tt.divisibility = 16 : i32} loc(\"output_ptr\"(#loc)), %n_elements: i32 {tt.divisibility = 16 : i32} loc(\"n_elements\"(#loc))) attributes {noinline = false} {\n    %c32_i32 = arith.constant 32 : i32 loc(#loc1)\n    %pid = tt.get_program_id x : i32 loc(#loc19)\n    %block_start = arith.muli %pid, %c32_i32 : i32 loc(#loc20)\n    %offsets = tt.make_range {end = 32 : i32, start = 0 : i32} : tensor<32xi32> loc(#loc21)\n    %offsets_0 = tt.splat %block_start : i32 -> tensor<32xi32> loc(#loc22)\n    %offsets_1 = arith.addi %offsets_0, %offsets : tensor<32xi32> loc(#loc22)\n    %mask = tt.splat %n_elements : i32 -> tensor<32xi32> loc(#loc23)\n    %mask_2 = arith.cmpi slt, %offsets_1, %mask : tensor<32xi32> loc(#loc23)\n    %x = tt.splat %x_ptr : !tt.ptr<f32> -> tensor<32x!tt.ptr<f32>> loc(#loc24)\n    %x_3 = tt.addptr %x, %offsets_1 : tensor<32x!tt.ptr<f32>>, tensor<32xi32> loc(#loc24)\n    %x_4 = tt.load %x_3, %mask_2 : tensor<32x!tt.ptr<f32>> loc(#loc25)\n    %y = tt.splat %y_ptr : !tt.ptr<f32> -> tensor<32x!tt.ptr<f32>> loc(#loc26)\n    %y_5 = tt.addptr %y, %offsets_1 : tensor<32x!tt.ptr<f32>>, tensor<32xi32> loc(#loc26)\n    %y_6 = tt.load %y_5, %mask_2 : tensor<32x!tt.ptr<f32>> loc(#loc27)\n    %output = arith.addf %x_4, %y_6 : tensor<32xf32> loc(#loc28)\n    %0 = tt.splat %output_ptr : !tt.ptr<f32> -> tensor<32x!tt.ptr<f32>> loc(#loc12)\n    %1 = tt.addptr %0, %offsets_1 : tensor<32x!tt.ptr<f32>>, tensor<32xi32> loc(#loc12)\n    tt.store %1, %output, %mask_2 : tensor<32x!tt.ptr<f32>> loc(#loc13)\n    tt.return loc(#loc14)\n  } loc(#loc)\n} loc(#loc)\n#loc1 = loc(unknown)\n#loc2 = loc(\"/root/superlensai/sensitivity_study/perturbed_BLOCK_SIZE_32.py\":15:24)\n#loc3 = loc(\"/root/superlensai/sensitivity_study/perturbed_BLOCK_SIZE_32.py\":20:24)\n#loc4 = loc(\"/root/superlensai/sensitivity_study/perturbed_BLOCK_SIZE_32.py\":21:41)\n#loc5 = loc(\"/root/superlensai/sensitivity_study/perturbed_BLOCK_SIZE_32.py\":21:28)\n#loc6 = loc(\"/root/superlensai/sensitivity_study/perturbed_BLOCK_SIZE_32.py\":23:21)\n#loc7 = loc(\"/root/superlensai/sensitivity_study/perturbed_BLOCK_SIZE_32.py\":25:24)\n#loc8 = loc(\"/root/superlensai/sensitivity_study/perturbed_BLOCK_SIZE_32.py\":25:16)\n#loc9 = loc(\"/root/superlensai/sensitivity_study/perturbed_BLOCK_SIZE_32.py\":26:24)\n#loc10 = loc(\"/root/superlensai/sensitivity_study/perturbed_BLOCK_SIZE_32.py\":26:16)\n#loc11 = loc(\"/root/superlensai/sensitivity_study/perturbed_BLOCK_SIZE_32.py\":27:17)\n#loc12 = loc(\"/root/superlensai/sensitivity_study/perturbed_BLOCK_SIZE_32.py\":29:26)\n#loc13 = loc(\"/root/superlensai/sensitivity_study/perturbed_BLOCK_SIZE_32.py\":29:35)\n#loc14 = loc(\"/root/superlensai/sensitivity_study/perturbed_BLOCK_SIZE_32.py\":29:4)\n#loc19 = loc(\"pid\"(#loc2))\n#loc20 = loc(\"block_start\"(#loc3))\n#loc21 = loc(\"offsets\"(#loc4))\n#loc22 = loc(\"offsets\"(#loc5))\n#loc23 = loc(\"mask\"(#loc6))\n#loc24 = loc(\"x\"(#loc7))\n#loc25 = loc(\"x\"(#loc8))\n#loc26 = loc(\"y\"(#loc9))\n#loc27 = loc(\"y\"(#loc10))\n#loc28 = loc(\"output\"(#loc11))"
  },
  {
    "type": "Before",
    "pass_desc": "TritonGPUCoalesce",
    "pass_id": "tritongpu-coalesce",
    "op_type": "builtin.module",
    "ir": "#blocked = #ttg.blocked<{sizePerThread = [1], threadsPerWarp = [32], warpsPerCTA = [4], order = [0]}>\n#loc = loc(\"/root/superlensai/sensitivity_study/perturbed_BLOCK_SIZE_32.py\":6:0)\n#loc15 = loc(\"x_ptr\"(#loc))\n#loc16 = loc(\"y_ptr\"(#loc))\n#loc17 = loc(\"output_ptr\"(#loc))\n#loc18 = loc(\"n_elements\"(#loc))\nmodule attributes {\"ttg.num-ctas\" = 1 : i32, \"ttg.num-warps\" = 4 : i32, ttg.target = \"cuda:75\", \"ttg.threads-per-warp\" = 32 : i32} {\n  tt.func public @vector_add_kernel(%x_ptr: !tt.ptr<f32> {tt.divisibility = 16 : i32} loc(\"x_ptr\"(#loc)), %y_ptr: !tt.ptr<f32> {tt.divisibility = 16 : i32} loc(\"y_ptr\"(#loc)), %output_ptr: !tt.ptr<f32> {tt.divisibility = 16 : i32} loc(\"output_ptr\"(#loc)), %n_elements: i32 {tt.divisibility = 16 : i32} loc(\"n_elements\"(#loc))) attributes {noinline = false} {\n    %c32_i32 = arith.constant 32 : i32 loc(#loc1)\n    %pid = tt.get_program_id x : i32 loc(#loc19)\n    %block_start = arith.muli %pid, %c32_i32 : i32 loc(#loc20)\n    %offsets = tt.make_range {end = 32 : i32, start = 0 : i32} : tensor<32xi32, #blocked> loc(#loc21)\n    %offsets_0 = tt.splat %block_start : i32 -> tensor<32xi32, #blocked> loc(#loc22)\n    %offsets_1 = arith.addi %offsets_0, %offsets : tensor<32xi32, #blocked> loc(#loc22)\n    %mask = tt.splat %n_elements : i32 -> tensor<32xi32, #blocked> loc(#loc23)\n    %mask_2 = arith.cmpi slt, %offsets_1, %mask : tensor<32xi32, #blocked> loc(#loc23)\n    %x = tt.splat %x_ptr : !tt.ptr<f32> -> tensor<32x!tt.ptr<f32>, #blocked> loc(#loc24)\n    %x_3 = tt.addptr %x, %offsets_1 : tensor<32x!tt.ptr<f32>, #blocked>, tensor<32xi32, #blocked> loc(#loc24)\n    %x_4 = tt.load %x_3, %mask_2 : tensor<32x!tt.ptr<f32>, #blocked> loc(#loc25)\n    %y = tt.splat %y_ptr : !tt.ptr<f32> -> tensor<32x!tt.ptr<f32>, #blocked> loc(#loc26)\n    %y_5 = tt.addptr %y, %offsets_1 : tensor<32x!tt.ptr<f32>, #blocked>, tensor<32xi32, #blocked> loc(#loc26)\n    %y_6 = tt.load %y_5, %mask_2 : tensor<32x!tt.ptr<f32>, #blocked> loc(#loc27)\n    %output = arith.addf %x_4, %y_6 : tensor<32xf32, #blocked> loc(#loc28)\n    %0 = tt.splat %output_ptr : !tt.ptr<f32> -> tensor<32x!tt.ptr<f32>, #blocked> loc(#loc12)\n    %1 = tt.addptr %0, %offsets_1 : tensor<32x!tt.ptr<f32>, #blocked>, tensor<32xi32, #blocked> loc(#loc12)\n    tt.store %1, %output, %mask_2 : tensor<32x!tt.ptr<f32>, #blocked> loc(#loc13)\n    tt.return loc(#loc14)\n  } loc(#loc)\n} loc(#loc)\n#loc1 = loc(unknown)\n#loc2 = loc(\"/root/superlensai/sensitivity_study/perturbed_BLOCK_SIZE_32.py\":15:24)\n#loc3 = loc(\"/root/superlensai/sensitivity_study/perturbed_BLOCK_SIZE_32.py\":20:24)\n#loc4 = loc(\"/root/superlensai/sensitivity_study/perturbed_BLOCK_SIZE_32.py\":21:41)\n#loc5 = loc(\"/root/superlensai/sensitivity_study/perturbed_BLOCK_SIZE_32.py\":21:28)\n#loc6 = loc(\"/root/superlensai/sensitivity_study/perturbed_BLOCK_SIZE_32.py\":23:21)\n#loc7 = loc(\"/root/superlensai/sensitivity_study/perturbed_BLOCK_SIZE_32.py\":25:24)\n#loc8 = loc(\"/root/superlensai/sensitivity_study/perturbed_BLOCK_SIZE_32.py\":25:16)\n#loc9 = loc(\"/root/superlensai/sensitivity_study/perturbed_BLOCK_SIZE_32.py\":26:24)\n#loc10 = loc(\"/root/superlensai/sensitivity_study/perturbed_BLOCK_SIZE_32.py\":26:16)\n#loc11 = loc(\"/root/superlensai/sensitivity_study/perturbed_BLOCK_SIZE_32.py\":27:17)\n#loc12 = loc(\"/root/superlensai/sensitivity_study/perturbed_BLOCK_SIZE_32.py\":29:26)\n#loc13 = loc(\"/root/superlensai/sensitivity_study/perturbed_BLOCK_SIZE_32.py\":29:35)\n#loc14 = loc(\"/root/superlensai/sensitivity_study/perturbed_BLOCK_SIZE_32.py\":29:4)\n#loc19 = loc(\"pid\"(#loc2))\n#loc20 = loc(\"block_start\"(#loc3))\n#loc21 = loc(\"offsets\"(#loc4))\n#loc22 = loc(\"offsets\"(#loc5))\n#loc23 = loc(\"mask\"(#loc6))\n#loc24 = loc(\"x\"(#loc7))\n#loc25 = loc(\"x\"(#loc8))\n#loc26 = loc(\"y\"(#loc9))\n#loc27 = loc(\"y\"(#loc10))\n#loc28 = loc(\"output\"(#loc11))"
  },
  {
    "type": "Before",
    "pass_desc": "TritonGPUF32DotTC",
    "pass_id": "tritongpu-F32DotTC",
    "op_type": "builtin.module",
    "ir": "#blocked = #ttg.blocked<{sizePerThread = [1], threadsPerWarp = [32], warpsPerCTA = [4], order = [0]}>\n#loc = loc(\"/root/superlensai/sensitivity_study/perturbed_BLOCK_SIZE_32.py\":6:0)\n#loc15 = loc(\"x_ptr\"(#loc))\n#loc16 = loc(\"y_ptr\"(#loc))\n#loc17 = loc(\"output_ptr\"(#loc))\n#loc18 = loc(\"n_elements\"(#loc))\nmodule attributes {\"ttg.num-ctas\" = 1 : i32, \"ttg.num-warps\" = 4 : i32, ttg.target = \"cuda:75\", \"ttg.threads-per-warp\" = 32 : i32} {\n  tt.func public @vector_add_kernel(%x_ptr: !tt.ptr<f32> {tt.divisibility = 16 : i32} loc(\"x_ptr\"(#loc)), %y_ptr: !tt.ptr<f32> {tt.divisibility = 16 : i32} loc(\"y_ptr\"(#loc)), %output_ptr: !tt.ptr<f32> {tt.divisibility = 16 : i32} loc(\"output_ptr\"(#loc)), %n_elements: i32 {tt.divisibility = 16 : i32} loc(\"n_elements\"(#loc))) attributes {noinline = false} {\n    %c32_i32 = arith.constant 32 : i32 loc(#loc1)\n    %pid = tt.get_program_id x : i32 loc(#loc19)\n    %block_start = arith.muli %pid, %c32_i32 : i32 loc(#loc20)\n    %offsets = tt.make_range {end = 32 : i32, start = 0 : i32} : tensor<32xi32, #blocked> loc(#loc21)\n    %offsets_0 = tt.splat %block_start : i32 -> tensor<32xi32, #blocked> loc(#loc22)\n    %offsets_1 = arith.addi %offsets_0, %offsets : tensor<32xi32, #blocked> loc(#loc22)\n    %mask = tt.splat %n_elements : i32 -> tensor<32xi32, #blocked> loc(#loc23)\n    %mask_2 = arith.cmpi slt, %offsets_1, %mask : tensor<32xi32, #blocked> loc(#loc23)\n    %x = tt.splat %x_ptr : !tt.ptr<f32> -> tensor<32x!tt.ptr<f32>, #blocked> loc(#loc24)\n    %x_3 = tt.addptr %x, %offsets_1 : tensor<32x!tt.ptr<f32>, #blocked>, tensor<32xi32, #blocked> loc(#loc24)\n    %x_4 = ttg.convert_layout %x_3 : tensor<32x!tt.ptr<f32>, #blocked> -> tensor<32x!tt.ptr<f32>, #blocked> loc(#loc25)\n    %x_5 = ttg.convert_layout %mask_2 : tensor<32xi1, #blocked> -> tensor<32xi1, #blocked> loc(#loc25)\n    %x_6 = tt.load %x_4, %x_5 : tensor<32x!tt.ptr<f32>, #blocked> loc(#loc25)\n    %y = tt.splat %y_ptr : !tt.ptr<f32> -> tensor<32x!tt.ptr<f32>, #blocked> loc(#loc26)\n    %y_7 = tt.addptr %y, %offsets_1 : tensor<32x!tt.ptr<f32>, #blocked>, tensor<32xi32, #blocked> loc(#loc26)\n    %y_8 = ttg.convert_layout %y_7 : tensor<32x!tt.ptr<f32>, #blocked> -> tensor<32x!tt.ptr<f32>, #blocked> loc(#loc27)\n    %y_9 = ttg.convert_layout %mask_2 : tensor<32xi1, #blocked> -> tensor<32xi1, #blocked> loc(#loc27)\n    %y_10 = tt.load %y_8, %y_9 : tensor<32x!tt.ptr<f32>, #blocked> loc(#loc27)\n    %output = arith.addf %x_6, %y_10 : tensor<32xf32, #blocked> loc(#loc28)\n    %0 = tt.splat %output_ptr : !tt.ptr<f32> -> tensor<32x!tt.ptr<f32>, #blocked> loc(#loc12)\n    %1 = tt.addptr %0, %offsets_1 : tensor<32x!tt.ptr<f32>, #blocked>, tensor<32xi32, #blocked> loc(#loc12)\n    %2 = ttg.convert_layout %1 : tensor<32x!tt.ptr<f32>, #blocked> -> tensor<32x!tt.ptr<f32>, #blocked> loc(#loc13)\n    %3 = ttg.convert_layout %output : tensor<32xf32, #blocked> -> tensor<32xf32, #blocked> loc(#loc13)\n    %4 = ttg.convert_layout %mask_2 : tensor<32xi1, #blocked> -> tensor<32xi1, #blocked> loc(#loc13)\n    tt.store %2, %3, %4 : tensor<32x!tt.ptr<f32>, #blocked> loc(#loc13)\n    tt.return loc(#loc14)\n  } loc(#loc)\n} loc(#loc)\n#loc1 = loc(unknown)\n#loc2 = loc(\"/root/superlensai/sensitivity_study/perturbed_BLOCK_SIZE_32.py\":15:24)\n#loc3 = loc(\"/root/superlensai/sensitivity_study/perturbed_BLOCK_SIZE_32.py\":20:24)\n#loc4 = loc(\"/root/superlensai/sensitivity_study/perturbed_BLOCK_SIZE_32.py\":21:41)\n#loc5 = loc(\"/root/superlensai/sensitivity_study/perturbed_BLOCK_SIZE_32.py\":21:28)\n#loc6 = loc(\"/root/superlensai/sensitivity_study/perturbed_BLOCK_SIZE_32.py\":23:21)\n#loc7 = loc(\"/root/superlensai/sensitivity_study/perturbed_BLOCK_SIZE_32.py\":25:24)\n#loc8 = loc(\"/root/superlensai/sensitivity_study/perturbed_BLOCK_SIZE_32.py\":25:16)\n#loc9 = loc(\"/root/superlensai/sensitivity_study/perturbed_BLOCK_SIZE_32.py\":26:24)\n#loc10 = loc(\"/root/superlensai/sensitivity_study/perturbed_BLOCK_SIZE_32.py\":26:16)\n#loc11 = loc(\"/root/superlensai/sensitivity_study/perturbed_BLOCK_SIZE_32.py\":27:17)\n#loc12 = loc(\"/root/superlensai/sensitivity_study/perturbed_BLOCK_SIZE_32.py\":29:26)\n#loc13 = loc(\"/root/superlensai/sensitivity_study/perturbed_BLOCK_SIZE_32.py\":29:35)\n#loc14 = loc(\"/root/superlensai/sensitivity_study/perturbed_BLOCK_SIZE_32.py\":29:4)\n#loc19 = loc(\"pid\"(#loc2))\n#loc20 = loc(\"block_start\"(#loc3))\n#loc21 = loc(\"offsets\"(#loc4))\n#loc22 = loc(\"offsets\"(#loc5))\n#loc23 = loc(\"mask\"(#loc6))\n#loc24 = loc(\"x\"(#loc7))\n#loc25 = loc(\"x\"(#loc8))\n#loc26 = loc(\"y\"(#loc9))\n#loc27 = loc(\"y\"(#loc10))\n#loc28 = loc(\"output\"(#loc11))"
  },
  {
    "type": "Before",
    "pass_desc": "TritonGPUPlanCTAPass",
    "pass_id": "triton-nvidia-gpu-plan-cta",
    "op_type": "builtin.module",
    "ir": "#blocked = #ttg.blocked<{sizePerThread = [1], threadsPerWarp = [32], warpsPerCTA = [4], order = [0]}>\n#loc = loc(\"/root/superlensai/sensitivity_study/perturbed_BLOCK_SIZE_32.py\":6:0)\n#loc15 = loc(\"x_ptr\"(#loc))\n#loc16 = loc(\"y_ptr\"(#loc))\n#loc17 = loc(\"output_ptr\"(#loc))\n#loc18 = loc(\"n_elements\"(#loc))\nmodule attributes {\"ttg.num-ctas\" = 1 : i32, \"ttg.num-warps\" = 4 : i32, ttg.target = \"cuda:75\", \"ttg.threads-per-warp\" = 32 : i32} {\n  tt.func public @vector_add_kernel(%x_ptr: !tt.ptr<f32> {tt.divisibility = 16 : i32} loc(\"x_ptr\"(#loc)), %y_ptr: !tt.ptr<f32> {tt.divisibility = 16 : i32} loc(\"y_ptr\"(#loc)), %output_ptr: !tt.ptr<f32> {tt.divisibility = 16 : i32} loc(\"output_ptr\"(#loc)), %n_elements: i32 {tt.divisibility = 16 : i32} loc(\"n_elements\"(#loc))) attributes {noinline = false} {\n    %c32_i32 = arith.constant 32 : i32 loc(#loc1)\n    %pid = tt.get_program_id x : i32 loc(#loc19)\n    %block_start = arith.muli %pid, %c32_i32 : i32 loc(#loc20)\n    %offsets = tt.make_range {end = 32 : i32, start = 0 : i32} : tensor<32xi32, #blocked> loc(#loc21)\n    %offsets_0 = tt.splat %block_start : i32 -> tensor<32xi32, #blocked> loc(#loc22)\n    %offsets_1 = arith.addi %offsets_0, %offsets : tensor<32xi32, #blocked> loc(#loc22)\n    %mask = tt.splat %n_elements : i32 -> tensor<32xi32, #blocked> loc(#loc23)\n    %mask_2 = arith.cmpi slt, %offsets_1, %mask : tensor<32xi32, #blocked> loc(#loc23)\n    %x = tt.splat %x_ptr : !tt.ptr<f32> -> tensor<32x!tt.ptr<f32>, #blocked> loc(#loc24)\n    %x_3 = tt.addptr %x, %offsets_1 : tensor<32x!tt.ptr<f32>, #blocked>, tensor<32xi32, #blocked> loc(#loc24)\n    %x_4 = ttg.convert_layout %x_3 : tensor<32x!tt.ptr<f32>, #blocked> -> tensor<32x!tt.ptr<f32>, #blocked> loc(#loc25)\n    %x_5 = ttg.convert_layout %mask_2 : tensor<32xi1, #blocked> -> tensor<32xi1, #blocked> loc(#loc25)\n    %x_6 = tt.load %x_4, %x_5 : tensor<32x!tt.ptr<f32>, #blocked> loc(#loc25)\n    %y = tt.splat %y_ptr : !tt.ptr<f32> -> tensor<32x!tt.ptr<f32>, #blocked> loc(#loc26)\n    %y_7 = tt.addptr %y, %offsets_1 : tensor<32x!tt.ptr<f32>, #blocked>, tensor<32xi32, #blocked> loc(#loc26)\n    %y_8 = ttg.convert_layout %y_7 : tensor<32x!tt.ptr<f32>, #blocked> -> tensor<32x!tt.ptr<f32>, #blocked> loc(#loc27)\n    %y_9 = ttg.convert_layout %mask_2 : tensor<32xi1, #blocked> -> tensor<32xi1, #blocked> loc(#loc27)\n    %y_10 = tt.load %y_8, %y_9 : tensor<32x!tt.ptr<f32>, #blocked> loc(#loc27)\n    %output = arith.addf %x_6, %y_10 : tensor<32xf32, #blocked> loc(#loc28)\n    %0 = tt.splat %output_ptr : !tt.ptr<f32> -> tensor<32x!tt.ptr<f32>, #blocked> loc(#loc12)\n    %1 = tt.addptr %0, %offsets_1 : tensor<32x!tt.ptr<f32>, #blocked>, tensor<32xi32, #blocked> loc(#loc12)\n    %2 = ttg.convert_layout %1 : tensor<32x!tt.ptr<f32>, #blocked> -> tensor<32x!tt.ptr<f32>, #blocked> loc(#loc13)\n    %3 = ttg.convert_layout %output : tensor<32xf32, #blocked> -> tensor<32xf32, #blocked> loc(#loc13)\n    %4 = ttg.convert_layout %mask_2 : tensor<32xi1, #blocked> -> tensor<32xi1, #blocked> loc(#loc13)\n    tt.store %2, %3, %4 : tensor<32x!tt.ptr<f32>, #blocked> loc(#loc13)\n    tt.return loc(#loc14)\n  } loc(#loc)\n} loc(#loc)\n#loc1 = loc(unknown)\n#loc2 = loc(\"/root/superlensai/sensitivity_study/perturbed_BLOCK_SIZE_32.py\":15:24)\n#loc3 = loc(\"/root/superlensai/sensitivity_study/perturbed_BLOCK_SIZE_32.py\":20:24)\n#loc4 = loc(\"/root/superlensai/sensitivity_study/perturbed_BLOCK_SIZE_32.py\":21:41)\n#loc5 = loc(\"/root/superlensai/sensitivity_study/perturbed_BLOCK_SIZE_32.py\":21:28)\n#loc6 = loc(\"/root/superlensai/sensitivity_study/perturbed_BLOCK_SIZE_32.py\":23:21)\n#loc7 = loc(\"/root/superlensai/sensitivity_study/perturbed_BLOCK_SIZE_32.py\":25:24)\n#loc8 = loc(\"/root/superlensai/sensitivity_study/perturbed_BLOCK_SIZE_32.py\":25:16)\n#loc9 = loc(\"/root/superlensai/sensitivity_study/perturbed_BLOCK_SIZE_32.py\":26:24)\n#loc10 = loc(\"/root/superlensai/sensitivity_study/perturbed_BLOCK_SIZE_32.py\":26:16)\n#loc11 = loc(\"/root/superlensai/sensitivity_study/perturbed_BLOCK_SIZE_32.py\":27:17)\n#loc12 = loc(\"/root/superlensai/sensitivity_study/perturbed_BLOCK_SIZE_32.py\":29:26)\n#loc13 = loc(\"/root/superlensai/sensitivity_study/perturbed_BLOCK_SIZE_32.py\":29:35)\n#loc14 = loc(\"/root/superlensai/sensitivity_study/perturbed_BLOCK_SIZE_32.py\":29:4)\n#loc19 = loc(\"pid\"(#loc2))\n#loc20 = loc(\"block_start\"(#loc3))\n#loc21 = loc(\"offsets\"(#loc4))\n#loc22 = loc(\"offsets\"(#loc5))\n#loc23 = loc(\"mask\"(#loc6))\n#loc24 = loc(\"x\"(#loc7))\n#loc25 = loc(\"x\"(#loc8))\n#loc26 = loc(\"y\"(#loc9))\n#loc27 = loc(\"y\"(#loc10))\n#loc28 = loc(\"output\"(#loc11))"
  },
  {
    "type": "Before",
    "pass_desc": "TritonGPURemoveLayoutConversions",
    "pass_id": "tritongpu-remove-layout-conversions",
    "op_type": "builtin.module",
    "ir": "#blocked = #ttg.blocked<{sizePerThread = [1], threadsPerWarp = [32], warpsPerCTA = [4], order = [0]}>\n#loc = loc(\"/root/superlensai/sensitivity_study/perturbed_BLOCK_SIZE_32.py\":6:0)\n#loc15 = loc(\"x_ptr\"(#loc))\n#loc16 = loc(\"y_ptr\"(#loc))\n#loc17 = loc(\"output_ptr\"(#loc))\n#loc18 = loc(\"n_elements\"(#loc))\nmodule attributes {\"ttg.num-ctas\" = 1 : i32, \"ttg.num-warps\" = 4 : i32, ttg.target = \"cuda:75\", \"ttg.threads-per-warp\" = 32 : i32} {\n  tt.func public @vector_add_kernel(%x_ptr: !tt.ptr<f32> {tt.divisibility = 16 : i32} loc(\"x_ptr\"(#loc)), %y_ptr: !tt.ptr<f32> {tt.divisibility = 16 : i32} loc(\"y_ptr\"(#loc)), %output_ptr: !tt.ptr<f32> {tt.divisibility = 16 : i32} loc(\"output_ptr\"(#loc)), %n_elements: i32 {tt.divisibility = 16 : i32} loc(\"n_elements\"(#loc))) attributes {noinline = false} {\n    %c32_i32 = arith.constant 32 : i32 loc(#loc1)\n    %pid = tt.get_program_id x : i32 loc(#loc19)\n    %block_start = arith.muli %pid, %c32_i32 : i32 loc(#loc20)\n    %offsets = tt.make_range {end = 32 : i32, start = 0 : i32} : tensor<32xi32, #blocked> loc(#loc21)\n    %offsets_0 = tt.splat %block_start : i32 -> tensor<32xi32, #blocked> loc(#loc22)\n    %offsets_1 = arith.addi %offsets_0, %offsets : tensor<32xi32, #blocked> loc(#loc22)\n    %mask = tt.splat %n_elements : i32 -> tensor<32xi32, #blocked> loc(#loc23)\n    %mask_2 = arith.cmpi slt, %offsets_1, %mask : tensor<32xi32, #blocked> loc(#loc23)\n    %x = tt.splat %x_ptr : !tt.ptr<f32> -> tensor<32x!tt.ptr<f32>, #blocked> loc(#loc24)\n    %x_3 = tt.addptr %x, %offsets_1 : tensor<32x!tt.ptr<f32>, #blocked>, tensor<32xi32, #blocked> loc(#loc24)\n    %x_4 = ttg.convert_layout %x_3 : tensor<32x!tt.ptr<f32>, #blocked> -> tensor<32x!tt.ptr<f32>, #blocked> loc(#loc25)\n    %x_5 = ttg.convert_layout %mask_2 : tensor<32xi1, #blocked> -> tensor<32xi1, #blocked> loc(#loc25)\n    %x_6 = tt.load %x_4, %x_5 : tensor<32x!tt.ptr<f32>, #blocked> loc(#loc25)\n    %y = tt.splat %y_ptr : !tt.ptr<f32> -> tensor<32x!tt.ptr<f32>, #blocked> loc(#loc26)\n    %y_7 = tt.addptr %y, %offsets_1 : tensor<32x!tt.ptr<f32>, #blocked>, tensor<32xi32, #blocked> loc(#loc26)\n    %y_8 = ttg.convert_layout %y_7 : tensor<32x!tt.ptr<f32>, #blocked> -> tensor<32x!tt.ptr<f32>, #blocked> loc(#loc27)\n    %y_9 = ttg.convert_layout %mask_2 : tensor<32xi1, #blocked> -> tensor<32xi1, #blocked> loc(#loc27)\n    %y_10 = tt.load %y_8, %y_9 : tensor<32x!tt.ptr<f32>, #blocked> loc(#loc27)\n    %output = arith.addf %x_6, %y_10 : tensor<32xf32, #blocked> loc(#loc28)\n    %0 = tt.splat %output_ptr : !tt.ptr<f32> -> tensor<32x!tt.ptr<f32>, #blocked> loc(#loc12)\n    %1 = tt.addptr %0, %offsets_1 : tensor<32x!tt.ptr<f32>, #blocked>, tensor<32xi32, #blocked> loc(#loc12)\n    %2 = ttg.convert_layout %1 : tensor<32x!tt.ptr<f32>, #blocked> -> tensor<32x!tt.ptr<f32>, #blocked> loc(#loc13)\n    %3 = ttg.convert_layout %output : tensor<32xf32, #blocked> -> tensor<32xf32, #blocked> loc(#loc13)\n    %4 = ttg.convert_layout %mask_2 : tensor<32xi1, #blocked> -> tensor<32xi1, #blocked> loc(#loc13)\n    tt.store %2, %3, %4 : tensor<32x!tt.ptr<f32>, #blocked> loc(#loc13)\n    tt.return loc(#loc14)\n  } loc(#loc)\n} loc(#loc)\n#loc1 = loc(unknown)\n#loc2 = loc(\"/root/superlensai/sensitivity_study/perturbed_BLOCK_SIZE_32.py\":15:24)\n#loc3 = loc(\"/root/superlensai/sensitivity_study/perturbed_BLOCK_SIZE_32.py\":20:24)\n#loc4 = loc(\"/root/superlensai/sensitivity_study/perturbed_BLOCK_SIZE_32.py\":21:41)\n#loc5 = loc(\"/root/superlensai/sensitivity_study/perturbed_BLOCK_SIZE_32.py\":21:28)\n#loc6 = loc(\"/root/superlensai/sensitivity_study/perturbed_BLOCK_SIZE_32.py\":23:21)\n#loc7 = loc(\"/root/superlensai/sensitivity_study/perturbed_BLOCK_SIZE_32.py\":25:24)\n#loc8 = loc(\"/root/superlensai/sensitivity_study/perturbed_BLOCK_SIZE_32.py\":25:16)\n#loc9 = loc(\"/root/superlensai/sensitivity_study/perturbed_BLOCK_SIZE_32.py\":26:24)\n#loc10 = loc(\"/root/superlensai/sensitivity_study/perturbed_BLOCK_SIZE_32.py\":26:16)\n#loc11 = loc(\"/root/superlensai/sensitivity_study/perturbed_BLOCK_SIZE_32.py\":27:17)\n#loc12 = loc(\"/root/superlensai/sensitivity_study/perturbed_BLOCK_SIZE_32.py\":29:26)\n#loc13 = loc(\"/root/superlensai/sensitivity_study/perturbed_BLOCK_SIZE_32.py\":29:35)\n#loc14 = loc(\"/root/superlensai/sensitivity_study/perturbed_BLOCK_SIZE_32.py\":29:4)\n#loc19 = loc(\"pid\"(#loc2))\n#loc20 = loc(\"block_start\"(#loc3))\n#loc21 = loc(\"offsets\"(#loc4))\n#loc22 = loc(\"offsets\"(#loc5))\n#loc23 = loc(\"mask\"(#loc6))\n#loc24 = loc(\"x\"(#loc7))\n#loc25 = loc(\"x\"(#loc8))\n#loc26 = loc(\"y\"(#loc9))\n#loc27 = loc(\"y\"(#loc10))\n#loc28 = loc(\"output\"(#loc11))"
  },
  {
    "type": "Before",
    "pass_desc": "TritonGPUOptimizeThreadLocality",
    "pass_id": "tritongpu-optimize-thread-locality",
    "op_type": "builtin.module",
    "ir": "#blocked = #ttg.blocked<{sizePerThread = [1], threadsPerWarp = [32], warpsPerCTA = [4], order = [0]}>\n#loc = loc(\"/root/superlensai/sensitivity_study/perturbed_BLOCK_SIZE_32.py\":6:0)\n#loc15 = loc(\"x_ptr\"(#loc))\n#loc16 = loc(\"y_ptr\"(#loc))\n#loc17 = loc(\"output_ptr\"(#loc))\n#loc18 = loc(\"n_elements\"(#loc))\nmodule attributes {\"ttg.num-ctas\" = 1 : i32, \"ttg.num-warps\" = 4 : i32, ttg.target = \"cuda:75\", \"ttg.threads-per-warp\" = 32 : i32} {\n  tt.func public @vector_add_kernel(%x_ptr: !tt.ptr<f32> {tt.divisibility = 16 : i32} loc(\"x_ptr\"(#loc)), %y_ptr: !tt.ptr<f32> {tt.divisibility = 16 : i32} loc(\"y_ptr\"(#loc)), %output_ptr: !tt.ptr<f32> {tt.divisibility = 16 : i32} loc(\"output_ptr\"(#loc)), %n_elements: i32 {tt.divisibility = 16 : i32} loc(\"n_elements\"(#loc))) attributes {noinline = false} {\n    %c32_i32 = arith.constant 32 : i32 loc(#loc1)\n    %pid = tt.get_program_id x : i32 loc(#loc19)\n    %block_start = arith.muli %pid, %c32_i32 : i32 loc(#loc20)\n    %offsets = tt.make_range {end = 32 : i32, start = 0 : i32} : tensor<32xi32, #blocked> loc(#loc21)\n    %offsets_0 = tt.splat %block_start : i32 -> tensor<32xi32, #blocked> loc(#loc22)\n    %offsets_1 = arith.addi %offsets_0, %offsets : tensor<32xi32, #blocked> loc(#loc22)\n    %mask = tt.splat %n_elements : i32 -> tensor<32xi32, #blocked> loc(#loc23)\n    %mask_2 = arith.cmpi slt, %offsets_1, %mask : tensor<32xi32, #blocked> loc(#loc23)\n    %x = tt.splat %x_ptr : !tt.ptr<f32> -> tensor<32x!tt.ptr<f32>, #blocked> loc(#loc24)\n    %x_3 = tt.addptr %x, %offsets_1 : tensor<32x!tt.ptr<f32>, #blocked>, tensor<32xi32, #blocked> loc(#loc24)\n    %x_4 = tt.load %x_3, %mask_2 : tensor<32x!tt.ptr<f32>, #blocked> loc(#loc25)\n    %y = tt.splat %y_ptr : !tt.ptr<f32> -> tensor<32x!tt.ptr<f32>, #blocked> loc(#loc26)\n    %y_5 = tt.addptr %y, %offsets_1 : tensor<32x!tt.ptr<f32>, #blocked>, tensor<32xi32, #blocked> loc(#loc26)\n    %y_6 = tt.load %y_5, %mask_2 : tensor<32x!tt.ptr<f32>, #blocked> loc(#loc27)\n    %output = arith.addf %x_4, %y_6 : tensor<32xf32, #blocked> loc(#loc28)\n    %0 = tt.splat %output_ptr : !tt.ptr<f32> -> tensor<32x!tt.ptr<f32>, #blocked> loc(#loc12)\n    %1 = tt.addptr %0, %offsets_1 : tensor<32x!tt.ptr<f32>, #blocked>, tensor<32xi32, #blocked> loc(#loc12)\n    tt.store %1, %output, %mask_2 : tensor<32x!tt.ptr<f32>, #blocked> loc(#loc13)\n    tt.return loc(#loc14)\n  } loc(#loc)\n} loc(#loc)\n#loc1 = loc(unknown)\n#loc2 = loc(\"/root/superlensai/sensitivity_study/perturbed_BLOCK_SIZE_32.py\":15:24)\n#loc3 = loc(\"/root/superlensai/sensitivity_study/perturbed_BLOCK_SIZE_32.py\":20:24)\n#loc4 = loc(\"/root/superlensai/sensitivity_study/perturbed_BLOCK_SIZE_32.py\":21:41)\n#loc5 = loc(\"/root/superlensai/sensitivity_study/perturbed_BLOCK_SIZE_32.py\":21:28)\n#loc6 = loc(\"/root/superlensai/sensitivity_study/perturbed_BLOCK_SIZE_32.py\":23:21)\n#loc7 = loc(\"/root/superlensai/sensitivity_study/perturbed_BLOCK_SIZE_32.py\":25:24)\n#loc8 = loc(\"/root/superlensai/sensitivity_study/perturbed_BLOCK_SIZE_32.py\":25:16)\n#loc9 = loc(\"/root/superlensai/sensitivity_study/perturbed_BLOCK_SIZE_32.py\":26:24)\n#loc10 = loc(\"/root/superlensai/sensitivity_study/perturbed_BLOCK_SIZE_32.py\":26:16)\n#loc11 = loc(\"/root/superlensai/sensitivity_study/perturbed_BLOCK_SIZE_32.py\":27:17)\n#loc12 = loc(\"/root/superlensai/sensitivity_study/perturbed_BLOCK_SIZE_32.py\":29:26)\n#loc13 = loc(\"/root/superlensai/sensitivity_study/perturbed_BLOCK_SIZE_32.py\":29:35)\n#loc14 = loc(\"/root/superlensai/sensitivity_study/perturbed_BLOCK_SIZE_32.py\":29:4)\n#loc19 = loc(\"pid\"(#loc2))\n#loc20 = loc(\"block_start\"(#loc3))\n#loc21 = loc(\"offsets\"(#loc4))\n#loc22 = loc(\"offsets\"(#loc5))\n#loc23 = loc(\"mask\"(#loc6))\n#loc24 = loc(\"x\"(#loc7))\n#loc25 = loc(\"x\"(#loc8))\n#loc26 = loc(\"y\"(#loc9))\n#loc27 = loc(\"y\"(#loc10))\n#loc28 = loc(\"output\"(#loc11))"
  },
  {
    "type": "Before",
    "pass_desc": "TritonGPUAccelerateMatmul",
    "pass_id": "tritongpu-accelerate-matmul",
    "op_type": "builtin.module",
    "ir": "#blocked = #ttg.blocked<{sizePerThread = [1], threadsPerWarp = [32], warpsPerCTA = [4], order = [0]}>\n#loc = loc(\"/root/superlensai/sensitivity_study/perturbed_BLOCK_SIZE_32.py\":6:0)\n#loc15 = loc(\"x_ptr\"(#loc))\n#loc16 = loc(\"y_ptr\"(#loc))\n#loc17 = loc(\"output_ptr\"(#loc))\n#loc18 = loc(\"n_elements\"(#loc))\nmodule attributes {\"ttg.num-ctas\" = 1 : i32, \"ttg.num-warps\" = 4 : i32, ttg.target = \"cuda:75\", \"ttg.threads-per-warp\" = 32 : i32} {\n  tt.func public @vector_add_kernel(%x_ptr: !tt.ptr<f32> {tt.divisibility = 16 : i32} loc(\"x_ptr\"(#loc)), %y_ptr: !tt.ptr<f32> {tt.divisibility = 16 : i32} loc(\"y_ptr\"(#loc)), %output_ptr: !tt.ptr<f32> {tt.divisibility = 16 : i32} loc(\"output_ptr\"(#loc)), %n_elements: i32 {tt.divisibility = 16 : i32} loc(\"n_elements\"(#loc))) attributes {noinline = false} {\n    %c32_i32 = arith.constant 32 : i32 loc(#loc1)\n    %pid = tt.get_program_id x : i32 loc(#loc19)\n    %block_start = arith.muli %pid, %c32_i32 : i32 loc(#loc20)\n    %offsets = tt.make_range {end = 32 : i32, start = 0 : i32} : tensor<32xi32, #blocked> loc(#loc21)\n    %offsets_0 = tt.splat %block_start : i32 -> tensor<32xi32, #blocked> loc(#loc22)\n    %offsets_1 = arith.addi %offsets_0, %offsets : tensor<32xi32, #blocked> loc(#loc22)\n    %mask = tt.splat %n_elements : i32 -> tensor<32xi32, #blocked> loc(#loc23)\n    %mask_2 = arith.cmpi slt, %offsets_1, %mask : tensor<32xi32, #blocked> loc(#loc23)\n    %x = tt.splat %x_ptr : !tt.ptr<f32> -> tensor<32x!tt.ptr<f32>, #blocked> loc(#loc24)\n    %x_3 = tt.addptr %x, %offsets_1 : tensor<32x!tt.ptr<f32>, #blocked>, tensor<32xi32, #blocked> loc(#loc24)\n    %x_4 = tt.load %x_3, %mask_2 : tensor<32x!tt.ptr<f32>, #blocked> loc(#loc25)\n    %y = tt.splat %y_ptr : !tt.ptr<f32> -> tensor<32x!tt.ptr<f32>, #blocked> loc(#loc26)\n    %y_5 = tt.addptr %y, %offsets_1 : tensor<32x!tt.ptr<f32>, #blocked>, tensor<32xi32, #blocked> loc(#loc26)\n    %y_6 = tt.load %y_5, %mask_2 : tensor<32x!tt.ptr<f32>, #blocked> loc(#loc27)\n    %output = arith.addf %x_4, %y_6 : tensor<32xf32, #blocked> loc(#loc28)\n    %0 = tt.splat %output_ptr : !tt.ptr<f32> -> tensor<32x!tt.ptr<f32>, #blocked> loc(#loc12)\n    %1 = tt.addptr %0, %offsets_1 : tensor<32x!tt.ptr<f32>, #blocked>, tensor<32xi32, #blocked> loc(#loc12)\n    tt.store %1, %output, %mask_2 : tensor<32x!tt.ptr<f32>, #blocked> loc(#loc13)\n    tt.return loc(#loc14)\n  } loc(#loc)\n} loc(#loc)\n#loc1 = loc(unknown)\n#loc2 = loc(\"/root/superlensai/sensitivity_study/perturbed_BLOCK_SIZE_32.py\":15:24)\n#loc3 = loc(\"/root/superlensai/sensitivity_study/perturbed_BLOCK_SIZE_32.py\":20:24)\n#loc4 = loc(\"/root/superlensai/sensitivity_study/perturbed_BLOCK_SIZE_32.py\":21:41)\n#loc5 = loc(\"/root/superlensai/sensitivity_study/perturbed_BLOCK_SIZE_32.py\":21:28)\n#loc6 = loc(\"/root/superlensai/sensitivity_study/perturbed_BLOCK_SIZE_32.py\":23:21)\n#loc7 = loc(\"/root/superlensai/sensitivity_study/perturbed_BLOCK_SIZE_32.py\":25:24)\n#loc8 = loc(\"/root/superlensai/sensitivity_study/perturbed_BLOCK_SIZE_32.py\":25:16)\n#loc9 = loc(\"/root/superlensai/sensitivity_study/perturbed_BLOCK_SIZE_32.py\":26:24)\n#loc10 = loc(\"/root/superlensai/sensitivity_study/perturbed_BLOCK_SIZE_32.py\":26:16)\n#loc11 = loc(\"/root/superlensai/sensitivity_study/perturbed_BLOCK_SIZE_32.py\":27:17)\n#loc12 = loc(\"/root/superlensai/sensitivity_study/perturbed_BLOCK_SIZE_32.py\":29:26)\n#loc13 = loc(\"/root/superlensai/sensitivity_study/perturbed_BLOCK_SIZE_32.py\":29:35)\n#loc14 = loc(\"/root/superlensai/sensitivity_study/perturbed_BLOCK_SIZE_32.py\":29:4)\n#loc19 = loc(\"pid\"(#loc2))\n#loc20 = loc(\"block_start\"(#loc3))\n#loc21 = loc(\"offsets\"(#loc4))\n#loc22 = loc(\"offsets\"(#loc5))\n#loc23 = loc(\"mask\"(#loc6))\n#loc24 = loc(\"x\"(#loc7))\n#loc25 = loc(\"x\"(#loc8))\n#loc26 = loc(\"y\"(#loc9))\n#loc27 = loc(\"y\"(#loc10))\n#loc28 = loc(\"output\"(#loc11))"
  },
  {
    "type": "Before",
    "pass_desc": "TritonGPURemoveLayoutConversions",
    "pass_id": "tritongpu-remove-layout-conversions",
    "op_type": "builtin.module",
    "ir": "#blocked = #ttg.blocked<{sizePerThread = [1], threadsPerWarp = [32], warpsPerCTA = [4], order = [0]}>\n#loc = loc(\"/root/superlensai/sensitivity_study/perturbed_BLOCK_SIZE_32.py\":6:0)\n#loc15 = loc(\"x_ptr\"(#loc))\n#loc16 = loc(\"y_ptr\"(#loc))\n#loc17 = loc(\"output_ptr\"(#loc))\n#loc18 = loc(\"n_elements\"(#loc))\nmodule attributes {\"ttg.num-ctas\" = 1 : i32, \"ttg.num-warps\" = 4 : i32, ttg.target = \"cuda:75\", \"ttg.threads-per-warp\" = 32 : i32} {\n  tt.func public @vector_add_kernel(%x_ptr: !tt.ptr<f32> {tt.divisibility = 16 : i32} loc(\"x_ptr\"(#loc)), %y_ptr: !tt.ptr<f32> {tt.divisibility = 16 : i32} loc(\"y_ptr\"(#loc)), %output_ptr: !tt.ptr<f32> {tt.divisibility = 16 : i32} loc(\"output_ptr\"(#loc)), %n_elements: i32 {tt.divisibility = 16 : i32} loc(\"n_elements\"(#loc))) attributes {noinline = false} {\n    %c32_i32 = arith.constant 32 : i32 loc(#loc1)\n    %pid = tt.get_program_id x : i32 loc(#loc19)\n    %block_start = arith.muli %pid, %c32_i32 : i32 loc(#loc20)\n    %offsets = tt.make_range {end = 32 : i32, start = 0 : i32} : tensor<32xi32, #blocked> loc(#loc21)\n    %offsets_0 = tt.splat %block_start : i32 -> tensor<32xi32, #blocked> loc(#loc22)\n    %offsets_1 = arith.addi %offsets_0, %offsets : tensor<32xi32, #blocked> loc(#loc22)\n    %mask = tt.splat %n_elements : i32 -> tensor<32xi32, #blocked> loc(#loc23)\n    %mask_2 = arith.cmpi slt, %offsets_1, %mask : tensor<32xi32, #blocked> loc(#loc23)\n    %x = tt.splat %x_ptr : !tt.ptr<f32> -> tensor<32x!tt.ptr<f32>, #blocked> loc(#loc24)\n    %x_3 = tt.addptr %x, %offsets_1 : tensor<32x!tt.ptr<f32>, #blocked>, tensor<32xi32, #blocked> loc(#loc24)\n    %x_4 = tt.load %x_3, %mask_2 : tensor<32x!tt.ptr<f32>, #blocked> loc(#loc25)\n    %y = tt.splat %y_ptr : !tt.ptr<f32> -> tensor<32x!tt.ptr<f32>, #blocked> loc(#loc26)\n    %y_5 = tt.addptr %y, %offsets_1 : tensor<32x!tt.ptr<f32>, #blocked>, tensor<32xi32, #blocked> loc(#loc26)\n    %y_6 = tt.load %y_5, %mask_2 : tensor<32x!tt.ptr<f32>, #blocked> loc(#loc27)\n    %output = arith.addf %x_4, %y_6 : tensor<32xf32, #blocked> loc(#loc28)\n    %0 = tt.splat %output_ptr : !tt.ptr<f32> -> tensor<32x!tt.ptr<f32>, #blocked> loc(#loc12)\n    %1 = tt.addptr %0, %offsets_1 : tensor<32x!tt.ptr<f32>, #blocked>, tensor<32xi32, #blocked> loc(#loc12)\n    tt.store %1, %output, %mask_2 : tensor<32x!tt.ptr<f32>, #blocked> loc(#loc13)\n    tt.return loc(#loc14)\n  } loc(#loc)\n} loc(#loc)\n#loc1 = loc(unknown)\n#loc2 = loc(\"/root/superlensai/sensitivity_study/perturbed_BLOCK_SIZE_32.py\":15:24)\n#loc3 = loc(\"/root/superlensai/sensitivity_study/perturbed_BLOCK_SIZE_32.py\":20:24)\n#loc4 = loc(\"/root/superlensai/sensitivity_study/perturbed_BLOCK_SIZE_32.py\":21:41)\n#loc5 = loc(\"/root/superlensai/sensitivity_study/perturbed_BLOCK_SIZE_32.py\":21:28)\n#loc6 = loc(\"/root/superlensai/sensitivity_study/perturbed_BLOCK_SIZE_32.py\":23:21)\n#loc7 = loc(\"/root/superlensai/sensitivity_study/perturbed_BLOCK_SIZE_32.py\":25:24)\n#loc8 = loc(\"/root/superlensai/sensitivity_study/perturbed_BLOCK_SIZE_32.py\":25:16)\n#loc9 = loc(\"/root/superlensai/sensitivity_study/perturbed_BLOCK_SIZE_32.py\":26:24)\n#loc10 = loc(\"/root/superlensai/sensitivity_study/perturbed_BLOCK_SIZE_32.py\":26:16)\n#loc11 = loc(\"/root/superlensai/sensitivity_study/perturbed_BLOCK_SIZE_32.py\":27:17)\n#loc12 = loc(\"/root/superlensai/sensitivity_study/perturbed_BLOCK_SIZE_32.py\":29:26)\n#loc13 = loc(\"/root/superlensai/sensitivity_study/perturbed_BLOCK_SIZE_32.py\":29:35)\n#loc14 = loc(\"/root/superlensai/sensitivity_study/perturbed_BLOCK_SIZE_32.py\":29:4)\n#loc19 = loc(\"pid\"(#loc2))\n#loc20 = loc(\"block_start\"(#loc3))\n#loc21 = loc(\"offsets\"(#loc4))\n#loc22 = loc(\"offsets\"(#loc5))\n#loc23 = loc(\"mask\"(#loc6))\n#loc24 = loc(\"x\"(#loc7))\n#loc25 = loc(\"x\"(#loc8))\n#loc26 = loc(\"y\"(#loc9))\n#loc27 = loc(\"y\"(#loc10))\n#loc28 = loc(\"output\"(#loc11))"
  },
  {
    "type": "Before",
    "pass_desc": "TritonGPUOptimizeDotOperands",
    "pass_id": "tritongpu-optimize-dot-operands",
    "op_type": "builtin.module",
    "ir": "#blocked = #ttg.blocked<{sizePerThread = [1], threadsPerWarp = [32], warpsPerCTA = [4], order = [0]}>\n#loc = loc(\"/root/superlensai/sensitivity_study/perturbed_BLOCK_SIZE_32.py\":6:0)\n#loc15 = loc(\"x_ptr\"(#loc))\n#loc16 = loc(\"y_ptr\"(#loc))\n#loc17 = loc(\"output_ptr\"(#loc))\n#loc18 = loc(\"n_elements\"(#loc))\nmodule attributes {\"ttg.num-ctas\" = 1 : i32, \"ttg.num-warps\" = 4 : i32, ttg.target = \"cuda:75\", \"ttg.threads-per-warp\" = 32 : i32} {\n  tt.func public @vector_add_kernel(%x_ptr: !tt.ptr<f32> {tt.divisibility = 16 : i32} loc(\"x_ptr\"(#loc)), %y_ptr: !tt.ptr<f32> {tt.divisibility = 16 : i32} loc(\"y_ptr\"(#loc)), %output_ptr: !tt.ptr<f32> {tt.divisibility = 16 : i32} loc(\"output_ptr\"(#loc)), %n_elements: i32 {tt.divisibility = 16 : i32} loc(\"n_elements\"(#loc))) attributes {noinline = false} {\n    %c32_i32 = arith.constant 32 : i32 loc(#loc1)\n    %pid = tt.get_program_id x : i32 loc(#loc19)\n    %block_start = arith.muli %pid, %c32_i32 : i32 loc(#loc20)\n    %offsets = tt.make_range {end = 32 : i32, start = 0 : i32} : tensor<32xi32, #blocked> loc(#loc21)\n    %offsets_0 = tt.splat %block_start : i32 -> tensor<32xi32, #blocked> loc(#loc22)\n    %offsets_1 = arith.addi %offsets_0, %offsets : tensor<32xi32, #blocked> loc(#loc22)\n    %mask = tt.splat %n_elements : i32 -> tensor<32xi32, #blocked> loc(#loc23)\n    %mask_2 = arith.cmpi slt, %offsets_1, %mask : tensor<32xi32, #blocked> loc(#loc23)\n    %x = tt.splat %x_ptr : !tt.ptr<f32> -> tensor<32x!tt.ptr<f32>, #blocked> loc(#loc24)\n    %x_3 = tt.addptr %x, %offsets_1 : tensor<32x!tt.ptr<f32>, #blocked>, tensor<32xi32, #blocked> loc(#loc24)\n    %x_4 = tt.load %x_3, %mask_2 : tensor<32x!tt.ptr<f32>, #blocked> loc(#loc25)\n    %y = tt.splat %y_ptr : !tt.ptr<f32> -> tensor<32x!tt.ptr<f32>, #blocked> loc(#loc26)\n    %y_5 = tt.addptr %y, %offsets_1 : tensor<32x!tt.ptr<f32>, #blocked>, tensor<32xi32, #blocked> loc(#loc26)\n    %y_6 = tt.load %y_5, %mask_2 : tensor<32x!tt.ptr<f32>, #blocked> loc(#loc27)\n    %output = arith.addf %x_4, %y_6 : tensor<32xf32, #blocked> loc(#loc28)\n    %0 = tt.splat %output_ptr : !tt.ptr<f32> -> tensor<32x!tt.ptr<f32>, #blocked> loc(#loc12)\n    %1 = tt.addptr %0, %offsets_1 : tensor<32x!tt.ptr<f32>, #blocked>, tensor<32xi32, #blocked> loc(#loc12)\n    tt.store %1, %output, %mask_2 : tensor<32x!tt.ptr<f32>, #blocked> loc(#loc13)\n    tt.return loc(#loc14)\n  } loc(#loc)\n} loc(#loc)\n#loc1 = loc(unknown)\n#loc2 = loc(\"/root/superlensai/sensitivity_study/perturbed_BLOCK_SIZE_32.py\":15:24)\n#loc3 = loc(\"/root/superlensai/sensitivity_study/perturbed_BLOCK_SIZE_32.py\":20:24)\n#loc4 = loc(\"/root/superlensai/sensitivity_study/perturbed_BLOCK_SIZE_32.py\":21:41)\n#loc5 = loc(\"/root/superlensai/sensitivity_study/perturbed_BLOCK_SIZE_32.py\":21:28)\n#loc6 = loc(\"/root/superlensai/sensitivity_study/perturbed_BLOCK_SIZE_32.py\":23:21)\n#loc7 = loc(\"/root/superlensai/sensitivity_study/perturbed_BLOCK_SIZE_32.py\":25:24)\n#loc8 = loc(\"/root/superlensai/sensitivity_study/perturbed_BLOCK_SIZE_32.py\":25:16)\n#loc9 = loc(\"/root/superlensai/sensitivity_study/perturbed_BLOCK_SIZE_32.py\":26:24)\n#loc10 = loc(\"/root/superlensai/sensitivity_study/perturbed_BLOCK_SIZE_32.py\":26:16)\n#loc11 = loc(\"/root/superlensai/sensitivity_study/perturbed_BLOCK_SIZE_32.py\":27:17)\n#loc12 = loc(\"/root/superlensai/sensitivity_study/perturbed_BLOCK_SIZE_32.py\":29:26)\n#loc13 = loc(\"/root/superlensai/sensitivity_study/perturbed_BLOCK_SIZE_32.py\":29:35)\n#loc14 = loc(\"/root/superlensai/sensitivity_study/perturbed_BLOCK_SIZE_32.py\":29:4)\n#loc19 = loc(\"pid\"(#loc2))\n#loc20 = loc(\"block_start\"(#loc3))\n#loc21 = loc(\"offsets\"(#loc4))\n#loc22 = loc(\"offsets\"(#loc5))\n#loc23 = loc(\"mask\"(#loc6))\n#loc24 = loc(\"x\"(#loc7))\n#loc25 = loc(\"x\"(#loc8))\n#loc26 = loc(\"y\"(#loc9))\n#loc27 = loc(\"y\"(#loc10))\n#loc28 = loc(\"output\"(#loc11))"
  },
  {
    "type": "Before",
    "pass_desc": "Canonicalizer",
    "pass_id": "canonicalize",
    "op_type": "builtin.module",
    "ir": "#blocked = #ttg.blocked<{sizePerThread = [1], threadsPerWarp = [32], warpsPerCTA = [4], order = [0]}>\n#loc = loc(\"/root/superlensai/sensitivity_study/perturbed_BLOCK_SIZE_32.py\":6:0)\n#loc15 = loc(\"x_ptr\"(#loc))\n#loc16 = loc(\"y_ptr\"(#loc))\n#loc17 = loc(\"output_ptr\"(#loc))\n#loc18 = loc(\"n_elements\"(#loc))\nmodule attributes {\"ttg.num-ctas\" = 1 : i32, \"ttg.num-warps\" = 4 : i32, ttg.target = \"cuda:75\", \"ttg.threads-per-warp\" = 32 : i32} {\n  tt.func public @vector_add_kernel(%x_ptr: !tt.ptr<f32> {tt.divisibility = 16 : i32} loc(\"x_ptr\"(#loc)), %y_ptr: !tt.ptr<f32> {tt.divisibility = 16 : i32} loc(\"y_ptr\"(#loc)), %output_ptr: !tt.ptr<f32> {tt.divisibility = 16 : i32} loc(\"output_ptr\"(#loc)), %n_elements: i32 {tt.divisibility = 16 : i32} loc(\"n_elements\"(#loc))) attributes {noinline = false} {\n    %c32_i32 = arith.constant 32 : i32 loc(#loc1)\n    %pid = tt.get_program_id x : i32 loc(#loc19)\n    %block_start = arith.muli %pid, %c32_i32 : i32 loc(#loc20)\n    %offsets = tt.make_range {end = 32 : i32, start = 0 : i32} : tensor<32xi32, #blocked> loc(#loc21)\n    %offsets_0 = tt.splat %block_start : i32 -> tensor<32xi32, #blocked> loc(#loc22)\n    %offsets_1 = arith.addi %offsets_0, %offsets : tensor<32xi32, #blocked> loc(#loc22)\n    %mask = tt.splat %n_elements : i32 -> tensor<32xi32, #blocked> loc(#loc23)\n    %mask_2 = arith.cmpi slt, %offsets_1, %mask : tensor<32xi32, #blocked> loc(#loc23)\n    %x = tt.splat %x_ptr : !tt.ptr<f32> -> tensor<32x!tt.ptr<f32>, #blocked> loc(#loc24)\n    %x_3 = tt.addptr %x, %offsets_1 : tensor<32x!tt.ptr<f32>, #blocked>, tensor<32xi32, #blocked> loc(#loc24)\n    %x_4 = tt.load %x_3, %mask_2 : tensor<32x!tt.ptr<f32>, #blocked> loc(#loc25)\n    %y = tt.splat %y_ptr : !tt.ptr<f32> -> tensor<32x!tt.ptr<f32>, #blocked> loc(#loc26)\n    %y_5 = tt.addptr %y, %offsets_1 : tensor<32x!tt.ptr<f32>, #blocked>, tensor<32xi32, #blocked> loc(#loc26)\n    %y_6 = tt.load %y_5, %mask_2 : tensor<32x!tt.ptr<f32>, #blocked> loc(#loc27)\n    %output = arith.addf %x_4, %y_6 : tensor<32xf32, #blocked> loc(#loc28)\n    %0 = tt.splat %output_ptr : !tt.ptr<f32> -> tensor<32x!tt.ptr<f32>, #blocked> loc(#loc12)\n    %1 = tt.addptr %0, %offsets_1 : tensor<32x!tt.ptr<f32>, #blocked>, tensor<32xi32, #blocked> loc(#loc12)\n    tt.store %1, %output, %mask_2 : tensor<32x!tt.ptr<f32>, #blocked> loc(#loc13)\n    tt.return loc(#loc14)\n  } loc(#loc)\n} loc(#loc)\n#loc1 = loc(unknown)\n#loc2 = loc(\"/root/superlensai/sensitivity_study/perturbed_BLOCK_SIZE_32.py\":15:24)\n#loc3 = loc(\"/root/superlensai/sensitivity_study/perturbed_BLOCK_SIZE_32.py\":20:24)\n#loc4 = loc(\"/root/superlensai/sensitivity_study/perturbed_BLOCK_SIZE_32.py\":21:41)\n#loc5 = loc(\"/root/superlensai/sensitivity_study/perturbed_BLOCK_SIZE_32.py\":21:28)\n#loc6 = loc(\"/root/superlensai/sensitivity_study/perturbed_BLOCK_SIZE_32.py\":23:21)\n#loc7 = loc(\"/root/superlensai/sensitivity_study/perturbed_BLOCK_SIZE_32.py\":25:24)\n#loc8 = loc(\"/root/superlensai/sensitivity_study/perturbed_BLOCK_SIZE_32.py\":25:16)\n#loc9 = loc(\"/root/superlensai/sensitivity_study/perturbed_BLOCK_SIZE_32.py\":26:24)\n#loc10 = loc(\"/root/superlensai/sensitivity_study/perturbed_BLOCK_SIZE_32.py\":26:16)\n#loc11 = loc(\"/root/superlensai/sensitivity_study/perturbed_BLOCK_SIZE_32.py\":27:17)\n#loc12 = loc(\"/root/superlensai/sensitivity_study/perturbed_BLOCK_SIZE_32.py\":29:26)\n#loc13 = loc(\"/root/superlensai/sensitivity_study/perturbed_BLOCK_SIZE_32.py\":29:35)\n#loc14 = loc(\"/root/superlensai/sensitivity_study/perturbed_BLOCK_SIZE_32.py\":29:4)\n#loc19 = loc(\"pid\"(#loc2))\n#loc20 = loc(\"block_start\"(#loc3))\n#loc21 = loc(\"offsets\"(#loc4))\n#loc22 = loc(\"offsets\"(#loc5))\n#loc23 = loc(\"mask\"(#loc6))\n#loc24 = loc(\"x\"(#loc7))\n#loc25 = loc(\"x\"(#loc8))\n#loc26 = loc(\"y\"(#loc9))\n#loc27 = loc(\"y\"(#loc10))\n#loc28 = loc(\"output\"(#loc11))"
  },
  {
    "type": "Before",
    "pass_desc": "TritonNvidiaGPUOptimizeDescriptorEncodingPass",
    "pass_id": "triton-nvidia-optimize-descriptor-encoding",
    "op_type": "builtin.module",
    "ir": "#blocked = #ttg.blocked<{sizePerThread = [1], threadsPerWarp = [32], warpsPerCTA = [4], order = [0]}>\n#loc = loc(\"/root/superlensai/sensitivity_study/perturbed_BLOCK_SIZE_32.py\":6:0)\n#loc15 = loc(\"x_ptr\"(#loc))\n#loc16 = loc(\"y_ptr\"(#loc))\n#loc17 = loc(\"output_ptr\"(#loc))\n#loc18 = loc(\"n_elements\"(#loc))\nmodule attributes {\"ttg.num-ctas\" = 1 : i32, \"ttg.num-warps\" = 4 : i32, ttg.target = \"cuda:75\", \"ttg.threads-per-warp\" = 32 : i32} {\n  tt.func public @vector_add_kernel(%x_ptr: !tt.ptr<f32> {tt.divisibility = 16 : i32} loc(\"x_ptr\"(#loc)), %y_ptr: !tt.ptr<f32> {tt.divisibility = 16 : i32} loc(\"y_ptr\"(#loc)), %output_ptr: !tt.ptr<f32> {tt.divisibility = 16 : i32} loc(\"output_ptr\"(#loc)), %n_elements: i32 {tt.divisibility = 16 : i32} loc(\"n_elements\"(#loc))) attributes {noinline = false} {\n    %c32_i32 = arith.constant 32 : i32 loc(#loc1)\n    %pid = tt.get_program_id x : i32 loc(#loc19)\n    %block_start = arith.muli %pid, %c32_i32 : i32 loc(#loc20)\n    %offsets = tt.make_range {end = 32 : i32, start = 0 : i32} : tensor<32xi32, #blocked> loc(#loc21)\n    %offsets_0 = tt.splat %block_start : i32 -> tensor<32xi32, #blocked> loc(#loc22)\n    %offsets_1 = arith.addi %offsets_0, %offsets : tensor<32xi32, #blocked> loc(#loc22)\n    %mask = tt.splat %n_elements : i32 -> tensor<32xi32, #blocked> loc(#loc23)\n    %mask_2 = arith.cmpi slt, %offsets_1, %mask : tensor<32xi32, #blocked> loc(#loc23)\n    %x = tt.splat %x_ptr : !tt.ptr<f32> -> tensor<32x!tt.ptr<f32>, #blocked> loc(#loc24)\n    %x_3 = tt.addptr %x, %offsets_1 : tensor<32x!tt.ptr<f32>, #blocked>, tensor<32xi32, #blocked> loc(#loc24)\n    %x_4 = tt.load %x_3, %mask_2 : tensor<32x!tt.ptr<f32>, #blocked> loc(#loc25)\n    %y = tt.splat %y_ptr : !tt.ptr<f32> -> tensor<32x!tt.ptr<f32>, #blocked> loc(#loc26)\n    %y_5 = tt.addptr %y, %offsets_1 : tensor<32x!tt.ptr<f32>, #blocked>, tensor<32xi32, #blocked> loc(#loc26)\n    %y_6 = tt.load %y_5, %mask_2 : tensor<32x!tt.ptr<f32>, #blocked> loc(#loc27)\n    %output = arith.addf %x_4, %y_6 : tensor<32xf32, #blocked> loc(#loc28)\n    %0 = tt.splat %output_ptr : !tt.ptr<f32> -> tensor<32x!tt.ptr<f32>, #blocked> loc(#loc12)\n    %1 = tt.addptr %0, %offsets_1 : tensor<32x!tt.ptr<f32>, #blocked>, tensor<32xi32, #blocked> loc(#loc12)\n    tt.store %1, %output, %mask_2 : tensor<32x!tt.ptr<f32>, #blocked> loc(#loc13)\n    tt.return loc(#loc14)\n  } loc(#loc)\n} loc(#loc)\n#loc1 = loc(unknown)\n#loc2 = loc(\"/root/superlensai/sensitivity_study/perturbed_BLOCK_SIZE_32.py\":15:24)\n#loc3 = loc(\"/root/superlensai/sensitivity_study/perturbed_BLOCK_SIZE_32.py\":20:24)\n#loc4 = loc(\"/root/superlensai/sensitivity_study/perturbed_BLOCK_SIZE_32.py\":21:41)\n#loc5 = loc(\"/root/superlensai/sensitivity_study/perturbed_BLOCK_SIZE_32.py\":21:28)\n#loc6 = loc(\"/root/superlensai/sensitivity_study/perturbed_BLOCK_SIZE_32.py\":23:21)\n#loc7 = loc(\"/root/superlensai/sensitivity_study/perturbed_BLOCK_SIZE_32.py\":25:24)\n#loc8 = loc(\"/root/superlensai/sensitivity_study/perturbed_BLOCK_SIZE_32.py\":25:16)\n#loc9 = loc(\"/root/superlensai/sensitivity_study/perturbed_BLOCK_SIZE_32.py\":26:24)\n#loc10 = loc(\"/root/superlensai/sensitivity_study/perturbed_BLOCK_SIZE_32.py\":26:16)\n#loc11 = loc(\"/root/superlensai/sensitivity_study/perturbed_BLOCK_SIZE_32.py\":27:17)\n#loc12 = loc(\"/root/superlensai/sensitivity_study/perturbed_BLOCK_SIZE_32.py\":29:26)\n#loc13 = loc(\"/root/superlensai/sensitivity_study/perturbed_BLOCK_SIZE_32.py\":29:35)\n#loc14 = loc(\"/root/superlensai/sensitivity_study/perturbed_BLOCK_SIZE_32.py\":29:4)\n#loc19 = loc(\"pid\"(#loc2))\n#loc20 = loc(\"block_start\"(#loc3))\n#loc21 = loc(\"offsets\"(#loc4))\n#loc22 = loc(\"offsets\"(#loc5))\n#loc23 = loc(\"mask\"(#loc6))\n#loc24 = loc(\"x\"(#loc7))\n#loc25 = loc(\"x\"(#loc8))\n#loc26 = loc(\"y\"(#loc9))\n#loc27 = loc(\"y\"(#loc10))\n#loc28 = loc(\"output\"(#loc11))"
  },
  {
    "type": "Before",
    "pass_desc": "TritonLoopAwareCSE",
    "pass_id": "triton-loop-aware-cse",
    "op_type": "builtin.module",
    "ir": "#blocked = #ttg.blocked<{sizePerThread = [1], threadsPerWarp = [32], warpsPerCTA = [4], order = [0]}>\n#loc = loc(\"/root/superlensai/sensitivity_study/perturbed_BLOCK_SIZE_32.py\":6:0)\n#loc15 = loc(\"x_ptr\"(#loc))\n#loc16 = loc(\"y_ptr\"(#loc))\n#loc17 = loc(\"output_ptr\"(#loc))\n#loc18 = loc(\"n_elements\"(#loc))\nmodule attributes {\"ttg.num-ctas\" = 1 : i32, \"ttg.num-warps\" = 4 : i32, ttg.target = \"cuda:75\", \"ttg.threads-per-warp\" = 32 : i32} {\n  tt.func public @vector_add_kernel(%x_ptr: !tt.ptr<f32> {tt.divisibility = 16 : i32} loc(\"x_ptr\"(#loc)), %y_ptr: !tt.ptr<f32> {tt.divisibility = 16 : i32} loc(\"y_ptr\"(#loc)), %output_ptr: !tt.ptr<f32> {tt.divisibility = 16 : i32} loc(\"output_ptr\"(#loc)), %n_elements: i32 {tt.divisibility = 16 : i32} loc(\"n_elements\"(#loc))) attributes {noinline = false} {\n    %c32_i32 = arith.constant 32 : i32 loc(#loc1)\n    %pid = tt.get_program_id x : i32 loc(#loc19)\n    %block_start = arith.muli %pid, %c32_i32 : i32 loc(#loc20)\n    %offsets = tt.make_range {end = 32 : i32, start = 0 : i32} : tensor<32xi32, #blocked> loc(#loc21)\n    %offsets_0 = tt.splat %block_start : i32 -> tensor<32xi32, #blocked> loc(#loc22)\n    %offsets_1 = arith.addi %offsets_0, %offsets : tensor<32xi32, #blocked> loc(#loc22)\n    %mask = tt.splat %n_elements : i32 -> tensor<32xi32, #blocked> loc(#loc23)\n    %mask_2 = arith.cmpi slt, %offsets_1, %mask : tensor<32xi32, #blocked> loc(#loc23)\n    %x = tt.splat %x_ptr : !tt.ptr<f32> -> tensor<32x!tt.ptr<f32>, #blocked> loc(#loc24)\n    %x_3 = tt.addptr %x, %offsets_1 : tensor<32x!tt.ptr<f32>, #blocked>, tensor<32xi32, #blocked> loc(#loc24)\n    %x_4 = tt.load %x_3, %mask_2 : tensor<32x!tt.ptr<f32>, #blocked> loc(#loc25)\n    %y = tt.splat %y_ptr : !tt.ptr<f32> -> tensor<32x!tt.ptr<f32>, #blocked> loc(#loc26)\n    %y_5 = tt.addptr %y, %offsets_1 : tensor<32x!tt.ptr<f32>, #blocked>, tensor<32xi32, #blocked> loc(#loc26)\n    %y_6 = tt.load %y_5, %mask_2 : tensor<32x!tt.ptr<f32>, #blocked> loc(#loc27)\n    %output = arith.addf %x_4, %y_6 : tensor<32xf32, #blocked> loc(#loc28)\n    %0 = tt.splat %output_ptr : !tt.ptr<f32> -> tensor<32x!tt.ptr<f32>, #blocked> loc(#loc12)\n    %1 = tt.addptr %0, %offsets_1 : tensor<32x!tt.ptr<f32>, #blocked>, tensor<32xi32, #blocked> loc(#loc12)\n    tt.store %1, %output, %mask_2 : tensor<32x!tt.ptr<f32>, #blocked> loc(#loc13)\n    tt.return loc(#loc14)\n  } loc(#loc)\n} loc(#loc)\n#loc1 = loc(unknown)\n#loc2 = loc(\"/root/superlensai/sensitivity_study/perturbed_BLOCK_SIZE_32.py\":15:24)\n#loc3 = loc(\"/root/superlensai/sensitivity_study/perturbed_BLOCK_SIZE_32.py\":20:24)\n#loc4 = loc(\"/root/superlensai/sensitivity_study/perturbed_BLOCK_SIZE_32.py\":21:41)\n#loc5 = loc(\"/root/superlensai/sensitivity_study/perturbed_BLOCK_SIZE_32.py\":21:28)\n#loc6 = loc(\"/root/superlensai/sensitivity_study/perturbed_BLOCK_SIZE_32.py\":23:21)\n#loc7 = loc(\"/root/superlensai/sensitivity_study/perturbed_BLOCK_SIZE_32.py\":25:24)\n#loc8 = loc(\"/root/superlensai/sensitivity_study/perturbed_BLOCK_SIZE_32.py\":25:16)\n#loc9 = loc(\"/root/superlensai/sensitivity_study/perturbed_BLOCK_SIZE_32.py\":26:24)\n#loc10 = loc(\"/root/superlensai/sensitivity_study/perturbed_BLOCK_SIZE_32.py\":26:16)\n#loc11 = loc(\"/root/superlensai/sensitivity_study/perturbed_BLOCK_SIZE_32.py\":27:17)\n#loc12 = loc(\"/root/superlensai/sensitivity_study/perturbed_BLOCK_SIZE_32.py\":29:26)\n#loc13 = loc(\"/root/superlensai/sensitivity_study/perturbed_BLOCK_SIZE_32.py\":29:35)\n#loc14 = loc(\"/root/superlensai/sensitivity_study/perturbed_BLOCK_SIZE_32.py\":29:4)\n#loc19 = loc(\"pid\"(#loc2))\n#loc20 = loc(\"block_start\"(#loc3))\n#loc21 = loc(\"offsets\"(#loc4))\n#loc22 = loc(\"offsets\"(#loc5))\n#loc23 = loc(\"mask\"(#loc6))\n#loc24 = loc(\"x\"(#loc7))\n#loc25 = loc(\"x\"(#loc8))\n#loc26 = loc(\"y\"(#loc9))\n#loc27 = loc(\"y\"(#loc10))\n#loc28 = loc(\"output\"(#loc11))"
  },
  {
    "type": "Before",
    "pass_desc": "TritonLoopInvariantCodeMotion",
    "pass_id": "triton-licm",
    "op_type": "builtin.module",
    "ir": "#blocked = #ttg.blocked<{sizePerThread = [1], threadsPerWarp = [32], warpsPerCTA = [4], order = [0]}>\n#loc = loc(\"/root/superlensai/sensitivity_study/perturbed_BLOCK_SIZE_32.py\":6:0)\n#loc15 = loc(\"x_ptr\"(#loc))\n#loc16 = loc(\"y_ptr\"(#loc))\n#loc17 = loc(\"output_ptr\"(#loc))\n#loc18 = loc(\"n_elements\"(#loc))\nmodule attributes {\"ttg.num-ctas\" = 1 : i32, \"ttg.num-warps\" = 4 : i32, ttg.target = \"cuda:75\", \"ttg.threads-per-warp\" = 32 : i32} {\n  tt.func public @vector_add_kernel(%x_ptr: !tt.ptr<f32> {tt.divisibility = 16 : i32} loc(\"x_ptr\"(#loc)), %y_ptr: !tt.ptr<f32> {tt.divisibility = 16 : i32} loc(\"y_ptr\"(#loc)), %output_ptr: !tt.ptr<f32> {tt.divisibility = 16 : i32} loc(\"output_ptr\"(#loc)), %n_elements: i32 {tt.divisibility = 16 : i32} loc(\"n_elements\"(#loc))) attributes {noinline = false} {\n    %c32_i32 = arith.constant 32 : i32 loc(#loc1)\n    %pid = tt.get_program_id x : i32 loc(#loc19)\n    %block_start = arith.muli %pid, %c32_i32 : i32 loc(#loc20)\n    %offsets = tt.make_range {end = 32 : i32, start = 0 : i32} : tensor<32xi32, #blocked> loc(#loc21)\n    %offsets_0 = tt.splat %block_start : i32 -> tensor<32xi32, #blocked> loc(#loc22)\n    %offsets_1 = arith.addi %offsets_0, %offsets : tensor<32xi32, #blocked> loc(#loc22)\n    %mask = tt.splat %n_elements : i32 -> tensor<32xi32, #blocked> loc(#loc23)\n    %mask_2 = arith.cmpi slt, %offsets_1, %mask : tensor<32xi32, #blocked> loc(#loc23)\n    %x = tt.splat %x_ptr : !tt.ptr<f32> -> tensor<32x!tt.ptr<f32>, #blocked> loc(#loc24)\n    %x_3 = tt.addptr %x, %offsets_1 : tensor<32x!tt.ptr<f32>, #blocked>, tensor<32xi32, #blocked> loc(#loc24)\n    %x_4 = tt.load %x_3, %mask_2 : tensor<32x!tt.ptr<f32>, #blocked> loc(#loc25)\n    %y = tt.splat %y_ptr : !tt.ptr<f32> -> tensor<32x!tt.ptr<f32>, #blocked> loc(#loc26)\n    %y_5 = tt.addptr %y, %offsets_1 : tensor<32x!tt.ptr<f32>, #blocked>, tensor<32xi32, #blocked> loc(#loc26)\n    %y_6 = tt.load %y_5, %mask_2 : tensor<32x!tt.ptr<f32>, #blocked> loc(#loc27)\n    %output = arith.addf %x_4, %y_6 : tensor<32xf32, #blocked> loc(#loc28)\n    %0 = tt.splat %output_ptr : !tt.ptr<f32> -> tensor<32x!tt.ptr<f32>, #blocked> loc(#loc12)\n    %1 = tt.addptr %0, %offsets_1 : tensor<32x!tt.ptr<f32>, #blocked>, tensor<32xi32, #blocked> loc(#loc12)\n    tt.store %1, %output, %mask_2 : tensor<32x!tt.ptr<f32>, #blocked> loc(#loc13)\n    tt.return loc(#loc14)\n  } loc(#loc)\n} loc(#loc)\n#loc1 = loc(unknown)\n#loc2 = loc(\"/root/superlensai/sensitivity_study/perturbed_BLOCK_SIZE_32.py\":15:24)\n#loc3 = loc(\"/root/superlensai/sensitivity_study/perturbed_BLOCK_SIZE_32.py\":20:24)\n#loc4 = loc(\"/root/superlensai/sensitivity_study/perturbed_BLOCK_SIZE_32.py\":21:41)\n#loc5 = loc(\"/root/superlensai/sensitivity_study/perturbed_BLOCK_SIZE_32.py\":21:28)\n#loc6 = loc(\"/root/superlensai/sensitivity_study/perturbed_BLOCK_SIZE_32.py\":23:21)\n#loc7 = loc(\"/root/superlensai/sensitivity_study/perturbed_BLOCK_SIZE_32.py\":25:24)\n#loc8 = loc(\"/root/superlensai/sensitivity_study/perturbed_BLOCK_SIZE_32.py\":25:16)\n#loc9 = loc(\"/root/superlensai/sensitivity_study/perturbed_BLOCK_SIZE_32.py\":26:24)\n#loc10 = loc(\"/root/superlensai/sensitivity_study/perturbed_BLOCK_SIZE_32.py\":26:16)\n#loc11 = loc(\"/root/superlensai/sensitivity_study/perturbed_BLOCK_SIZE_32.py\":27:17)\n#loc12 = loc(\"/root/superlensai/sensitivity_study/perturbed_BLOCK_SIZE_32.py\":29:26)\n#loc13 = loc(\"/root/superlensai/sensitivity_study/perturbed_BLOCK_SIZE_32.py\":29:35)\n#loc14 = loc(\"/root/superlensai/sensitivity_study/perturbed_BLOCK_SIZE_32.py\":29:4)\n#loc19 = loc(\"pid\"(#loc2))\n#loc20 = loc(\"block_start\"(#loc3))\n#loc21 = loc(\"offsets\"(#loc4))\n#loc22 = loc(\"offsets\"(#loc5))\n#loc23 = loc(\"mask\"(#loc6))\n#loc24 = loc(\"x\"(#loc7))\n#loc25 = loc(\"x\"(#loc8))\n#loc26 = loc(\"y\"(#loc9))\n#loc27 = loc(\"y\"(#loc10))\n#loc28 = loc(\"output\"(#loc11))"
  },
  {
    "type": "Before",
    "pass_desc": "Canonicalizer",
    "pass_id": "canonicalize",
    "op_type": "builtin.module",
    "ir": "#blocked = #ttg.blocked<{sizePerThread = [1], threadsPerWarp = [32], warpsPerCTA = [4], order = [0]}>\n#loc = loc(\"/root/superlensai/sensitivity_study/perturbed_BLOCK_SIZE_32.py\":6:0)\n#loc15 = loc(\"x_ptr\"(#loc))\n#loc16 = loc(\"y_ptr\"(#loc))\n#loc17 = loc(\"output_ptr\"(#loc))\n#loc18 = loc(\"n_elements\"(#loc))\nmodule attributes {\"ttg.num-ctas\" = 1 : i32, \"ttg.num-warps\" = 4 : i32, ttg.target = \"cuda:75\", \"ttg.threads-per-warp\" = 32 : i32} {\n  tt.func public @vector_add_kernel(%x_ptr: !tt.ptr<f32> {tt.divisibility = 16 : i32} loc(\"x_ptr\"(#loc)), %y_ptr: !tt.ptr<f32> {tt.divisibility = 16 : i32} loc(\"y_ptr\"(#loc)), %output_ptr: !tt.ptr<f32> {tt.divisibility = 16 : i32} loc(\"output_ptr\"(#loc)), %n_elements: i32 {tt.divisibility = 16 : i32} loc(\"n_elements\"(#loc))) attributes {noinline = false} {\n    %c32_i32 = arith.constant 32 : i32 loc(#loc1)\n    %pid = tt.get_program_id x : i32 loc(#loc19)\n    %block_start = arith.muli %pid, %c32_i32 : i32 loc(#loc20)\n    %offsets = tt.make_range {end = 32 : i32, start = 0 : i32} : tensor<32xi32, #blocked> loc(#loc21)\n    %offsets_0 = tt.splat %block_start : i32 -> tensor<32xi32, #blocked> loc(#loc22)\n    %offsets_1 = arith.addi %offsets_0, %offsets : tensor<32xi32, #blocked> loc(#loc22)\n    %mask = tt.splat %n_elements : i32 -> tensor<32xi32, #blocked> loc(#loc23)\n    %mask_2 = arith.cmpi slt, %offsets_1, %mask : tensor<32xi32, #blocked> loc(#loc23)\n    %x = tt.splat %x_ptr : !tt.ptr<f32> -> tensor<32x!tt.ptr<f32>, #blocked> loc(#loc24)\n    %x_3 = tt.addptr %x, %offsets_1 : tensor<32x!tt.ptr<f32>, #blocked>, tensor<32xi32, #blocked> loc(#loc24)\n    %x_4 = tt.load %x_3, %mask_2 : tensor<32x!tt.ptr<f32>, #blocked> loc(#loc25)\n    %y = tt.splat %y_ptr : !tt.ptr<f32> -> tensor<32x!tt.ptr<f32>, #blocked> loc(#loc26)\n    %y_5 = tt.addptr %y, %offsets_1 : tensor<32x!tt.ptr<f32>, #blocked>, tensor<32xi32, #blocked> loc(#loc26)\n    %y_6 = tt.load %y_5, %mask_2 : tensor<32x!tt.ptr<f32>, #blocked> loc(#loc27)\n    %output = arith.addf %x_4, %y_6 : tensor<32xf32, #blocked> loc(#loc28)\n    %0 = tt.splat %output_ptr : !tt.ptr<f32> -> tensor<32x!tt.ptr<f32>, #blocked> loc(#loc12)\n    %1 = tt.addptr %0, %offsets_1 : tensor<32x!tt.ptr<f32>, #blocked>, tensor<32xi32, #blocked> loc(#loc12)\n    tt.store %1, %output, %mask_2 : tensor<32x!tt.ptr<f32>, #blocked> loc(#loc13)\n    tt.return loc(#loc14)\n  } loc(#loc)\n} loc(#loc)\n#loc1 = loc(unknown)\n#loc2 = loc(\"/root/superlensai/sensitivity_study/perturbed_BLOCK_SIZE_32.py\":15:24)\n#loc3 = loc(\"/root/superlensai/sensitivity_study/perturbed_BLOCK_SIZE_32.py\":20:24)\n#loc4 = loc(\"/root/superlensai/sensitivity_study/perturbed_BLOCK_SIZE_32.py\":21:41)\n#loc5 = loc(\"/root/superlensai/sensitivity_study/perturbed_BLOCK_SIZE_32.py\":21:28)\n#loc6 = loc(\"/root/superlensai/sensitivity_study/perturbed_BLOCK_SIZE_32.py\":23:21)\n#loc7 = loc(\"/root/superlensai/sensitivity_study/perturbed_BLOCK_SIZE_32.py\":25:24)\n#loc8 = loc(\"/root/superlensai/sensitivity_study/perturbed_BLOCK_SIZE_32.py\":25:16)\n#loc9 = loc(\"/root/superlensai/sensitivity_study/perturbed_BLOCK_SIZE_32.py\":26:24)\n#loc10 = loc(\"/root/superlensai/sensitivity_study/perturbed_BLOCK_SIZE_32.py\":26:16)\n#loc11 = loc(\"/root/superlensai/sensitivity_study/perturbed_BLOCK_SIZE_32.py\":27:17)\n#loc12 = loc(\"/root/superlensai/sensitivity_study/perturbed_BLOCK_SIZE_32.py\":29:26)\n#loc13 = loc(\"/root/superlensai/sensitivity_study/perturbed_BLOCK_SIZE_32.py\":29:35)\n#loc14 = loc(\"/root/superlensai/sensitivity_study/perturbed_BLOCK_SIZE_32.py\":29:4)\n#loc19 = loc(\"pid\"(#loc2))\n#loc20 = loc(\"block_start\"(#loc3))\n#loc21 = loc(\"offsets\"(#loc4))\n#loc22 = loc(\"offsets\"(#loc5))\n#loc23 = loc(\"mask\"(#loc6))\n#loc24 = loc(\"x\"(#loc7))\n#loc25 = loc(\"x\"(#loc8))\n#loc26 = loc(\"y\"(#loc9))\n#loc27 = loc(\"y\"(#loc10))\n#loc28 = loc(\"output\"(#loc11))"
  },
  {
    "type": "Before",
    "pass_desc": "TritonLoopAwareCSE",
    "pass_id": "triton-loop-aware-cse",
    "op_type": "builtin.module",
    "ir": "#blocked = #ttg.blocked<{sizePerThread = [1], threadsPerWarp = [32], warpsPerCTA = [4], order = [0]}>\n#loc = loc(\"/root/superlensai/sensitivity_study/perturbed_BLOCK_SIZE_32.py\":6:0)\n#loc15 = loc(\"x_ptr\"(#loc))\n#loc16 = loc(\"y_ptr\"(#loc))\n#loc17 = loc(\"output_ptr\"(#loc))\n#loc18 = loc(\"n_elements\"(#loc))\nmodule attributes {\"ttg.num-ctas\" = 1 : i32, \"ttg.num-warps\" = 4 : i32, ttg.target = \"cuda:75\", \"ttg.threads-per-warp\" = 32 : i32} {\n  tt.func public @vector_add_kernel(%x_ptr: !tt.ptr<f32> {tt.divisibility = 16 : i32} loc(\"x_ptr\"(#loc)), %y_ptr: !tt.ptr<f32> {tt.divisibility = 16 : i32} loc(\"y_ptr\"(#loc)), %output_ptr: !tt.ptr<f32> {tt.divisibility = 16 : i32} loc(\"output_ptr\"(#loc)), %n_elements: i32 {tt.divisibility = 16 : i32} loc(\"n_elements\"(#loc))) attributes {noinline = false} {\n    %c32_i32 = arith.constant 32 : i32 loc(#loc1)\n    %pid = tt.get_program_id x : i32 loc(#loc19)\n    %block_start = arith.muli %pid, %c32_i32 : i32 loc(#loc20)\n    %offsets = tt.make_range {end = 32 : i32, start = 0 : i32} : tensor<32xi32, #blocked> loc(#loc21)\n    %offsets_0 = tt.splat %block_start : i32 -> tensor<32xi32, #blocked> loc(#loc22)\n    %offsets_1 = arith.addi %offsets_0, %offsets : tensor<32xi32, #blocked> loc(#loc22)\n    %mask = tt.splat %n_elements : i32 -> tensor<32xi32, #blocked> loc(#loc23)\n    %mask_2 = arith.cmpi slt, %offsets_1, %mask : tensor<32xi32, #blocked> loc(#loc23)\n    %x = tt.splat %x_ptr : !tt.ptr<f32> -> tensor<32x!tt.ptr<f32>, #blocked> loc(#loc24)\n    %x_3 = tt.addptr %x, %offsets_1 : tensor<32x!tt.ptr<f32>, #blocked>, tensor<32xi32, #blocked> loc(#loc24)\n    %x_4 = tt.load %x_3, %mask_2 : tensor<32x!tt.ptr<f32>, #blocked> loc(#loc25)\n    %y = tt.splat %y_ptr : !tt.ptr<f32> -> tensor<32x!tt.ptr<f32>, #blocked> loc(#loc26)\n    %y_5 = tt.addptr %y, %offsets_1 : tensor<32x!tt.ptr<f32>, #blocked>, tensor<32xi32, #blocked> loc(#loc26)\n    %y_6 = tt.load %y_5, %mask_2 : tensor<32x!tt.ptr<f32>, #blocked> loc(#loc27)\n    %output = arith.addf %x_4, %y_6 : tensor<32xf32, #blocked> loc(#loc28)\n    %0 = tt.splat %output_ptr : !tt.ptr<f32> -> tensor<32x!tt.ptr<f32>, #blocked> loc(#loc12)\n    %1 = tt.addptr %0, %offsets_1 : tensor<32x!tt.ptr<f32>, #blocked>, tensor<32xi32, #blocked> loc(#loc12)\n    tt.store %1, %output, %mask_2 : tensor<32x!tt.ptr<f32>, #blocked> loc(#loc13)\n    tt.return loc(#loc14)\n  } loc(#loc)\n} loc(#loc)\n#loc1 = loc(unknown)\n#loc2 = loc(\"/root/superlensai/sensitivity_study/perturbed_BLOCK_SIZE_32.py\":15:24)\n#loc3 = loc(\"/root/superlensai/sensitivity_study/perturbed_BLOCK_SIZE_32.py\":20:24)\n#loc4 = loc(\"/root/superlensai/sensitivity_study/perturbed_BLOCK_SIZE_32.py\":21:41)\n#loc5 = loc(\"/root/superlensai/sensitivity_study/perturbed_BLOCK_SIZE_32.py\":21:28)\n#loc6 = loc(\"/root/superlensai/sensitivity_study/perturbed_BLOCK_SIZE_32.py\":23:21)\n#loc7 = loc(\"/root/superlensai/sensitivity_study/perturbed_BLOCK_SIZE_32.py\":25:24)\n#loc8 = loc(\"/root/superlensai/sensitivity_study/perturbed_BLOCK_SIZE_32.py\":25:16)\n#loc9 = loc(\"/root/superlensai/sensitivity_study/perturbed_BLOCK_SIZE_32.py\":26:24)\n#loc10 = loc(\"/root/superlensai/sensitivity_study/perturbed_BLOCK_SIZE_32.py\":26:16)\n#loc11 = loc(\"/root/superlensai/sensitivity_study/perturbed_BLOCK_SIZE_32.py\":27:17)\n#loc12 = loc(\"/root/superlensai/sensitivity_study/perturbed_BLOCK_SIZE_32.py\":29:26)\n#loc13 = loc(\"/root/superlensai/sensitivity_study/perturbed_BLOCK_SIZE_32.py\":29:35)\n#loc14 = loc(\"/root/superlensai/sensitivity_study/perturbed_BLOCK_SIZE_32.py\":29:4)\n#loc19 = loc(\"pid\"(#loc2))\n#loc20 = loc(\"block_start\"(#loc3))\n#loc21 = loc(\"offsets\"(#loc4))\n#loc22 = loc(\"offsets\"(#loc5))\n#loc23 = loc(\"mask\"(#loc6))\n#loc24 = loc(\"x\"(#loc7))\n#loc25 = loc(\"x\"(#loc8))\n#loc26 = loc(\"y\"(#loc9))\n#loc27 = loc(\"y\"(#loc10))\n#loc28 = loc(\"output\"(#loc11))"
  },
  {
    "type": "Before",
    "pass_desc": "TritonGPUPrefetch",
    "pass_id": "tritongpu-prefetch",
    "op_type": "builtin.module",
    "ir": "#blocked = #ttg.blocked<{sizePerThread = [1], threadsPerWarp = [32], warpsPerCTA = [4], order = [0]}>\n#loc = loc(\"/root/superlensai/sensitivity_study/perturbed_BLOCK_SIZE_32.py\":6:0)\n#loc15 = loc(\"x_ptr\"(#loc))\n#loc16 = loc(\"y_ptr\"(#loc))\n#loc17 = loc(\"output_ptr\"(#loc))\n#loc18 = loc(\"n_elements\"(#loc))\nmodule attributes {\"ttg.num-ctas\" = 1 : i32, \"ttg.num-warps\" = 4 : i32, ttg.target = \"cuda:75\", \"ttg.threads-per-warp\" = 32 : i32} {\n  tt.func public @vector_add_kernel(%x_ptr: !tt.ptr<f32> {tt.divisibility = 16 : i32} loc(\"x_ptr\"(#loc)), %y_ptr: !tt.ptr<f32> {tt.divisibility = 16 : i32} loc(\"y_ptr\"(#loc)), %output_ptr: !tt.ptr<f32> {tt.divisibility = 16 : i32} loc(\"output_ptr\"(#loc)), %n_elements: i32 {tt.divisibility = 16 : i32} loc(\"n_elements\"(#loc))) attributes {noinline = false} {\n    %c32_i32 = arith.constant 32 : i32 loc(#loc1)\n    %pid = tt.get_program_id x : i32 loc(#loc19)\n    %block_start = arith.muli %pid, %c32_i32 : i32 loc(#loc20)\n    %offsets = tt.make_range {end = 32 : i32, start = 0 : i32} : tensor<32xi32, #blocked> loc(#loc21)\n    %offsets_0 = tt.splat %block_start : i32 -> tensor<32xi32, #blocked> loc(#loc22)\n    %offsets_1 = arith.addi %offsets_0, %offsets : tensor<32xi32, #blocked> loc(#loc22)\n    %mask = tt.splat %n_elements : i32 -> tensor<32xi32, #blocked> loc(#loc23)\n    %mask_2 = arith.cmpi slt, %offsets_1, %mask : tensor<32xi32, #blocked> loc(#loc23)\n    %x = tt.splat %x_ptr : !tt.ptr<f32> -> tensor<32x!tt.ptr<f32>, #blocked> loc(#loc24)\n    %x_3 = tt.addptr %x, %offsets_1 : tensor<32x!tt.ptr<f32>, #blocked>, tensor<32xi32, #blocked> loc(#loc24)\n    %x_4 = tt.load %x_3, %mask_2 : tensor<32x!tt.ptr<f32>, #blocked> loc(#loc25)\n    %y = tt.splat %y_ptr : !tt.ptr<f32> -> tensor<32x!tt.ptr<f32>, #blocked> loc(#loc26)\n    %y_5 = tt.addptr %y, %offsets_1 : tensor<32x!tt.ptr<f32>, #blocked>, tensor<32xi32, #blocked> loc(#loc26)\n    %y_6 = tt.load %y_5, %mask_2 : tensor<32x!tt.ptr<f32>, #blocked> loc(#loc27)\n    %output = arith.addf %x_4, %y_6 : tensor<32xf32, #blocked> loc(#loc28)\n    %0 = tt.splat %output_ptr : !tt.ptr<f32> -> tensor<32x!tt.ptr<f32>, #blocked> loc(#loc12)\n    %1 = tt.addptr %0, %offsets_1 : tensor<32x!tt.ptr<f32>, #blocked>, tensor<32xi32, #blocked> loc(#loc12)\n    tt.store %1, %output, %mask_2 : tensor<32x!tt.ptr<f32>, #blocked> loc(#loc13)\n    tt.return loc(#loc14)\n  } loc(#loc)\n} loc(#loc)\n#loc1 = loc(unknown)\n#loc2 = loc(\"/root/superlensai/sensitivity_study/perturbed_BLOCK_SIZE_32.py\":15:24)\n#loc3 = loc(\"/root/superlensai/sensitivity_study/perturbed_BLOCK_SIZE_32.py\":20:24)\n#loc4 = loc(\"/root/superlensai/sensitivity_study/perturbed_BLOCK_SIZE_32.py\":21:41)\n#loc5 = loc(\"/root/superlensai/sensitivity_study/perturbed_BLOCK_SIZE_32.py\":21:28)\n#loc6 = loc(\"/root/superlensai/sensitivity_study/perturbed_BLOCK_SIZE_32.py\":23:21)\n#loc7 = loc(\"/root/superlensai/sensitivity_study/perturbed_BLOCK_SIZE_32.py\":25:24)\n#loc8 = loc(\"/root/superlensai/sensitivity_study/perturbed_BLOCK_SIZE_32.py\":25:16)\n#loc9 = loc(\"/root/superlensai/sensitivity_study/perturbed_BLOCK_SIZE_32.py\":26:24)\n#loc10 = loc(\"/root/superlensai/sensitivity_study/perturbed_BLOCK_SIZE_32.py\":26:16)\n#loc11 = loc(\"/root/superlensai/sensitivity_study/perturbed_BLOCK_SIZE_32.py\":27:17)\n#loc12 = loc(\"/root/superlensai/sensitivity_study/perturbed_BLOCK_SIZE_32.py\":29:26)\n#loc13 = loc(\"/root/superlensai/sensitivity_study/perturbed_BLOCK_SIZE_32.py\":29:35)\n#loc14 = loc(\"/root/superlensai/sensitivity_study/perturbed_BLOCK_SIZE_32.py\":29:4)\n#loc19 = loc(\"pid\"(#loc2))\n#loc20 = loc(\"block_start\"(#loc3))\n#loc21 = loc(\"offsets\"(#loc4))\n#loc22 = loc(\"offsets\"(#loc5))\n#loc23 = loc(\"mask\"(#loc6))\n#loc24 = loc(\"x\"(#loc7))\n#loc25 = loc(\"x\"(#loc8))\n#loc26 = loc(\"y\"(#loc9))\n#loc27 = loc(\"y\"(#loc10))\n#loc28 = loc(\"output\"(#loc11))"
  },
  {
    "type": "Before",
    "pass_desc": "TritonGPUOptimizeDotOperands",
    "pass_id": "tritongpu-optimize-dot-operands",
    "op_type": "builtin.module",
    "ir": "#blocked = #ttg.blocked<{sizePerThread = [1], threadsPerWarp = [32], warpsPerCTA = [4], order = [0]}>\n#loc = loc(\"/root/superlensai/sensitivity_study/perturbed_BLOCK_SIZE_32.py\":6:0)\n#loc15 = loc(\"x_ptr\"(#loc))\n#loc16 = loc(\"y_ptr\"(#loc))\n#loc17 = loc(\"output_ptr\"(#loc))\n#loc18 = loc(\"n_elements\"(#loc))\nmodule attributes {\"ttg.num-ctas\" = 1 : i32, \"ttg.num-warps\" = 4 : i32, ttg.target = \"cuda:75\", \"ttg.threads-per-warp\" = 32 : i32} {\n  tt.func public @vector_add_kernel(%x_ptr: !tt.ptr<f32> {tt.divisibility = 16 : i32} loc(\"x_ptr\"(#loc)), %y_ptr: !tt.ptr<f32> {tt.divisibility = 16 : i32} loc(\"y_ptr\"(#loc)), %output_ptr: !tt.ptr<f32> {tt.divisibility = 16 : i32} loc(\"output_ptr\"(#loc)), %n_elements: i32 {tt.divisibility = 16 : i32} loc(\"n_elements\"(#loc))) attributes {noinline = false} {\n    %c32_i32 = arith.constant 32 : i32 loc(#loc1)\n    %pid = tt.get_program_id x : i32 loc(#loc19)\n    %block_start = arith.muli %pid, %c32_i32 : i32 loc(#loc20)\n    %offsets = tt.make_range {end = 32 : i32, start = 0 : i32} : tensor<32xi32, #blocked> loc(#loc21)\n    %offsets_0 = tt.splat %block_start : i32 -> tensor<32xi32, #blocked> loc(#loc22)\n    %offsets_1 = arith.addi %offsets_0, %offsets : tensor<32xi32, #blocked> loc(#loc22)\n    %mask = tt.splat %n_elements : i32 -> tensor<32xi32, #blocked> loc(#loc23)\n    %mask_2 = arith.cmpi slt, %offsets_1, %mask : tensor<32xi32, #blocked> loc(#loc23)\n    %x = tt.splat %x_ptr : !tt.ptr<f32> -> tensor<32x!tt.ptr<f32>, #blocked> loc(#loc24)\n    %x_3 = tt.addptr %x, %offsets_1 : tensor<32x!tt.ptr<f32>, #blocked>, tensor<32xi32, #blocked> loc(#loc24)\n    %x_4 = tt.load %x_3, %mask_2 : tensor<32x!tt.ptr<f32>, #blocked> loc(#loc25)\n    %y = tt.splat %y_ptr : !tt.ptr<f32> -> tensor<32x!tt.ptr<f32>, #blocked> loc(#loc26)\n    %y_5 = tt.addptr %y, %offsets_1 : tensor<32x!tt.ptr<f32>, #blocked>, tensor<32xi32, #blocked> loc(#loc26)\n    %y_6 = tt.load %y_5, %mask_2 : tensor<32x!tt.ptr<f32>, #blocked> loc(#loc27)\n    %output = arith.addf %x_4, %y_6 : tensor<32xf32, #blocked> loc(#loc28)\n    %0 = tt.splat %output_ptr : !tt.ptr<f32> -> tensor<32x!tt.ptr<f32>, #blocked> loc(#loc12)\n    %1 = tt.addptr %0, %offsets_1 : tensor<32x!tt.ptr<f32>, #blocked>, tensor<32xi32, #blocked> loc(#loc12)\n    tt.store %1, %output, %mask_2 : tensor<32x!tt.ptr<f32>, #blocked> loc(#loc13)\n    tt.return loc(#loc14)\n  } loc(#loc)\n} loc(#loc)\n#loc1 = loc(unknown)\n#loc2 = loc(\"/root/superlensai/sensitivity_study/perturbed_BLOCK_SIZE_32.py\":15:24)\n#loc3 = loc(\"/root/superlensai/sensitivity_study/perturbed_BLOCK_SIZE_32.py\":20:24)\n#loc4 = loc(\"/root/superlensai/sensitivity_study/perturbed_BLOCK_SIZE_32.py\":21:41)\n#loc5 = loc(\"/root/superlensai/sensitivity_study/perturbed_BLOCK_SIZE_32.py\":21:28)\n#loc6 = loc(\"/root/superlensai/sensitivity_study/perturbed_BLOCK_SIZE_32.py\":23:21)\n#loc7 = loc(\"/root/superlensai/sensitivity_study/perturbed_BLOCK_SIZE_32.py\":25:24)\n#loc8 = loc(\"/root/superlensai/sensitivity_study/perturbed_BLOCK_SIZE_32.py\":25:16)\n#loc9 = loc(\"/root/superlensai/sensitivity_study/perturbed_BLOCK_SIZE_32.py\":26:24)\n#loc10 = loc(\"/root/superlensai/sensitivity_study/perturbed_BLOCK_SIZE_32.py\":26:16)\n#loc11 = loc(\"/root/superlensai/sensitivity_study/perturbed_BLOCK_SIZE_32.py\":27:17)\n#loc12 = loc(\"/root/superlensai/sensitivity_study/perturbed_BLOCK_SIZE_32.py\":29:26)\n#loc13 = loc(\"/root/superlensai/sensitivity_study/perturbed_BLOCK_SIZE_32.py\":29:35)\n#loc14 = loc(\"/root/superlensai/sensitivity_study/perturbed_BLOCK_SIZE_32.py\":29:4)\n#loc19 = loc(\"pid\"(#loc2))\n#loc20 = loc(\"block_start\"(#loc3))\n#loc21 = loc(\"offsets\"(#loc4))\n#loc22 = loc(\"offsets\"(#loc5))\n#loc23 = loc(\"mask\"(#loc6))\n#loc24 = loc(\"x\"(#loc7))\n#loc25 = loc(\"x\"(#loc8))\n#loc26 = loc(\"y\"(#loc9))\n#loc27 = loc(\"y\"(#loc10))\n#loc28 = loc(\"output\"(#loc11))"
  },
  {
    "type": "Before",
    "pass_desc": "Canonicalizer",
    "pass_id": "canonicalize",
    "op_type": "builtin.module",
    "ir": "#blocked = #ttg.blocked<{sizePerThread = [1], threadsPerWarp = [32], warpsPerCTA = [4], order = [0]}>\n#loc = loc(\"/root/superlensai/sensitivity_study/perturbed_BLOCK_SIZE_32.py\":6:0)\n#loc15 = loc(\"x_ptr\"(#loc))\n#loc16 = loc(\"y_ptr\"(#loc))\n#loc17 = loc(\"output_ptr\"(#loc))\n#loc18 = loc(\"n_elements\"(#loc))\nmodule attributes {\"ttg.num-ctas\" = 1 : i32, \"ttg.num-warps\" = 4 : i32, ttg.target = \"cuda:75\", \"ttg.threads-per-warp\" = 32 : i32} {\n  tt.func public @vector_add_kernel(%x_ptr: !tt.ptr<f32> {tt.divisibility = 16 : i32} loc(\"x_ptr\"(#loc)), %y_ptr: !tt.ptr<f32> {tt.divisibility = 16 : i32} loc(\"y_ptr\"(#loc)), %output_ptr: !tt.ptr<f32> {tt.divisibility = 16 : i32} loc(\"output_ptr\"(#loc)), %n_elements: i32 {tt.divisibility = 16 : i32} loc(\"n_elements\"(#loc))) attributes {noinline = false} {\n    %c32_i32 = arith.constant 32 : i32 loc(#loc1)\n    %pid = tt.get_program_id x : i32 loc(#loc19)\n    %block_start = arith.muli %pid, %c32_i32 : i32 loc(#loc20)\n    %offsets = tt.make_range {end = 32 : i32, start = 0 : i32} : tensor<32xi32, #blocked> loc(#loc21)\n    %offsets_0 = tt.splat %block_start : i32 -> tensor<32xi32, #blocked> loc(#loc22)\n    %offsets_1 = arith.addi %offsets_0, %offsets : tensor<32xi32, #blocked> loc(#loc22)\n    %mask = tt.splat %n_elements : i32 -> tensor<32xi32, #blocked> loc(#loc23)\n    %mask_2 = arith.cmpi slt, %offsets_1, %mask : tensor<32xi32, #blocked> loc(#loc23)\n    %x = tt.splat %x_ptr : !tt.ptr<f32> -> tensor<32x!tt.ptr<f32>, #blocked> loc(#loc24)\n    %x_3 = tt.addptr %x, %offsets_1 : tensor<32x!tt.ptr<f32>, #blocked>, tensor<32xi32, #blocked> loc(#loc24)\n    %x_4 = tt.load %x_3, %mask_2 : tensor<32x!tt.ptr<f32>, #blocked> loc(#loc25)\n    %y = tt.splat %y_ptr : !tt.ptr<f32> -> tensor<32x!tt.ptr<f32>, #blocked> loc(#loc26)\n    %y_5 = tt.addptr %y, %offsets_1 : tensor<32x!tt.ptr<f32>, #blocked>, tensor<32xi32, #blocked> loc(#loc26)\n    %y_6 = tt.load %y_5, %mask_2 : tensor<32x!tt.ptr<f32>, #blocked> loc(#loc27)\n    %output = arith.addf %x_4, %y_6 : tensor<32xf32, #blocked> loc(#loc28)\n    %0 = tt.splat %output_ptr : !tt.ptr<f32> -> tensor<32x!tt.ptr<f32>, #blocked> loc(#loc12)\n    %1 = tt.addptr %0, %offsets_1 : tensor<32x!tt.ptr<f32>, #blocked>, tensor<32xi32, #blocked> loc(#loc12)\n    tt.store %1, %output, %mask_2 : tensor<32x!tt.ptr<f32>, #blocked> loc(#loc13)\n    tt.return loc(#loc14)\n  } loc(#loc)\n} loc(#loc)\n#loc1 = loc(unknown)\n#loc2 = loc(\"/root/superlensai/sensitivity_study/perturbed_BLOCK_SIZE_32.py\":15:24)\n#loc3 = loc(\"/root/superlensai/sensitivity_study/perturbed_BLOCK_SIZE_32.py\":20:24)\n#loc4 = loc(\"/root/superlensai/sensitivity_study/perturbed_BLOCK_SIZE_32.py\":21:41)\n#loc5 = loc(\"/root/superlensai/sensitivity_study/perturbed_BLOCK_SIZE_32.py\":21:28)\n#loc6 = loc(\"/root/superlensai/sensitivity_study/perturbed_BLOCK_SIZE_32.py\":23:21)\n#loc7 = loc(\"/root/superlensai/sensitivity_study/perturbed_BLOCK_SIZE_32.py\":25:24)\n#loc8 = loc(\"/root/superlensai/sensitivity_study/perturbed_BLOCK_SIZE_32.py\":25:16)\n#loc9 = loc(\"/root/superlensai/sensitivity_study/perturbed_BLOCK_SIZE_32.py\":26:24)\n#loc10 = loc(\"/root/superlensai/sensitivity_study/perturbed_BLOCK_SIZE_32.py\":26:16)\n#loc11 = loc(\"/root/superlensai/sensitivity_study/perturbed_BLOCK_SIZE_32.py\":27:17)\n#loc12 = loc(\"/root/superlensai/sensitivity_study/perturbed_BLOCK_SIZE_32.py\":29:26)\n#loc13 = loc(\"/root/superlensai/sensitivity_study/perturbed_BLOCK_SIZE_32.py\":29:35)\n#loc14 = loc(\"/root/superlensai/sensitivity_study/perturbed_BLOCK_SIZE_32.py\":29:4)\n#loc19 = loc(\"pid\"(#loc2))\n#loc20 = loc(\"block_start\"(#loc3))\n#loc21 = loc(\"offsets\"(#loc4))\n#loc22 = loc(\"offsets\"(#loc5))\n#loc23 = loc(\"mask\"(#loc6))\n#loc24 = loc(\"x\"(#loc7))\n#loc25 = loc(\"x\"(#loc8))\n#loc26 = loc(\"y\"(#loc9))\n#loc27 = loc(\"y\"(#loc10))\n#loc28 = loc(\"output\"(#loc11))"
  },
  {
    "type": "Before",
    "pass_desc": "TritonGPUCoalesceAsyncCopy",
    "pass_id": "tritongpu-coalesce-async-copy",
    "op_type": "builtin.module",
    "ir": "#blocked = #ttg.blocked<{sizePerThread = [1], threadsPerWarp = [32], warpsPerCTA = [4], order = [0]}>\n#loc = loc(\"/root/superlensai/sensitivity_study/perturbed_BLOCK_SIZE_32.py\":6:0)\n#loc15 = loc(\"x_ptr\"(#loc))\n#loc16 = loc(\"y_ptr\"(#loc))\n#loc17 = loc(\"output_ptr\"(#loc))\n#loc18 = loc(\"n_elements\"(#loc))\nmodule attributes {\"ttg.num-ctas\" = 1 : i32, \"ttg.num-warps\" = 4 : i32, ttg.target = \"cuda:75\", \"ttg.threads-per-warp\" = 32 : i32} {\n  tt.func public @vector_add_kernel(%x_ptr: !tt.ptr<f32> {tt.divisibility = 16 : i32} loc(\"x_ptr\"(#loc)), %y_ptr: !tt.ptr<f32> {tt.divisibility = 16 : i32} loc(\"y_ptr\"(#loc)), %output_ptr: !tt.ptr<f32> {tt.divisibility = 16 : i32} loc(\"output_ptr\"(#loc)), %n_elements: i32 {tt.divisibility = 16 : i32} loc(\"n_elements\"(#loc))) attributes {noinline = false} {\n    %c32_i32 = arith.constant 32 : i32 loc(#loc1)\n    %pid = tt.get_program_id x : i32 loc(#loc19)\n    %block_start = arith.muli %pid, %c32_i32 : i32 loc(#loc20)\n    %offsets = tt.make_range {end = 32 : i32, start = 0 : i32} : tensor<32xi32, #blocked> loc(#loc21)\n    %offsets_0 = tt.splat %block_start : i32 -> tensor<32xi32, #blocked> loc(#loc22)\n    %offsets_1 = arith.addi %offsets_0, %offsets : tensor<32xi32, #blocked> loc(#loc22)\n    %mask = tt.splat %n_elements : i32 -> tensor<32xi32, #blocked> loc(#loc23)\n    %mask_2 = arith.cmpi slt, %offsets_1, %mask : tensor<32xi32, #blocked> loc(#loc23)\n    %x = tt.splat %x_ptr : !tt.ptr<f32> -> tensor<32x!tt.ptr<f32>, #blocked> loc(#loc24)\n    %x_3 = tt.addptr %x, %offsets_1 : tensor<32x!tt.ptr<f32>, #blocked>, tensor<32xi32, #blocked> loc(#loc24)\n    %x_4 = tt.load %x_3, %mask_2 : tensor<32x!tt.ptr<f32>, #blocked> loc(#loc25)\n    %y = tt.splat %y_ptr : !tt.ptr<f32> -> tensor<32x!tt.ptr<f32>, #blocked> loc(#loc26)\n    %y_5 = tt.addptr %y, %offsets_1 : tensor<32x!tt.ptr<f32>, #blocked>, tensor<32xi32, #blocked> loc(#loc26)\n    %y_6 = tt.load %y_5, %mask_2 : tensor<32x!tt.ptr<f32>, #blocked> loc(#loc27)\n    %output = arith.addf %x_4, %y_6 : tensor<32xf32, #blocked> loc(#loc28)\n    %0 = tt.splat %output_ptr : !tt.ptr<f32> -> tensor<32x!tt.ptr<f32>, #blocked> loc(#loc12)\n    %1 = tt.addptr %0, %offsets_1 : tensor<32x!tt.ptr<f32>, #blocked>, tensor<32xi32, #blocked> loc(#loc12)\n    tt.store %1, %output, %mask_2 : tensor<32x!tt.ptr<f32>, #blocked> loc(#loc13)\n    tt.return loc(#loc14)\n  } loc(#loc)\n} loc(#loc)\n#loc1 = loc(unknown)\n#loc2 = loc(\"/root/superlensai/sensitivity_study/perturbed_BLOCK_SIZE_32.py\":15:24)\n#loc3 = loc(\"/root/superlensai/sensitivity_study/perturbed_BLOCK_SIZE_32.py\":20:24)\n#loc4 = loc(\"/root/superlensai/sensitivity_study/perturbed_BLOCK_SIZE_32.py\":21:41)\n#loc5 = loc(\"/root/superlensai/sensitivity_study/perturbed_BLOCK_SIZE_32.py\":21:28)\n#loc6 = loc(\"/root/superlensai/sensitivity_study/perturbed_BLOCK_SIZE_32.py\":23:21)\n#loc7 = loc(\"/root/superlensai/sensitivity_study/perturbed_BLOCK_SIZE_32.py\":25:24)\n#loc8 = loc(\"/root/superlensai/sensitivity_study/perturbed_BLOCK_SIZE_32.py\":25:16)\n#loc9 = loc(\"/root/superlensai/sensitivity_study/perturbed_BLOCK_SIZE_32.py\":26:24)\n#loc10 = loc(\"/root/superlensai/sensitivity_study/perturbed_BLOCK_SIZE_32.py\":26:16)\n#loc11 = loc(\"/root/superlensai/sensitivity_study/perturbed_BLOCK_SIZE_32.py\":27:17)\n#loc12 = loc(\"/root/superlensai/sensitivity_study/perturbed_BLOCK_SIZE_32.py\":29:26)\n#loc13 = loc(\"/root/superlensai/sensitivity_study/perturbed_BLOCK_SIZE_32.py\":29:35)\n#loc14 = loc(\"/root/superlensai/sensitivity_study/perturbed_BLOCK_SIZE_32.py\":29:4)\n#loc19 = loc(\"pid\"(#loc2))\n#loc20 = loc(\"block_start\"(#loc3))\n#loc21 = loc(\"offsets\"(#loc4))\n#loc22 = loc(\"offsets\"(#loc5))\n#loc23 = loc(\"mask\"(#loc6))\n#loc24 = loc(\"x\"(#loc7))\n#loc25 = loc(\"x\"(#loc8))\n#loc26 = loc(\"y\"(#loc9))\n#loc27 = loc(\"y\"(#loc10))\n#loc28 = loc(\"output\"(#loc11))"
  },
  {
    "type": "Before",
    "pass_desc": "TritonNvidiaGPUOptimizeTMemLayoutsPass",
    "pass_id": "triton-nvidia-optimize-tmem-layouts",
    "op_type": "builtin.module",
    "ir": "#blocked = #ttg.blocked<{sizePerThread = [1], threadsPerWarp = [32], warpsPerCTA = [4], order = [0]}>\n#loc = loc(\"/root/superlensai/sensitivity_study/perturbed_BLOCK_SIZE_32.py\":6:0)\n#loc15 = loc(\"x_ptr\"(#loc))\n#loc16 = loc(\"y_ptr\"(#loc))\n#loc17 = loc(\"output_ptr\"(#loc))\n#loc18 = loc(\"n_elements\"(#loc))\nmodule attributes {\"ttg.num-ctas\" = 1 : i32, \"ttg.num-warps\" = 4 : i32, ttg.target = \"cuda:75\", \"ttg.threads-per-warp\" = 32 : i32} {\n  tt.func public @vector_add_kernel(%x_ptr: !tt.ptr<f32> {tt.divisibility = 16 : i32} loc(\"x_ptr\"(#loc)), %y_ptr: !tt.ptr<f32> {tt.divisibility = 16 : i32} loc(\"y_ptr\"(#loc)), %output_ptr: !tt.ptr<f32> {tt.divisibility = 16 : i32} loc(\"output_ptr\"(#loc)), %n_elements: i32 {tt.divisibility = 16 : i32} loc(\"n_elements\"(#loc))) attributes {noinline = false} {\n    %c32_i32 = arith.constant 32 : i32 loc(#loc1)\n    %pid = tt.get_program_id x : i32 loc(#loc19)\n    %block_start = arith.muli %pid, %c32_i32 : i32 loc(#loc20)\n    %offsets = tt.make_range {end = 32 : i32, start = 0 : i32} : tensor<32xi32, #blocked> loc(#loc21)\n    %offsets_0 = tt.splat %block_start : i32 -> tensor<32xi32, #blocked> loc(#loc22)\n    %offsets_1 = arith.addi %offsets_0, %offsets : tensor<32xi32, #blocked> loc(#loc22)\n    %mask = tt.splat %n_elements : i32 -> tensor<32xi32, #blocked> loc(#loc23)\n    %mask_2 = arith.cmpi slt, %offsets_1, %mask : tensor<32xi32, #blocked> loc(#loc23)\n    %x = tt.splat %x_ptr : !tt.ptr<f32> -> tensor<32x!tt.ptr<f32>, #blocked> loc(#loc24)\n    %x_3 = tt.addptr %x, %offsets_1 : tensor<32x!tt.ptr<f32>, #blocked>, tensor<32xi32, #blocked> loc(#loc24)\n    %x_4 = tt.load %x_3, %mask_2 : tensor<32x!tt.ptr<f32>, #blocked> loc(#loc25)\n    %y = tt.splat %y_ptr : !tt.ptr<f32> -> tensor<32x!tt.ptr<f32>, #blocked> loc(#loc26)\n    %y_5 = tt.addptr %y, %offsets_1 : tensor<32x!tt.ptr<f32>, #blocked>, tensor<32xi32, #blocked> loc(#loc26)\n    %y_6 = tt.load %y_5, %mask_2 : tensor<32x!tt.ptr<f32>, #blocked> loc(#loc27)\n    %output = arith.addf %x_4, %y_6 : tensor<32xf32, #blocked> loc(#loc28)\n    %0 = tt.splat %output_ptr : !tt.ptr<f32> -> tensor<32x!tt.ptr<f32>, #blocked> loc(#loc12)\n    %1 = tt.addptr %0, %offsets_1 : tensor<32x!tt.ptr<f32>, #blocked>, tensor<32xi32, #blocked> loc(#loc12)\n    tt.store %1, %output, %mask_2 : tensor<32x!tt.ptr<f32>, #blocked> loc(#loc13)\n    tt.return loc(#loc14)\n  } loc(#loc)\n} loc(#loc)\n#loc1 = loc(unknown)\n#loc2 = loc(\"/root/superlensai/sensitivity_study/perturbed_BLOCK_SIZE_32.py\":15:24)\n#loc3 = loc(\"/root/superlensai/sensitivity_study/perturbed_BLOCK_SIZE_32.py\":20:24)\n#loc4 = loc(\"/root/superlensai/sensitivity_study/perturbed_BLOCK_SIZE_32.py\":21:41)\n#loc5 = loc(\"/root/superlensai/sensitivity_study/perturbed_BLOCK_SIZE_32.py\":21:28)\n#loc6 = loc(\"/root/superlensai/sensitivity_study/perturbed_BLOCK_SIZE_32.py\":23:21)\n#loc7 = loc(\"/root/superlensai/sensitivity_study/perturbed_BLOCK_SIZE_32.py\":25:24)\n#loc8 = loc(\"/root/superlensai/sensitivity_study/perturbed_BLOCK_SIZE_32.py\":25:16)\n#loc9 = loc(\"/root/superlensai/sensitivity_study/perturbed_BLOCK_SIZE_32.py\":26:24)\n#loc10 = loc(\"/root/superlensai/sensitivity_study/perturbed_BLOCK_SIZE_32.py\":26:16)\n#loc11 = loc(\"/root/superlensai/sensitivity_study/perturbed_BLOCK_SIZE_32.py\":27:17)\n#loc12 = loc(\"/root/superlensai/sensitivity_study/perturbed_BLOCK_SIZE_32.py\":29:26)\n#loc13 = loc(\"/root/superlensai/sensitivity_study/perturbed_BLOCK_SIZE_32.py\":29:35)\n#loc14 = loc(\"/root/superlensai/sensitivity_study/perturbed_BLOCK_SIZE_32.py\":29:4)\n#loc19 = loc(\"pid\"(#loc2))\n#loc20 = loc(\"block_start\"(#loc3))\n#loc21 = loc(\"offsets\"(#loc4))\n#loc22 = loc(\"offsets\"(#loc5))\n#loc23 = loc(\"mask\"(#loc6))\n#loc24 = loc(\"x\"(#loc7))\n#loc25 = loc(\"x\"(#loc8))\n#loc26 = loc(\"y\"(#loc9))\n#loc27 = loc(\"y\"(#loc10))\n#loc28 = loc(\"output\"(#loc11))"
  },
  {
    "type": "Before",
    "pass_desc": "TritonGPURemoveLayoutConversions",
    "pass_id": "tritongpu-remove-layout-conversions",
    "op_type": "builtin.module",
    "ir": "#blocked = #ttg.blocked<{sizePerThread = [1], threadsPerWarp = [32], warpsPerCTA = [4], order = [0]}>\n#loc = loc(\"/root/superlensai/sensitivity_study/perturbed_BLOCK_SIZE_32.py\":6:0)\n#loc15 = loc(\"x_ptr\"(#loc))\n#loc16 = loc(\"y_ptr\"(#loc))\n#loc17 = loc(\"output_ptr\"(#loc))\n#loc18 = loc(\"n_elements\"(#loc))\nmodule attributes {\"ttg.num-ctas\" = 1 : i32, \"ttg.num-warps\" = 4 : i32, ttg.target = \"cuda:75\", \"ttg.threads-per-warp\" = 32 : i32} {\n  tt.func public @vector_add_kernel(%x_ptr: !tt.ptr<f32> {tt.divisibility = 16 : i32} loc(\"x_ptr\"(#loc)), %y_ptr: !tt.ptr<f32> {tt.divisibility = 16 : i32} loc(\"y_ptr\"(#loc)), %output_ptr: !tt.ptr<f32> {tt.divisibility = 16 : i32} loc(\"output_ptr\"(#loc)), %n_elements: i32 {tt.divisibility = 16 : i32} loc(\"n_elements\"(#loc))) attributes {noinline = false} {\n    %c32_i32 = arith.constant 32 : i32 loc(#loc1)\n    %pid = tt.get_program_id x : i32 loc(#loc19)\n    %block_start = arith.muli %pid, %c32_i32 : i32 loc(#loc20)\n    %offsets = tt.make_range {end = 32 : i32, start = 0 : i32} : tensor<32xi32, #blocked> loc(#loc21)\n    %offsets_0 = tt.splat %block_start : i32 -> tensor<32xi32, #blocked> loc(#loc22)\n    %offsets_1 = arith.addi %offsets_0, %offsets : tensor<32xi32, #blocked> loc(#loc22)\n    %mask = tt.splat %n_elements : i32 -> tensor<32xi32, #blocked> loc(#loc23)\n    %mask_2 = arith.cmpi slt, %offsets_1, %mask : tensor<32xi32, #blocked> loc(#loc23)\n    %x = tt.splat %x_ptr : !tt.ptr<f32> -> tensor<32x!tt.ptr<f32>, #blocked> loc(#loc24)\n    %x_3 = tt.addptr %x, %offsets_1 : tensor<32x!tt.ptr<f32>, #blocked>, tensor<32xi32, #blocked> loc(#loc24)\n    %x_4 = tt.load %x_3, %mask_2 : tensor<32x!tt.ptr<f32>, #blocked> loc(#loc25)\n    %y = tt.splat %y_ptr : !tt.ptr<f32> -> tensor<32x!tt.ptr<f32>, #blocked> loc(#loc26)\n    %y_5 = tt.addptr %y, %offsets_1 : tensor<32x!tt.ptr<f32>, #blocked>, tensor<32xi32, #blocked> loc(#loc26)\n    %y_6 = tt.load %y_5, %mask_2 : tensor<32x!tt.ptr<f32>, #blocked> loc(#loc27)\n    %output = arith.addf %x_4, %y_6 : tensor<32xf32, #blocked> loc(#loc28)\n    %0 = tt.splat %output_ptr : !tt.ptr<f32> -> tensor<32x!tt.ptr<f32>, #blocked> loc(#loc12)\n    %1 = tt.addptr %0, %offsets_1 : tensor<32x!tt.ptr<f32>, #blocked>, tensor<32xi32, #blocked> loc(#loc12)\n    tt.store %1, %output, %mask_2 : tensor<32x!tt.ptr<f32>, #blocked> loc(#loc13)\n    tt.return loc(#loc14)\n  } loc(#loc)\n} loc(#loc)\n#loc1 = loc(unknown)\n#loc2 = loc(\"/root/superlensai/sensitivity_study/perturbed_BLOCK_SIZE_32.py\":15:24)\n#loc3 = loc(\"/root/superlensai/sensitivity_study/perturbed_BLOCK_SIZE_32.py\":20:24)\n#loc4 = loc(\"/root/superlensai/sensitivity_study/perturbed_BLOCK_SIZE_32.py\":21:41)\n#loc5 = loc(\"/root/superlensai/sensitivity_study/perturbed_BLOCK_SIZE_32.py\":21:28)\n#loc6 = loc(\"/root/superlensai/sensitivity_study/perturbed_BLOCK_SIZE_32.py\":23:21)\n#loc7 = loc(\"/root/superlensai/sensitivity_study/perturbed_BLOCK_SIZE_32.py\":25:24)\n#loc8 = loc(\"/root/superlensai/sensitivity_study/perturbed_BLOCK_SIZE_32.py\":25:16)\n#loc9 = loc(\"/root/superlensai/sensitivity_study/perturbed_BLOCK_SIZE_32.py\":26:24)\n#loc10 = loc(\"/root/superlensai/sensitivity_study/perturbed_BLOCK_SIZE_32.py\":26:16)\n#loc11 = loc(\"/root/superlensai/sensitivity_study/perturbed_BLOCK_SIZE_32.py\":27:17)\n#loc12 = loc(\"/root/superlensai/sensitivity_study/perturbed_BLOCK_SIZE_32.py\":29:26)\n#loc13 = loc(\"/root/superlensai/sensitivity_study/perturbed_BLOCK_SIZE_32.py\":29:35)\n#loc14 = loc(\"/root/superlensai/sensitivity_study/perturbed_BLOCK_SIZE_32.py\":29:4)\n#loc19 = loc(\"pid\"(#loc2))\n#loc20 = loc(\"block_start\"(#loc3))\n#loc21 = loc(\"offsets\"(#loc4))\n#loc22 = loc(\"offsets\"(#loc5))\n#loc23 = loc(\"mask\"(#loc6))\n#loc24 = loc(\"x\"(#loc7))\n#loc25 = loc(\"x\"(#loc8))\n#loc26 = loc(\"y\"(#loc9))\n#loc27 = loc(\"y\"(#loc10))\n#loc28 = loc(\"output\"(#loc11))"
  },
  {
    "type": "Before",
    "pass_desc": "TritonNvidiaGPUInterleaveTMemPass",
    "pass_id": "triton-nvidia-interleave-tmem",
    "op_type": "builtin.module",
    "ir": "#blocked = #ttg.blocked<{sizePerThread = [1], threadsPerWarp = [32], warpsPerCTA = [4], order = [0]}>\n#loc = loc(\"/root/superlensai/sensitivity_study/perturbed_BLOCK_SIZE_32.py\":6:0)\n#loc15 = loc(\"x_ptr\"(#loc))\n#loc16 = loc(\"y_ptr\"(#loc))\n#loc17 = loc(\"output_ptr\"(#loc))\n#loc18 = loc(\"n_elements\"(#loc))\nmodule attributes {\"ttg.num-ctas\" = 1 : i32, \"ttg.num-warps\" = 4 : i32, ttg.target = \"cuda:75\", \"ttg.threads-per-warp\" = 32 : i32} {\n  tt.func public @vector_add_kernel(%x_ptr: !tt.ptr<f32> {tt.divisibility = 16 : i32} loc(\"x_ptr\"(#loc)), %y_ptr: !tt.ptr<f32> {tt.divisibility = 16 : i32} loc(\"y_ptr\"(#loc)), %output_ptr: !tt.ptr<f32> {tt.divisibility = 16 : i32} loc(\"output_ptr\"(#loc)), %n_elements: i32 {tt.divisibility = 16 : i32} loc(\"n_elements\"(#loc))) attributes {noinline = false} {\n    %c32_i32 = arith.constant 32 : i32 loc(#loc1)\n    %pid = tt.get_program_id x : i32 loc(#loc19)\n    %block_start = arith.muli %pid, %c32_i32 : i32 loc(#loc20)\n    %offsets = tt.make_range {end = 32 : i32, start = 0 : i32} : tensor<32xi32, #blocked> loc(#loc21)\n    %offsets_0 = tt.splat %block_start : i32 -> tensor<32xi32, #blocked> loc(#loc22)\n    %offsets_1 = arith.addi %offsets_0, %offsets : tensor<32xi32, #blocked> loc(#loc22)\n    %mask = tt.splat %n_elements : i32 -> tensor<32xi32, #blocked> loc(#loc23)\n    %mask_2 = arith.cmpi slt, %offsets_1, %mask : tensor<32xi32, #blocked> loc(#loc23)\n    %x = tt.splat %x_ptr : !tt.ptr<f32> -> tensor<32x!tt.ptr<f32>, #blocked> loc(#loc24)\n    %x_3 = tt.addptr %x, %offsets_1 : tensor<32x!tt.ptr<f32>, #blocked>, tensor<32xi32, #blocked> loc(#loc24)\n    %x_4 = tt.load %x_3, %mask_2 : tensor<32x!tt.ptr<f32>, #blocked> loc(#loc25)\n    %y = tt.splat %y_ptr : !tt.ptr<f32> -> tensor<32x!tt.ptr<f32>, #blocked> loc(#loc26)\n    %y_5 = tt.addptr %y, %offsets_1 : tensor<32x!tt.ptr<f32>, #blocked>, tensor<32xi32, #blocked> loc(#loc26)\n    %y_6 = tt.load %y_5, %mask_2 : tensor<32x!tt.ptr<f32>, #blocked> loc(#loc27)\n    %output = arith.addf %x_4, %y_6 : tensor<32xf32, #blocked> loc(#loc28)\n    %0 = tt.splat %output_ptr : !tt.ptr<f32> -> tensor<32x!tt.ptr<f32>, #blocked> loc(#loc12)\n    %1 = tt.addptr %0, %offsets_1 : tensor<32x!tt.ptr<f32>, #blocked>, tensor<32xi32, #blocked> loc(#loc12)\n    tt.store %1, %output, %mask_2 : tensor<32x!tt.ptr<f32>, #blocked> loc(#loc13)\n    tt.return loc(#loc14)\n  } loc(#loc)\n} loc(#loc)\n#loc1 = loc(unknown)\n#loc2 = loc(\"/root/superlensai/sensitivity_study/perturbed_BLOCK_SIZE_32.py\":15:24)\n#loc3 = loc(\"/root/superlensai/sensitivity_study/perturbed_BLOCK_SIZE_32.py\":20:24)\n#loc4 = loc(\"/root/superlensai/sensitivity_study/perturbed_BLOCK_SIZE_32.py\":21:41)\n#loc5 = loc(\"/root/superlensai/sensitivity_study/perturbed_BLOCK_SIZE_32.py\":21:28)\n#loc6 = loc(\"/root/superlensai/sensitivity_study/perturbed_BLOCK_SIZE_32.py\":23:21)\n#loc7 = loc(\"/root/superlensai/sensitivity_study/perturbed_BLOCK_SIZE_32.py\":25:24)\n#loc8 = loc(\"/root/superlensai/sensitivity_study/perturbed_BLOCK_SIZE_32.py\":25:16)\n#loc9 = loc(\"/root/superlensai/sensitivity_study/perturbed_BLOCK_SIZE_32.py\":26:24)\n#loc10 = loc(\"/root/superlensai/sensitivity_study/perturbed_BLOCK_SIZE_32.py\":26:16)\n#loc11 = loc(\"/root/superlensai/sensitivity_study/perturbed_BLOCK_SIZE_32.py\":27:17)\n#loc12 = loc(\"/root/superlensai/sensitivity_study/perturbed_BLOCK_SIZE_32.py\":29:26)\n#loc13 = loc(\"/root/superlensai/sensitivity_study/perturbed_BLOCK_SIZE_32.py\":29:35)\n#loc14 = loc(\"/root/superlensai/sensitivity_study/perturbed_BLOCK_SIZE_32.py\":29:4)\n#loc19 = loc(\"pid\"(#loc2))\n#loc20 = loc(\"block_start\"(#loc3))\n#loc21 = loc(\"offsets\"(#loc4))\n#loc22 = loc(\"offsets\"(#loc5))\n#loc23 = loc(\"mask\"(#loc6))\n#loc24 = loc(\"x\"(#loc7))\n#loc25 = loc(\"x\"(#loc8))\n#loc26 = loc(\"y\"(#loc9))\n#loc27 = loc(\"y\"(#loc10))\n#loc28 = loc(\"output\"(#loc11))"
  },
  {
    "type": "Before",
    "pass_desc": "TritonGPUReduceDataDuplication",
    "pass_id": "tritongpu-reduce-data-duplication",
    "op_type": "builtin.module",
    "ir": "#blocked = #ttg.blocked<{sizePerThread = [1], threadsPerWarp = [32], warpsPerCTA = [4], order = [0]}>\n#loc = loc(\"/root/superlensai/sensitivity_study/perturbed_BLOCK_SIZE_32.py\":6:0)\n#loc15 = loc(\"x_ptr\"(#loc))\n#loc16 = loc(\"y_ptr\"(#loc))\n#loc17 = loc(\"output_ptr\"(#loc))\n#loc18 = loc(\"n_elements\"(#loc))\nmodule attributes {\"ttg.num-ctas\" = 1 : i32, \"ttg.num-warps\" = 4 : i32, ttg.target = \"cuda:75\", \"ttg.threads-per-warp\" = 32 : i32} {\n  tt.func public @vector_add_kernel(%x_ptr: !tt.ptr<f32> {tt.divisibility = 16 : i32} loc(\"x_ptr\"(#loc)), %y_ptr: !tt.ptr<f32> {tt.divisibility = 16 : i32} loc(\"y_ptr\"(#loc)), %output_ptr: !tt.ptr<f32> {tt.divisibility = 16 : i32} loc(\"output_ptr\"(#loc)), %n_elements: i32 {tt.divisibility = 16 : i32} loc(\"n_elements\"(#loc))) attributes {noinline = false} {\n    %c32_i32 = arith.constant 32 : i32 loc(#loc1)\n    %pid = tt.get_program_id x : i32 loc(#loc19)\n    %block_start = arith.muli %pid, %c32_i32 : i32 loc(#loc20)\n    %offsets = tt.make_range {end = 32 : i32, start = 0 : i32} : tensor<32xi32, #blocked> loc(#loc21)\n    %offsets_0 = tt.splat %block_start : i32 -> tensor<32xi32, #blocked> loc(#loc22)\n    %offsets_1 = arith.addi %offsets_0, %offsets : tensor<32xi32, #blocked> loc(#loc22)\n    %mask = tt.splat %n_elements : i32 -> tensor<32xi32, #blocked> loc(#loc23)\n    %mask_2 = arith.cmpi slt, %offsets_1, %mask : tensor<32xi32, #blocked> loc(#loc23)\n    %x = tt.splat %x_ptr : !tt.ptr<f32> -> tensor<32x!tt.ptr<f32>, #blocked> loc(#loc24)\n    %x_3 = tt.addptr %x, %offsets_1 : tensor<32x!tt.ptr<f32>, #blocked>, tensor<32xi32, #blocked> loc(#loc24)\n    %x_4 = tt.load %x_3, %mask_2 : tensor<32x!tt.ptr<f32>, #blocked> loc(#loc25)\n    %y = tt.splat %y_ptr : !tt.ptr<f32> -> tensor<32x!tt.ptr<f32>, #blocked> loc(#loc26)\n    %y_5 = tt.addptr %y, %offsets_1 : tensor<32x!tt.ptr<f32>, #blocked>, tensor<32xi32, #blocked> loc(#loc26)\n    %y_6 = tt.load %y_5, %mask_2 : tensor<32x!tt.ptr<f32>, #blocked> loc(#loc27)\n    %output = arith.addf %x_4, %y_6 : tensor<32xf32, #blocked> loc(#loc28)\n    %0 = tt.splat %output_ptr : !tt.ptr<f32> -> tensor<32x!tt.ptr<f32>, #blocked> loc(#loc12)\n    %1 = tt.addptr %0, %offsets_1 : tensor<32x!tt.ptr<f32>, #blocked>, tensor<32xi32, #blocked> loc(#loc12)\n    tt.store %1, %output, %mask_2 : tensor<32x!tt.ptr<f32>, #blocked> loc(#loc13)\n    tt.return loc(#loc14)\n  } loc(#loc)\n} loc(#loc)\n#loc1 = loc(unknown)\n#loc2 = loc(\"/root/superlensai/sensitivity_study/perturbed_BLOCK_SIZE_32.py\":15:24)\n#loc3 = loc(\"/root/superlensai/sensitivity_study/perturbed_BLOCK_SIZE_32.py\":20:24)\n#loc4 = loc(\"/root/superlensai/sensitivity_study/perturbed_BLOCK_SIZE_32.py\":21:41)\n#loc5 = loc(\"/root/superlensai/sensitivity_study/perturbed_BLOCK_SIZE_32.py\":21:28)\n#loc6 = loc(\"/root/superlensai/sensitivity_study/perturbed_BLOCK_SIZE_32.py\":23:21)\n#loc7 = loc(\"/root/superlensai/sensitivity_study/perturbed_BLOCK_SIZE_32.py\":25:24)\n#loc8 = loc(\"/root/superlensai/sensitivity_study/perturbed_BLOCK_SIZE_32.py\":25:16)\n#loc9 = loc(\"/root/superlensai/sensitivity_study/perturbed_BLOCK_SIZE_32.py\":26:24)\n#loc10 = loc(\"/root/superlensai/sensitivity_study/perturbed_BLOCK_SIZE_32.py\":26:16)\n#loc11 = loc(\"/root/superlensai/sensitivity_study/perturbed_BLOCK_SIZE_32.py\":27:17)\n#loc12 = loc(\"/root/superlensai/sensitivity_study/perturbed_BLOCK_SIZE_32.py\":29:26)\n#loc13 = loc(\"/root/superlensai/sensitivity_study/perturbed_BLOCK_SIZE_32.py\":29:35)\n#loc14 = loc(\"/root/superlensai/sensitivity_study/perturbed_BLOCK_SIZE_32.py\":29:4)\n#loc19 = loc(\"pid\"(#loc2))\n#loc20 = loc(\"block_start\"(#loc3))\n#loc21 = loc(\"offsets\"(#loc4))\n#loc22 = loc(\"offsets\"(#loc5))\n#loc23 = loc(\"mask\"(#loc6))\n#loc24 = loc(\"x\"(#loc7))\n#loc25 = loc(\"x\"(#loc8))\n#loc26 = loc(\"y\"(#loc9))\n#loc27 = loc(\"y\"(#loc10))\n#loc28 = loc(\"output\"(#loc11))"
  },
  {
    "type": "Before",
    "pass_desc": "TritonGPUReorderInstructions",
    "pass_id": "tritongpu-reorder-instructions",
    "op_type": "builtin.module",
    "ir": "#blocked = #ttg.blocked<{sizePerThread = [1], threadsPerWarp = [32], warpsPerCTA = [4], order = [0]}>\n#loc = loc(\"/root/superlensai/sensitivity_study/perturbed_BLOCK_SIZE_32.py\":6:0)\n#loc15 = loc(\"x_ptr\"(#loc))\n#loc16 = loc(\"y_ptr\"(#loc))\n#loc17 = loc(\"output_ptr\"(#loc))\n#loc18 = loc(\"n_elements\"(#loc))\nmodule attributes {\"ttg.num-ctas\" = 1 : i32, \"ttg.num-warps\" = 4 : i32, ttg.target = \"cuda:75\", \"ttg.threads-per-warp\" = 32 : i32} {\n  tt.func public @vector_add_kernel(%x_ptr: !tt.ptr<f32> {tt.divisibility = 16 : i32} loc(\"x_ptr\"(#loc)), %y_ptr: !tt.ptr<f32> {tt.divisibility = 16 : i32} loc(\"y_ptr\"(#loc)), %output_ptr: !tt.ptr<f32> {tt.divisibility = 16 : i32} loc(\"output_ptr\"(#loc)), %n_elements: i32 {tt.divisibility = 16 : i32} loc(\"n_elements\"(#loc))) attributes {noinline = false} {\n    %c32_i32 = arith.constant 32 : i32 loc(#loc1)\n    %pid = tt.get_program_id x : i32 loc(#loc19)\n    %block_start = arith.muli %pid, %c32_i32 : i32 loc(#loc20)\n    %offsets = tt.make_range {end = 32 : i32, start = 0 : i32} : tensor<32xi32, #blocked> loc(#loc21)\n    %offsets_0 = tt.splat %block_start : i32 -> tensor<32xi32, #blocked> loc(#loc22)\n    %offsets_1 = arith.addi %offsets_0, %offsets : tensor<32xi32, #blocked> loc(#loc22)\n    %mask = tt.splat %n_elements : i32 -> tensor<32xi32, #blocked> loc(#loc23)\n    %mask_2 = arith.cmpi slt, %offsets_1, %mask : tensor<32xi32, #blocked> loc(#loc23)\n    %x = tt.splat %x_ptr : !tt.ptr<f32> -> tensor<32x!tt.ptr<f32>, #blocked> loc(#loc24)\n    %x_3 = tt.addptr %x, %offsets_1 : tensor<32x!tt.ptr<f32>, #blocked>, tensor<32xi32, #blocked> loc(#loc24)\n    %x_4 = tt.load %x_3, %mask_2 : tensor<32x!tt.ptr<f32>, #blocked> loc(#loc25)\n    %y = tt.splat %y_ptr : !tt.ptr<f32> -> tensor<32x!tt.ptr<f32>, #blocked> loc(#loc26)\n    %y_5 = tt.addptr %y, %offsets_1 : tensor<32x!tt.ptr<f32>, #blocked>, tensor<32xi32, #blocked> loc(#loc26)\n    %y_6 = tt.load %y_5, %mask_2 : tensor<32x!tt.ptr<f32>, #blocked> loc(#loc27)\n    %output = arith.addf %x_4, %y_6 : tensor<32xf32, #blocked> loc(#loc28)\n    %0 = tt.splat %output_ptr : !tt.ptr<f32> -> tensor<32x!tt.ptr<f32>, #blocked> loc(#loc12)\n    %1 = tt.addptr %0, %offsets_1 : tensor<32x!tt.ptr<f32>, #blocked>, tensor<32xi32, #blocked> loc(#loc12)\n    tt.store %1, %output, %mask_2 : tensor<32x!tt.ptr<f32>, #blocked> loc(#loc13)\n    tt.return loc(#loc14)\n  } loc(#loc)\n} loc(#loc)\n#loc1 = loc(unknown)\n#loc2 = loc(\"/root/superlensai/sensitivity_study/perturbed_BLOCK_SIZE_32.py\":15:24)\n#loc3 = loc(\"/root/superlensai/sensitivity_study/perturbed_BLOCK_SIZE_32.py\":20:24)\n#loc4 = loc(\"/root/superlensai/sensitivity_study/perturbed_BLOCK_SIZE_32.py\":21:41)\n#loc5 = loc(\"/root/superlensai/sensitivity_study/perturbed_BLOCK_SIZE_32.py\":21:28)\n#loc6 = loc(\"/root/superlensai/sensitivity_study/perturbed_BLOCK_SIZE_32.py\":23:21)\n#loc7 = loc(\"/root/superlensai/sensitivity_study/perturbed_BLOCK_SIZE_32.py\":25:24)\n#loc8 = loc(\"/root/superlensai/sensitivity_study/perturbed_BLOCK_SIZE_32.py\":25:16)\n#loc9 = loc(\"/root/superlensai/sensitivity_study/perturbed_BLOCK_SIZE_32.py\":26:24)\n#loc10 = loc(\"/root/superlensai/sensitivity_study/perturbed_BLOCK_SIZE_32.py\":26:16)\n#loc11 = loc(\"/root/superlensai/sensitivity_study/perturbed_BLOCK_SIZE_32.py\":27:17)\n#loc12 = loc(\"/root/superlensai/sensitivity_study/perturbed_BLOCK_SIZE_32.py\":29:26)\n#loc13 = loc(\"/root/superlensai/sensitivity_study/perturbed_BLOCK_SIZE_32.py\":29:35)\n#loc14 = loc(\"/root/superlensai/sensitivity_study/perturbed_BLOCK_SIZE_32.py\":29:4)\n#loc19 = loc(\"pid\"(#loc2))\n#loc20 = loc(\"block_start\"(#loc3))\n#loc21 = loc(\"offsets\"(#loc4))\n#loc22 = loc(\"offsets\"(#loc5))\n#loc23 = loc(\"mask\"(#loc6))\n#loc24 = loc(\"x\"(#loc7))\n#loc25 = loc(\"x\"(#loc8))\n#loc26 = loc(\"y\"(#loc9))\n#loc27 = loc(\"y\"(#loc10))\n#loc28 = loc(\"output\"(#loc11))"
  },
  {
    "type": "Before",
    "pass_desc": "TritonLoopAwareCSE",
    "pass_id": "triton-loop-aware-cse",
    "op_type": "builtin.module",
    "ir": "#blocked = #ttg.blocked<{sizePerThread = [1], threadsPerWarp = [32], warpsPerCTA = [4], order = [0]}>\n#loc = loc(\"/root/superlensai/sensitivity_study/perturbed_BLOCK_SIZE_32.py\":6:0)\n#loc15 = loc(\"x_ptr\"(#loc))\n#loc16 = loc(\"y_ptr\"(#loc))\n#loc17 = loc(\"output_ptr\"(#loc))\n#loc18 = loc(\"n_elements\"(#loc))\nmodule attributes {\"ttg.num-ctas\" = 1 : i32, \"ttg.num-warps\" = 4 : i32, ttg.target = \"cuda:75\", \"ttg.threads-per-warp\" = 32 : i32} {\n  tt.func public @vector_add_kernel(%x_ptr: !tt.ptr<f32> {tt.divisibility = 16 : i32} loc(\"x_ptr\"(#loc)), %y_ptr: !tt.ptr<f32> {tt.divisibility = 16 : i32} loc(\"y_ptr\"(#loc)), %output_ptr: !tt.ptr<f32> {tt.divisibility = 16 : i32} loc(\"output_ptr\"(#loc)), %n_elements: i32 {tt.divisibility = 16 : i32} loc(\"n_elements\"(#loc))) attributes {noinline = false} {\n    %c32_i32 = arith.constant 32 : i32 loc(#loc1)\n    %pid = tt.get_program_id x : i32 loc(#loc19)\n    %block_start = arith.muli %pid, %c32_i32 : i32 loc(#loc20)\n    %offsets = tt.make_range {end = 32 : i32, start = 0 : i32} : tensor<32xi32, #blocked> loc(#loc21)\n    %offsets_0 = tt.splat %block_start : i32 -> tensor<32xi32, #blocked> loc(#loc22)\n    %offsets_1 = arith.addi %offsets_0, %offsets : tensor<32xi32, #blocked> loc(#loc22)\n    %mask = tt.splat %n_elements : i32 -> tensor<32xi32, #blocked> loc(#loc23)\n    %mask_2 = arith.cmpi slt, %offsets_1, %mask : tensor<32xi32, #blocked> loc(#loc23)\n    %x = tt.splat %x_ptr : !tt.ptr<f32> -> tensor<32x!tt.ptr<f32>, #blocked> loc(#loc24)\n    %x_3 = tt.addptr %x, %offsets_1 : tensor<32x!tt.ptr<f32>, #blocked>, tensor<32xi32, #blocked> loc(#loc24)\n    %x_4 = tt.load %x_3, %mask_2 : tensor<32x!tt.ptr<f32>, #blocked> loc(#loc25)\n    %y = tt.splat %y_ptr : !tt.ptr<f32> -> tensor<32x!tt.ptr<f32>, #blocked> loc(#loc26)\n    %y_5 = tt.addptr %y, %offsets_1 : tensor<32x!tt.ptr<f32>, #blocked>, tensor<32xi32, #blocked> loc(#loc26)\n    %y_6 = tt.load %y_5, %mask_2 : tensor<32x!tt.ptr<f32>, #blocked> loc(#loc27)\n    %output = arith.addf %x_4, %y_6 : tensor<32xf32, #blocked> loc(#loc28)\n    %0 = tt.splat %output_ptr : !tt.ptr<f32> -> tensor<32x!tt.ptr<f32>, #blocked> loc(#loc12)\n    %1 = tt.addptr %0, %offsets_1 : tensor<32x!tt.ptr<f32>, #blocked>, tensor<32xi32, #blocked> loc(#loc12)\n    tt.store %1, %output, %mask_2 : tensor<32x!tt.ptr<f32>, #blocked> loc(#loc13)\n    tt.return loc(#loc14)\n  } loc(#loc)\n} loc(#loc)\n#loc1 = loc(unknown)\n#loc2 = loc(\"/root/superlensai/sensitivity_study/perturbed_BLOCK_SIZE_32.py\":15:24)\n#loc3 = loc(\"/root/superlensai/sensitivity_study/perturbed_BLOCK_SIZE_32.py\":20:24)\n#loc4 = loc(\"/root/superlensai/sensitivity_study/perturbed_BLOCK_SIZE_32.py\":21:41)\n#loc5 = loc(\"/root/superlensai/sensitivity_study/perturbed_BLOCK_SIZE_32.py\":21:28)\n#loc6 = loc(\"/root/superlensai/sensitivity_study/perturbed_BLOCK_SIZE_32.py\":23:21)\n#loc7 = loc(\"/root/superlensai/sensitivity_study/perturbed_BLOCK_SIZE_32.py\":25:24)\n#loc8 = loc(\"/root/superlensai/sensitivity_study/perturbed_BLOCK_SIZE_32.py\":25:16)\n#loc9 = loc(\"/root/superlensai/sensitivity_study/perturbed_BLOCK_SIZE_32.py\":26:24)\n#loc10 = loc(\"/root/superlensai/sensitivity_study/perturbed_BLOCK_SIZE_32.py\":26:16)\n#loc11 = loc(\"/root/superlensai/sensitivity_study/perturbed_BLOCK_SIZE_32.py\":27:17)\n#loc12 = loc(\"/root/superlensai/sensitivity_study/perturbed_BLOCK_SIZE_32.py\":29:26)\n#loc13 = loc(\"/root/superlensai/sensitivity_study/perturbed_BLOCK_SIZE_32.py\":29:35)\n#loc14 = loc(\"/root/superlensai/sensitivity_study/perturbed_BLOCK_SIZE_32.py\":29:4)\n#loc19 = loc(\"pid\"(#loc2))\n#loc20 = loc(\"block_start\"(#loc3))\n#loc21 = loc(\"offsets\"(#loc4))\n#loc22 = loc(\"offsets\"(#loc5))\n#loc23 = loc(\"mask\"(#loc6))\n#loc24 = loc(\"x\"(#loc7))\n#loc25 = loc(\"x\"(#loc8))\n#loc26 = loc(\"y\"(#loc9))\n#loc27 = loc(\"y\"(#loc10))\n#loc28 = loc(\"output\"(#loc11))"
  },
  {
    "type": "Before",
    "pass_desc": "SymbolDCE",
    "pass_id": "symbol-dce",
    "op_type": "builtin.module",
    "ir": "#blocked = #ttg.blocked<{sizePerThread = [1], threadsPerWarp = [32], warpsPerCTA = [4], order = [0]}>\n#loc = loc(\"/root/superlensai/sensitivity_study/perturbed_BLOCK_SIZE_32.py\":6:0)\n#loc15 = loc(\"x_ptr\"(#loc))\n#loc16 = loc(\"y_ptr\"(#loc))\n#loc17 = loc(\"output_ptr\"(#loc))\n#loc18 = loc(\"n_elements\"(#loc))\nmodule attributes {\"ttg.num-ctas\" = 1 : i32, \"ttg.num-warps\" = 4 : i32, ttg.target = \"cuda:75\", \"ttg.threads-per-warp\" = 32 : i32} {\n  tt.func public @vector_add_kernel(%x_ptr: !tt.ptr<f32> {tt.divisibility = 16 : i32} loc(\"x_ptr\"(#loc)), %y_ptr: !tt.ptr<f32> {tt.divisibility = 16 : i32} loc(\"y_ptr\"(#loc)), %output_ptr: !tt.ptr<f32> {tt.divisibility = 16 : i32} loc(\"output_ptr\"(#loc)), %n_elements: i32 {tt.divisibility = 16 : i32} loc(\"n_elements\"(#loc))) attributes {noinline = false} {\n    %c32_i32 = arith.constant 32 : i32 loc(#loc1)\n    %pid = tt.get_program_id x : i32 loc(#loc19)\n    %block_start = arith.muli %pid, %c32_i32 : i32 loc(#loc20)\n    %offsets = tt.make_range {end = 32 : i32, start = 0 : i32} : tensor<32xi32, #blocked> loc(#loc21)\n    %offsets_0 = tt.splat %block_start : i32 -> tensor<32xi32, #blocked> loc(#loc22)\n    %offsets_1 = arith.addi %offsets_0, %offsets : tensor<32xi32, #blocked> loc(#loc22)\n    %mask = tt.splat %n_elements : i32 -> tensor<32xi32, #blocked> loc(#loc23)\n    %mask_2 = arith.cmpi slt, %offsets_1, %mask : tensor<32xi32, #blocked> loc(#loc23)\n    %x = tt.splat %x_ptr : !tt.ptr<f32> -> tensor<32x!tt.ptr<f32>, #blocked> loc(#loc24)\n    %x_3 = tt.addptr %x, %offsets_1 : tensor<32x!tt.ptr<f32>, #blocked>, tensor<32xi32, #blocked> loc(#loc24)\n    %x_4 = tt.load %x_3, %mask_2 : tensor<32x!tt.ptr<f32>, #blocked> loc(#loc25)\n    %y = tt.splat %y_ptr : !tt.ptr<f32> -> tensor<32x!tt.ptr<f32>, #blocked> loc(#loc26)\n    %y_5 = tt.addptr %y, %offsets_1 : tensor<32x!tt.ptr<f32>, #blocked>, tensor<32xi32, #blocked> loc(#loc26)\n    %y_6 = tt.load %y_5, %mask_2 : tensor<32x!tt.ptr<f32>, #blocked> loc(#loc27)\n    %output = arith.addf %x_4, %y_6 : tensor<32xf32, #blocked> loc(#loc28)\n    %0 = tt.splat %output_ptr : !tt.ptr<f32> -> tensor<32x!tt.ptr<f32>, #blocked> loc(#loc12)\n    %1 = tt.addptr %0, %offsets_1 : tensor<32x!tt.ptr<f32>, #blocked>, tensor<32xi32, #blocked> loc(#loc12)\n    tt.store %1, %output, %mask_2 : tensor<32x!tt.ptr<f32>, #blocked> loc(#loc13)\n    tt.return loc(#loc14)\n  } loc(#loc)\n} loc(#loc)\n#loc1 = loc(unknown)\n#loc2 = loc(\"/root/superlensai/sensitivity_study/perturbed_BLOCK_SIZE_32.py\":15:24)\n#loc3 = loc(\"/root/superlensai/sensitivity_study/perturbed_BLOCK_SIZE_32.py\":20:24)\n#loc4 = loc(\"/root/superlensai/sensitivity_study/perturbed_BLOCK_SIZE_32.py\":21:41)\n#loc5 = loc(\"/root/superlensai/sensitivity_study/perturbed_BLOCK_SIZE_32.py\":21:28)\n#loc6 = loc(\"/root/superlensai/sensitivity_study/perturbed_BLOCK_SIZE_32.py\":23:21)\n#loc7 = loc(\"/root/superlensai/sensitivity_study/perturbed_BLOCK_SIZE_32.py\":25:24)\n#loc8 = loc(\"/root/superlensai/sensitivity_study/perturbed_BLOCK_SIZE_32.py\":25:16)\n#loc9 = loc(\"/root/superlensai/sensitivity_study/perturbed_BLOCK_SIZE_32.py\":26:24)\n#loc10 = loc(\"/root/superlensai/sensitivity_study/perturbed_BLOCK_SIZE_32.py\":26:16)\n#loc11 = loc(\"/root/superlensai/sensitivity_study/perturbed_BLOCK_SIZE_32.py\":27:17)\n#loc12 = loc(\"/root/superlensai/sensitivity_study/perturbed_BLOCK_SIZE_32.py\":29:26)\n#loc13 = loc(\"/root/superlensai/sensitivity_study/perturbed_BLOCK_SIZE_32.py\":29:35)\n#loc14 = loc(\"/root/superlensai/sensitivity_study/perturbed_BLOCK_SIZE_32.py\":29:4)\n#loc19 = loc(\"pid\"(#loc2))\n#loc20 = loc(\"block_start\"(#loc3))\n#loc21 = loc(\"offsets\"(#loc4))\n#loc22 = loc(\"offsets\"(#loc5))\n#loc23 = loc(\"mask\"(#loc6))\n#loc24 = loc(\"x\"(#loc7))\n#loc25 = loc(\"x\"(#loc8))\n#loc26 = loc(\"y\"(#loc9))\n#loc27 = loc(\"y\"(#loc10))\n#loc28 = loc(\"output\"(#loc11))"
  },
  {
    "type": "Before",
    "pass_desc": "TritonGPUFenceInsertion",
    "pass_id": "triton-nvidia-gpu-fence-insertion",
    "op_type": "builtin.module",
    "ir": "#blocked = #ttg.blocked<{sizePerThread = [1], threadsPerWarp = [32], warpsPerCTA = [4], order = [0]}>\n#loc = loc(\"/root/superlensai/sensitivity_study/perturbed_BLOCK_SIZE_32.py\":6:0)\n#loc15 = loc(\"x_ptr\"(#loc))\n#loc16 = loc(\"y_ptr\"(#loc))\n#loc17 = loc(\"output_ptr\"(#loc))\n#loc18 = loc(\"n_elements\"(#loc))\nmodule attributes {\"ttg.num-ctas\" = 1 : i32, \"ttg.num-warps\" = 4 : i32, ttg.target = \"cuda:75\", \"ttg.threads-per-warp\" = 32 : i32} {\n  tt.func public @vector_add_kernel(%x_ptr: !tt.ptr<f32> {tt.divisibility = 16 : i32} loc(\"x_ptr\"(#loc)), %y_ptr: !tt.ptr<f32> {tt.divisibility = 16 : i32} loc(\"y_ptr\"(#loc)), %output_ptr: !tt.ptr<f32> {tt.divisibility = 16 : i32} loc(\"output_ptr\"(#loc)), %n_elements: i32 {tt.divisibility = 16 : i32} loc(\"n_elements\"(#loc))) attributes {noinline = false} {\n    %c32_i32 = arith.constant 32 : i32 loc(#loc1)\n    %pid = tt.get_program_id x : i32 loc(#loc19)\n    %block_start = arith.muli %pid, %c32_i32 : i32 loc(#loc20)\n    %offsets = tt.make_range {end = 32 : i32, start = 0 : i32} : tensor<32xi32, #blocked> loc(#loc21)\n    %offsets_0 = tt.splat %block_start : i32 -> tensor<32xi32, #blocked> loc(#loc22)\n    %offsets_1 = arith.addi %offsets_0, %offsets : tensor<32xi32, #blocked> loc(#loc22)\n    %mask = tt.splat %n_elements : i32 -> tensor<32xi32, #blocked> loc(#loc23)\n    %mask_2 = arith.cmpi slt, %offsets_1, %mask : tensor<32xi32, #blocked> loc(#loc23)\n    %x = tt.splat %x_ptr : !tt.ptr<f32> -> tensor<32x!tt.ptr<f32>, #blocked> loc(#loc24)\n    %x_3 = tt.addptr %x, %offsets_1 : tensor<32x!tt.ptr<f32>, #blocked>, tensor<32xi32, #blocked> loc(#loc24)\n    %x_4 = tt.load %x_3, %mask_2 : tensor<32x!tt.ptr<f32>, #blocked> loc(#loc25)\n    %y = tt.splat %y_ptr : !tt.ptr<f32> -> tensor<32x!tt.ptr<f32>, #blocked> loc(#loc26)\n    %y_5 = tt.addptr %y, %offsets_1 : tensor<32x!tt.ptr<f32>, #blocked>, tensor<32xi32, #blocked> loc(#loc26)\n    %y_6 = tt.load %y_5, %mask_2 : tensor<32x!tt.ptr<f32>, #blocked> loc(#loc27)\n    %output = arith.addf %x_4, %y_6 : tensor<32xf32, #blocked> loc(#loc28)\n    %0 = tt.splat %output_ptr : !tt.ptr<f32> -> tensor<32x!tt.ptr<f32>, #blocked> loc(#loc12)\n    %1 = tt.addptr %0, %offsets_1 : tensor<32x!tt.ptr<f32>, #blocked>, tensor<32xi32, #blocked> loc(#loc12)\n    tt.store %1, %output, %mask_2 : tensor<32x!tt.ptr<f32>, #blocked> loc(#loc13)\n    tt.return loc(#loc14)\n  } loc(#loc)\n} loc(#loc)\n#loc1 = loc(unknown)\n#loc2 = loc(\"/root/superlensai/sensitivity_study/perturbed_BLOCK_SIZE_32.py\":15:24)\n#loc3 = loc(\"/root/superlensai/sensitivity_study/perturbed_BLOCK_SIZE_32.py\":20:24)\n#loc4 = loc(\"/root/superlensai/sensitivity_study/perturbed_BLOCK_SIZE_32.py\":21:41)\n#loc5 = loc(\"/root/superlensai/sensitivity_study/perturbed_BLOCK_SIZE_32.py\":21:28)\n#loc6 = loc(\"/root/superlensai/sensitivity_study/perturbed_BLOCK_SIZE_32.py\":23:21)\n#loc7 = loc(\"/root/superlensai/sensitivity_study/perturbed_BLOCK_SIZE_32.py\":25:24)\n#loc8 = loc(\"/root/superlensai/sensitivity_study/perturbed_BLOCK_SIZE_32.py\":25:16)\n#loc9 = loc(\"/root/superlensai/sensitivity_study/perturbed_B…
    "ir": "#loc = loc(\"/root/superlensai/sensitivity_study/perturbed_BLOCK_SIZE_32.py\":6:0)\n#loc15 = loc(\"x_ptr\"(#loc))\n#loc16 = loc(\"y_ptr\"(#loc))\n#loc17 = loc(\"output_ptr\"(#loc))\n#loc18 = loc(\"n_elements\"(#loc))\nmodule attributes {ttg.global_scratch_memory_alignment = 1 : i32, ttg.global_scratch_memory_size = 0 : i32, \"ttg.num-ctas\" = 1 : i32, \"ttg.num-warps\" = 4 : i32, ttg.shared = 0 : i32, ttg.target = \"cuda:75\", ttg.tensor_memory_size = 0 : i32, \"ttg.threads-per-warp\" = 32 : i32, \"ttg.total-num-warps\" = 4 : i32, \"ttng.two-ctas\" = false} {\n  llvm.mlir.global external @global_smem() {addr_space = 3 : i32, alignment = 16 : i64} : !llvm.array<0 x i8> loc(#loc)\n  llvm.func @vector_add_kernel(%x_ptr: !llvm.ptr<1> {tt.divisibility = 16 : i32} loc(\"x_ptr\"(#loc)), %y_ptr: !llvm.ptr<1> {tt.divisibility = 16 : i32} loc(\"y_ptr\"(#loc)), %output_ptr: !llvm.ptr<1> {tt.divisibility = 16 : i32} loc(\"output_ptr\"(#loc)), %n_elements: i32 {tt.divisibility = 16 : i32} loc(\"n_elements\"(#loc)), %arg4: !llvm.ptr<1> loc(\"/root/superlensai/sensitivity_study/perturbed_BLOCK_SIZE_32.py\":6:0), %arg5: !llvm.ptr<1> loc(\"/root/superlensai/sensitivity_study/perturbed_BLOCK_SIZE_32.py\":6:0)) attributes {noinline = false, nvvm.kernel = 1 : ui1, nvvm.reqntid = array<i32: 128>, ttg.global_scratch_memory_alignment = 1 : i32, ttg.global_scratch_memory_size = 0 : i32} {\n    %0 = llvm.mlir.undef : vector<1xf32> loc(#loc1)\n    %1 = llvm.mlir.constant(3 : i32) : i32 loc(#loc1)\n    %offsets = llvm.mlir.constant(31 : i32) : i32 loc(#loc19)\n    %offsets_0 = llvm.mlir.constant(5 : i32) : i32 loc(#loc19)\n    %2 = llvm.mlir.constant(0 : i32) : i32 loc(#loc3)\n    %3 = llvm.mlir.constant(127 : i32) : i32 loc(#loc3)\n    %4 = llvm.mlir.constant(0 : index) : i32 loc(#loc3)\n    %5 = llvm.mlir.constant(32 : i32) : i32 loc(#loc3)\n    %pid = nvvm.read.ptx.sreg.ctaid.x : i32 loc(#loc20)\n    %block_start = llvm.mul %pid, %5 : i32 loc(#loc21)\n    %offsets_1 = nvvm.read.ptx.sreg.tid.x : i32 loc(#loc19)\n    %offsets_2 = llvm.and %offsets_1, %3 : i32 loc(#loc19)\n    %offsets_3 = llvm.urem %offsets_2, %5 : i32 loc(#loc19)\n    %offsets_4 = llvm.udiv %offsets_2, %5 : i32 loc(#loc19)\n    %offsets_5 = llvm.shl %offsets_3, %2 : i32 loc(#loc19)\n    %offsets_6 = llvm.or %2, %offsets_5 : i32 loc(#loc19)\n    %offsets_7 = llvm.shl %offsets_4, %offsets_0 : i32 loc(#loc19)\n    %offsets_8 = llvm.or %offsets_6, %offsets_7 : i32 loc(#loc19)\n    %offsets_9 = llvm.or %offsets_8, %2 : i32 loc(#loc19)\n    %offsets_10 = llvm.and %offsets_9, %offsets : i32 loc(#loc19)\n    %offsets_11 = llvm.lshr %offsets_10, %2 : i32 loc(#loc19)\n    %offsets_12 = llvm.or disjoint %offsets_11, %2 : i32 loc(#loc19)\n    %offsets_13 = llvm.xor %2, %offsets_12 : i32 loc(#loc19)\n    %offsets_14 = llvm.xor %offsets_13, %2 : i32 loc(#loc19)\n    %offsets_15 = llvm.add %offsets_14, %4 : i32 loc(#loc19)\n    %offsets_16 = llvm.add %block_start, %offsets_15 : i32 loc(#loc22)\n    %mask = llvm.icmp \"slt\" %offsets_16, %n_elements : i32 loc(#loc23)\n    %x = llvm.getelementptr %x_ptr[%offsets_16] : (!llvm.ptr<1>, i32) -> !llvm.ptr<1>, f32 loc(#loc24)\n    %x_17 = llvm.inline_asm has_side_effects asm_dialect = att operand_attrs = [] \"mov.u32 $0, 0x0;\\0A\\09@$2 ld.global.b32 { $0 }, [ $1 + 0 ];\", \"=r,l,b\" %x, %mask : (!llvm.ptr<1>, i1) -> i32 loc(#loc25)\n    %x_18 = llvm.bitcast %x_17 : i32 to vector<1xf32> loc(#loc25)\n    %x_19 = llvm.extractelement %x_18[%4 : i32] : vector<1xf32> loc(#loc25)\n    %y = llvm.getelementptr %y_ptr[%offsets_16] : (!llvm.ptr<1>, i32) -> !llvm.ptr<1>, f32 loc(#loc26)\n    %y_20 = llvm.inline_asm has_side_effects asm_dialect = att operand_attrs = [] \"mov.u32 $0, 0x0;\\0A\\09@$2 ld.global.b32 { $0 }, [ $1 + 0 ];\", \"=r,l,b\" %y, %mask : (!llvm.ptr<1>, i1) -> i32 loc(#loc27)\n    %y_21 = llvm.bitcast %y_20 : i32 to vector<1xf32> loc(#loc27)\n    %y_22 = llvm.extractelement %y_21[%4 : i32] : vector<1xf32> loc(#loc27)\n    %output = llvm.fadd %x_19, %y_22 : f32 loc(#loc28)\n    %6 = llvm.getelementptr %output_ptr[%offsets_16] : (!llvm.ptr<1>, i32) -> !llvm.ptr<1>, f32 loc(#loc13)\n    %7 = llvm.and %offsets_4, %1 : i32 loc(#loc1)\n    %8 = llvm.icmp \"eq\" %7, %2 : i32 loc(#loc1)\n    %9 = llvm.insertelement %output, %0[%2 : i32] : vector<1xf32> loc(#loc1)\n    %10 = llvm.bitcast %9 : vector<1xf32> to i32 loc(#loc1)\n    %11 = llvm.and %8, %mask : i1 loc(#loc1)\n    %12 = llvm.inline_asm has_side_effects asm_dialect = att operand_attrs = [] \"@$2 st.global.b32 [ $1 + 0 ], { $0 };\", \"r,l,b\" %10, %6, %11 : (i32, !llvm.ptr<1>, i1) -> !llvm.void loc(#loc1)\n    llvm.return loc(#loc14)\n  } loc(#loc)\n} loc(#loc)\n#loc1 = loc(\"/root/superlensai/sensitivity_study/perturbed_BLOCK_SIZE_32.py\":29:35)\n#loc2 = loc(\"/root/superlensai/sensitivity_study/perturbed_BLOCK_SIZE_32.py\":21:41)\n#loc3 = loc(unknown)\n#loc4 = loc(\"/root/superlensai/sensitivity_study/perturbed_BLOCK_SIZE_32.py\":15:24)\n#loc5 = loc(\"/root/superlensai/sensitivity_study/perturbed_BLOCK_SIZE_32.py\":20:24)\n#loc6 = loc(\"/root/superlensai/sensitivity_study/perturbed_BLOCK_SIZE_32.py\":21:28)\n#loc7 = loc(\"/root/superlensai/sensitivity_study/perturbed_BLOCK_SIZE_32.py\":23:21)\n#loc8 = loc(\"/root/superlensai/sensitivity_study/perturbed_BLOCK_SIZE_32.py\":25:24)\n#loc9 = loc(\"/root/superlensai/sensitivity_study/perturbed_BLOCK_SIZE_32.py\":25:16)\n#loc10 = loc(\"/root/superlensai/sensitivity_study/perturbed_BLOCK_SIZE_32.py\":26:24)\n#loc11 = loc(\"/root/superlensai/sensitivity_study/perturbed_BLOCK_SIZE_32.py\":26:16)\n#loc12 = loc(\"/root/superlensai/sensitivity_study/perturbed_BLOCK_SIZE_32.py\":27:17)\n#loc13 = loc(\"/root/superlensai/sensitivity_study/perturbed_BLOCK_SIZE_32.py\":29:26)\n#loc14 = loc(\"/root/superlensai/sensitivity_study/perturbed_BLOCK_SIZE_32.py\":29:4)\n#loc19 = loc(\"offsets\"(#loc2))\n#loc20 = loc(\"pid\"(#loc4))\n#loc21 = loc(\"block_start\"(#loc5))\n#loc22 = loc(\"offsets\"(#loc6))\n#loc23 = loc(\"mask\"(#loc7))\n#loc24 = loc(\"x\"(#loc8))\n#loc25 = loc(\"x\"(#loc9))\n#loc26 = loc(\"y\"(#loc10))\n#loc27 = loc(\"y\"(#loc11))\n#loc28 = loc(\"output\"(#loc12))"
  },
  {
    "type": "Before",
    "pass_desc": "ConvertWarpSpecializeToLLVM",
    "pass_id": "convert-warp-specialize-to-llvm",
    "op_type": "builtin.module",
    "ir": "#loc = loc(\"/root/superlensai/sensitivity_study/perturbed_BLOCK_SIZE_32.py\":6:0)\n#loc15 = loc(\"x_ptr\"(#loc))\n#loc16 = loc(\"y_ptr\"(#loc))\n#loc17 = loc(\"output_ptr\"(#loc))\n#loc18 = loc(\"n_elements\"(#loc))\nmodule attributes {ttg.global_scratch_memory_alignment = 1 : i32, ttg.global_scratch_memory_size = 0 : i32, \"ttg.num-ctas\" = 1 : i32, \"ttg.num-warps\" = 4 : i32, ttg.shared = 0 : i32, ttg.target = \"cuda:75\", ttg.tensor_memory_size = 0 : i32, \"ttg.threads-per-warp\" = 32 : i32, \"ttg.total-num-warps\" = 4 : i32, \"ttng.two-ctas\" = false} {\n  llvm.mlir.global external @global_smem() {addr_space = 3 : i32, alignment = 16 : i64} : !llvm.array<0 x i8> loc(#loc)\n  llvm.func @vector_add_kernel(%x_ptr: !llvm.ptr<1> {tt.divisibility = 16 : i32} loc(\"x_ptr\"(#loc)), %y_ptr: !llvm.ptr<1> {tt.divisibility = 16 : i32} loc(\"y_ptr\"(#loc)), %output_ptr: !llvm.ptr<1> {tt.divisibility = 16 : i32} loc(\"output_ptr\"(#loc)), %n_elements: i32 {tt.divisibility = 16 : i32} loc(\"n_elements\"(#loc)), %arg4: !llvm.ptr<1> loc(\"/root/superlensai/sensitivity_study/perturbed_BLOCK_SIZE_32.py\":6:0), %arg5: !llvm.ptr<1> loc(\"/root/superlensai/sensitivity_study/perturbed_BLOCK_SIZE_32.py\":6:0)) attributes {noinline = false, nvvm.kernel = 1 : ui1, nvvm.reqntid = array<i32: 128>, ttg.global_scratch_memory_alignment = 1 : i32, ttg.global_scratch_memory_size = 0 : i32} {\n    %0 = llvm.mlir.undef : vector<1xf32> loc(#loc1)\n    %1 = llvm.mlir.constant(3 : i32) : i32 loc(#loc1)\n    %offsets = llvm.mlir.constant(31 : i32) : i32 loc(#loc19)\n    %offsets_0 = llvm.mlir.constant(5 : i32) : i32 loc(#loc19)\n    %2 = llvm.mlir.constant(0 : i32) : i32 loc(#loc3)\n    %3 = llvm.mlir.constant(127 : i32) : i32 loc(#loc3)\n    %4 = llvm.mlir.constant(0 : index) : i32 loc(#loc3)\n    %5 = llvm.mlir.constant(32 : i32) : i32 loc(#loc3)\n    %pid = nvvm.read.ptx.sreg.ctaid.x : i32 loc(#loc20)\n    %block_start = llvm.mul %pid, %5 : i32 loc(#loc21)\n    %offsets_1 = nvvm.read.ptx.sreg.tid.x : i32 loc(#loc19)\n    %offsets_2 = llvm.and %offsets_1, %3 : i32 loc(#loc19)\n    %offsets_3 = llvm.urem %offsets_2, %5 : i32 loc(#loc19)\n    %offsets_4 = llvm.udiv %offsets_2, %5 : i32 loc(#loc19)\n    %offsets_5 = llvm.shl %offsets_3, %2 : i32 loc(#loc19)\n    %offsets_6 = llvm.or %2, %offsets_5 : i32 loc(#loc19)\n    %offsets_7 = llvm.shl %offsets_4, %offsets_0 : i32 loc(#loc19)\n    %offsets_8 = llvm.or %offsets_6, %offsets_7 : i32 loc(#loc19)\n    %offsets_9 = llvm.or %offsets_8, %2 : i32 loc(#loc19)\n    %offsets_10 = llvm.and %offsets_9, %offsets : i32 loc(#loc19)\n    %offsets_11 = llvm.lshr %offsets_10, %2 : i32 loc(#loc19)\n    %offsets_12 = llvm.or disjoint %offsets_11, %2 : i32 loc(#loc19)\n    %offsets_13 = llvm.xor %2, %offsets_12 : i32 loc(#loc19)\n    %offsets_14 = llvm.xor %offsets_13, %2 : i32 loc(#loc19)\n    %offsets_15 = llvm.add %offsets_14, %4 : i32 loc(#loc19)\n    %offsets_16 = llvm.add %block_start, %offsets_15 : i32 loc(#loc22)\n    %mask = llvm.icmp \"slt\" %offsets_16, %n_elements : i32 loc(#loc23)\n    %x = llvm.getelementptr %x_ptr[%offsets_16] : (!llvm.ptr<1>, i32) -> !llvm.ptr<1>, f32 loc(#loc24)\n    %x_17 = llvm.inline_asm has_side_effects asm_dialect = att operand_attrs = [] \"mov.u32 $0, 0x0;\\0A\\09@$2 ld.global.b32 { $0 }, [ $1 + 0 ];\", \"=r,l,b\" %x, %mask : (!llvm.ptr<1>, i1) -> i32 loc(#loc25)\n    %x_18 = llvm.bitcast %x_17 : i32 to vector<1xf32> loc(#loc25)\n    %x_19 = llvm.extractelement %x_18[%4 : i32] : vector<1xf32> loc(#loc25)\n    %y = llvm.getelementptr %y_ptr[%offsets_16] : (!llvm.ptr<1>, i32) -> !llvm.ptr<1>, f32 loc(#loc26)\n    %y_20 = llvm.inline_asm has_side_effects asm_dialect = att operand_attrs = [] \"mov.u32 $0, 0x0;\\0A\\09@$2 ld.global.b32 { $0 }, [ $1 + 0 ];\", \"=r,l,b\" %y, %mask : (!llvm.ptr<1>, i1) -> i32 loc(#loc27)\n    %y_21 = llvm.bitcast %y_20 : i32 to vector<1xf32> loc(#loc27)\n    %y_22 = llvm.extractelement %y_21[%4 : i32] : vector<1xf32> loc(#loc27)\n    %output = llvm.fadd %x_19, %y_22 : f32 loc(#loc28)\n    %6 = llvm.getelementptr %output_ptr[%offsets_16] : (!llvm.ptr<1>, i32) -> !llvm.ptr<1>, f32 loc(#loc13)\n    %7 = llvm.and %offsets_4, %1 : i32 loc(#loc1)\n    %8 = llvm.icmp \"eq\" %7, %2 : i32 loc(#loc1)\n    %9 = llvm.insertelement %output, %0[%2 : i32] : vector<1xf32> loc(#loc1)\n    %10 = llvm.bitcast %9 : vector<1xf32> to i32 loc(#loc1)\n    %11 = llvm.and %8, %mask : i1 loc(#loc1)\n    %12 = llvm.inline_asm has_side_effects asm_dialect = att operand_attrs = [] \"@$2 st.global.b32 [ $1 + 0 ], { $0 };\", \"r,l,b\" %10, %6, %11 : (i32, !llvm.ptr<1>, i1) -> !llvm.void loc(#loc1)\n    llvm.return loc(#loc14)\n  } loc(#loc)\n} loc(#loc)\n#loc1 = loc(\"/root/superlensai/sensitivity_study/perturbed_BLOCK_SIZE_32.py\":29:35)\n#loc2 = loc(\"/root/superlensai/sensitivity_study/perturbed_BLOCK_SIZE_32.py\":21:41)\n#loc3 = loc(unknown)\n#loc4 = loc(\"/root/superlensai/sensitivity_study/perturbed_BLOCK_SIZE_32.py\":15:24)\n#loc5 = loc(\"/root/superlensai/sensitivity_study/perturbed_BLOCK_SIZE_32.py\":20:24)\n#loc6 = loc(\"/root/superlensai/sensitivity_study/perturbed_BLOCK_SIZE_32.py\":21:28)\n#loc7 = loc(\"/root/superlensai/sensitivity_study/perturbed_BLOCK_SIZE_32.py\":23:21)\n#loc8 = loc(\"/root/superlensai/sensitivity_study/perturbed_BLOCK_SIZE_32.py\":25:24)\n#loc9 = loc(\"/root/superlensai/sensitivity_study/perturbed_BLOCK_SIZE_32.py\":25:16)\n#loc10 = loc(\"/root/superlensai/sensitivity_study/perturbed_BLOCK_SIZE_32.py\":26:24)\n#loc11 = loc(\"/root/superlensai/sensitivity_study/perturbed_BLOCK_SIZE_32.py\":26:16)\n#loc12 = loc(\"/root/superlensai/sensitivity_study/perturbed_BLOCK_SIZE_32.py\":27:17)\n#loc13 = loc(\"/root/superlensai/sensitivity_study/perturbed_BLOCK_SIZE_32.py\":29:26)\n#loc14 = loc(\"/root/superlensai/sensitivity_study/perturbed_BLOCK_SIZE_32.py\":29:4)\n#loc19 = loc(\"offsets\"(#loc2))\n#loc20 = loc(\"pid\"(#loc4))\n#loc21 = loc(\"block_start\"(#loc5))\n#loc22 = loc(\"offsets\"(#loc6))\n#loc23 = loc(\"mask\"(#loc7))\n#loc24 = loc(\"x\"(#loc8))\n#loc25 = loc(\"x\"(#loc9))\n#loc26 = loc(\"y\"(#loc10))\n#loc27 = loc(\"y\"(#loc11))\n#loc28 = loc(\"output\"(#loc12))"
  },
  {
    "type": "Before",
    "pass_desc": "ReconcileUnrealizedCastsPass",
    "pass_id": "reconcile-unrealized-casts",
    "op_type": "builtin.module",
    "ir": "#loc = loc(\"/root/superlensai/sensitivity_study/perturbed_BLOCK_SIZE_32.py\":6:0)\n#loc15 = loc(\"x_ptr\"(#loc))\n#loc16 = loc(\"y_ptr\"(#loc))\n#loc17 = loc(\"output_ptr\"(#loc))\n#loc18 = loc(\"n_elements\"(#loc))\nmodule attributes {ttg.global_scratch_memory_alignment = 1 : i32, ttg.global_scratch_memory_size = 0 : i32, \"ttg.num-ctas\" = 1 : i32, \"ttg.num-warps\" = 4 : i32, ttg.shared = 0 : i32, ttg.target = \"cuda:75\", ttg.tensor_memory_size = 0 : i32, \"ttg.threads-per-warp\" = 32 : i32, \"ttg.total-num-warps\" = 4 : i32, \"ttng.two-ctas\" = false} {\n  llvm.mlir.global external @global_smem() {addr_space = 3 : i32, alignment = 16 : i64} : !llvm.array<0 x i8> loc(#loc)\n  llvm.func @vector_add_kernel(%x_ptr: !llvm.ptr<1> {tt.divisibility = 16 : i32} loc(\"x_ptr\"(#loc)), %y_ptr: !llvm.ptr<1> {tt.divisibility = 16 : i32} loc(\"y_ptr\"(#loc)), %output_ptr: !llvm.ptr<1> {tt.divisibility = 16 : i32} loc(\"output_ptr\"(#loc)), %n_elements: i32 {tt.divisibility = 16 : i32} loc(\"n_elements\"(#loc)), %arg4: !llvm.ptr<1> loc(\"/root/superlensai/sensitivity_study/perturbed_BLOCK_SIZE_32.py\":6:0), %arg5: !llvm.ptr<1> loc(\"/root/superlensai/sensitivity_study/perturbed_BLOCK_SIZE_32.py\":6:0)) attributes {noinline = false, nvvm.kernel = 1 : ui1, nvvm.reqntid = array<i32: 128>, ttg.global_scratch_memory_alignment = 1 : i32, ttg.global_scratch_memory_size = 0 : i32} {\n    %0 = llvm.mlir.undef : vector<1xf32> loc(#loc1)\n    %1 = llvm.mlir.constant(3 : i32) : i32 loc(#loc1)\n    %offsets = llvm.mlir.constant(31 : i32) : i32 loc(#loc19)\n    %offsets_0 = llvm.mlir.constant(5 : i32) : i32 loc(#loc19)\n    %2 = llvm.mlir.constant(0 : i32) : i32 loc(#loc3)\n    %3 = llvm.mlir.constant(127 : i32) : i32 loc(#loc3)\n    %4 = llvm.mlir.constant(0 : index) : i32 loc(#loc3)\n    %5 = llvm.mlir.constant(32 : i32) : i32 loc(#loc3)\n    %pid = nvvm.read.ptx.sreg.ctaid.x : i32 loc(#loc20)\n    %block_start = llvm.mul %pid, %5 : i32 loc(#loc21)\n    %offsets_1 = nvvm.read.ptx.sreg.tid.x : i32 loc(#loc19)\n    %offsets_2 = llvm.and %offsets_1, %3 : i32 loc(#loc19)\n    %offsets_3 = llvm.urem %offsets_2, %5 : i32 loc(#loc19)\n    %offsets_4 = llvm.udiv %offsets_2, %5 : i32 loc(#loc19)\n    %offsets_5 = llvm.shl %offsets_3, %2 : i32 loc(#loc19)\n    %offsets_6 = llvm.or %2, %offsets_5 : i32 loc(#loc19)\n    %offsets_7 = llvm.shl %offsets_4, %offsets_0 : i32 loc(#loc19)\n    %offsets_8 = llvm.or %offsets_6, %offsets_7 : i32 loc(#loc19)\n    %offsets_9 = llvm.or %offsets_8, %2 : i32 loc(#loc19)\n    %offsets_10 = llvm.and %offsets_9, %offsets : i32 loc(#loc19)\n    %offsets_11 = llvm.lshr %offsets_10, %2 : i32 loc(#loc19)\n    %offsets_12 = llvm.or disjoint %offsets_11, %2 : i32 loc(#loc19)\n    %offsets_13 = llvm.xor %2, %offsets_12 : i32 loc(#loc19)\n    %offsets_14 = llvm.xor %offsets_13, %2 : i32 loc(#loc19)\n    %offsets_15 = llvm.add %offsets_14, %4 : i32 loc(#loc19)\n    %offsets_16 = llvm.add %block_start, %offsets_15 : i32 loc(#loc22)\n    %mask = llvm.icmp \"slt\" %offsets_16, %n_elements : i32 loc(#loc23)\n    %x = llvm.getelementptr %x_ptr[%offsets_16] : (!llvm.ptr<1>, i32) -> !llvm.ptr<1>, f32 loc(#loc24)\n    %x_17 = llvm.inline_asm has_side_effects asm_dialect = att operand_attrs = [] \"mov.u32 $0, 0x0;\\0A\\09@$2 ld.global.b32 { $0 }, [ $1 + 0 ];\", \"=r,l,b\" %x, %mask : (!llvm.ptr<1>, i1) -> i32 loc(#loc25)\n    %x_18 = llvm.bitcast %x_17 : i32 to vector<1xf32> loc(#loc25)\n    %x_19 = llvm.extractelement %x_18[%4 : i32] : vector<1xf32> loc(#loc25)\n    %y = llvm.getelementptr %y_ptr[%offsets_16] : (!llvm.ptr<1>, i32) -> !llvm.ptr<1>, f32 loc(#loc26)\n    %y_20 = llvm.inline_asm has_side_effects asm_dialect = att operand_attrs = [] \"mov.u32 $0, 0x0;\\0A\\09@$2 ld.global.b32 { $0 }, [ $1 + 0 ];\", \"=r,l,b\" %y, %mask : (!llvm.ptr<1>, i1) -> i32 loc(#loc27)\n    %y_21 = llvm.bitcast %y_20 : i32 to vector<1xf32> loc(#loc27)\n    %y_22 = llvm.extractelement %y_21[%4 : i32] : vector<1xf32> loc(#loc27)\n    %output = llvm.fadd %x_19, %y_22 : f32 loc(#loc28)\n    %6 = llvm.getelementptr %output_ptr[%offsets_16] : (!llvm.ptr<1>, i32) -> !llvm.ptr<1>, f32 loc(#loc13)\n    %7 = llvm.and %offsets_4, %1 : i32 loc(#loc1)\n    %8 = llvm.icmp \"eq\" %7, %2 : i32 loc(#loc1)\n    %9 = llvm.insertelement %output, %0[%2 : i32] : vector<1xf32> loc(#loc1)\n    %10 = llvm.bitcast %9 : vector<1xf32> to i32 loc(#loc1)\n    %11 = llvm.and %8, %mask : i1 loc(#loc1)\n    %12 = llvm.inline_asm has_side_effects asm_dialect = att operand_attrs = [] \"@$2 st.global.b32 [ $1 + 0 ], { $0 };\", \"r,l,b\" %10, %6, %11 : (i32, !llvm.ptr<1>, i1) -> !llvm.void loc(#loc1)\n    llvm.return loc(#loc14)\n  } loc(#loc)\n} loc(#loc)\n#loc1 = loc(\"/root/superlensai/sensitivity_study/perturbed_BLOCK_SIZE_32.py\":29:35)\n#loc2 = loc(\"/root/superlensai/sensitivity_study/perturbed_BLOCK_SIZE_32.py\":21:41)\n#loc3 = loc(unknown)\n#loc4 = loc(\"/root/superlensai/sensitivity_study/perturbed_BLOCK_SIZE_32.py\":15:24)\n#loc5 = loc(\"/root/superlensai/sensitivity_study/perturbed_BLOCK_SIZE_32.py\":20:24)\n#loc6 = loc(\"/root/superlensai/sensitivity_study/perturbed_BLOCK_SIZE_32.py\":21:28)\n#loc7 = loc(\"/root/superlensai/sensitivity_study/perturbed_BLOCK_SIZE_32.py\":23:21)\n#loc8 = loc(\"/root/superlensai/sensitivity_study/perturbed_BLOCK_SIZE_32.py\":25:24)\n#loc9 = loc(\"/root/superlensai/sensitivity_study/perturbed_BLOCK_SIZE_32.py\":25:16)\n#loc10 = loc(\"/root/superlensai/sensitivity_study/perturbed_BLOCK_SIZE_32.py\":26:24)\n#loc11 = loc(\"/root/superlensai/sensitivity_study/perturbed_BLOCK_SIZE_32.py\":26:16)\n#loc12 = loc(\"/root/superlensai/sensitivity_study/perturbed_BLOCK_SIZE_32.py\":27:17)\n#loc13 = loc(\"/root/superlensai/sensitivity_study/perturbed_BLOCK_SIZE_32.py\":29:26)\n#loc14 = loc(\"/root/superlensai/sensitivity_study/perturbed_BLOCK_SIZE_32.py\":29:4)\n#loc19 = loc(\"offsets\"(#loc2))\n#loc20 = loc(\"pid\"(#loc4))\n#loc21 = loc(\"block_start\"(#loc5))\n#loc22 = loc(\"offsets\"(#loc6))\n#loc23 = loc(\"mask\"(#loc7))\n#loc24 = loc(\"x\"(#loc8))\n#loc25 = loc(\"x\"(#loc9))\n#loc26 = loc(\"y\"(#loc10))\n#loc27 = loc(\"y\"(#loc11))\n#loc28 = loc(\"output\"(#loc12))"
  },
  {
    "type": "Before",
    "pass_desc": "Canonicalizer",
    "pass_id": "canonicalize",
    "op_type": "builtin.module",
    "ir": "#loc = loc(\"/root/superlensai/sensitivity_study/perturbed_BLOCK_SIZE_32.py\":6:0)\n#loc15 = loc(\"x_ptr\"(#loc))\n#loc16 = loc(\"y_ptr\"(#loc))\n#loc17 = loc(\"output_ptr\"(#loc))\n#loc18 = loc(\"n_elements\"(#loc))\nmodule attributes {ttg.global_scratch_memory_alignment = 1 : i32, ttg.global_scratch_memory_size = 0 : i32, \"ttg.num-ctas\" = 1 : i32, \"ttg.num-warps\" = 4 : i32, ttg.shared = 0 : i32, ttg.target = \"cuda:75\", ttg.tensor_memory_size = 0 : i32, \"ttg.threads-per-warp\" = 32 : i32, \"ttg.total-num-warps\" = 4 : i32, \"ttng.two-ctas\" = false} {\n  llvm.mlir.global external @global_smem() {addr_space = 3 : i32, alignment = 16 : i64} : !llvm.array<0 x i8> loc(#loc)\n  llvm.func @vector_add_kernel(%x_ptr: !llvm.ptr<1> {tt.divisibility = 16 : i32} loc(\"x_ptr\"(#loc)), %y_ptr: !llvm.ptr<1> {tt.divisibility = 16 : i32} loc(\"y_ptr\"(#loc)), %output_ptr: !llvm.ptr<1> {tt.divisibility = 16 : i32} loc(\"output_ptr\"(#loc)), %n_elements: i32 {tt.divisibility = 16 : i32} loc(\"n_elements\"(#loc)), %arg4: !llvm.ptr<1> loc(\"/root/superlensai/sensitivity_study/perturbed_BLOCK_SIZE_32.py\":6:0), %arg5: !llvm.ptr<1> loc(\"/root/superlensai/sensitivity_study/perturbed_BLOCK_SIZE_32.py\":6:0)) attributes {noinline = false, nvvm.kernel = 1 : ui1, nvvm.reqntid = array<i32: 128>, ttg.global_scratch_memory_alignment = 1 : i32, ttg.global_scratch_memory_size = 0 : i32} {\n    %0 = llvm.mlir.undef : vector<1xf32> loc(#loc1)\n    %1 = llvm.mlir.constant(3 : i32) : i32 loc(#loc1)\n    %offsets = llvm.mlir.constant(31 : i32) : i32 loc(#loc19)\n    %offsets_0 = llvm.mlir.constant(5 : i32) : i32 loc(#loc19)\n    %2 = llvm.mlir.constant(0 : i32) : i32 loc(#loc3)\n    %3 = llvm.mlir.constant(127 : i32) : i32 loc(#loc3)\n    %4 = llvm.mlir.constant(0 : index) : i32 loc(#loc3)\n    %5 = llvm.mlir.constant(32 : i32) : i32 loc(#loc3)\n    %pid = nvvm.read.ptx.sreg.ctaid.x : i32 loc(#loc20)\n    %block_start = llvm.mul %pid, %5 : i32 loc(#loc21)\n    %offsets_1 = nvvm.read.ptx.sreg.tid.x : i32 loc(#loc19)\n    %offsets_2 = llvm.and %offsets_1, %3 : i32 loc(#loc19)\n    %offsets_3 = llvm.urem %offsets_2, %5 : i32 loc(#loc19)\n    %offsets_4 = llvm.udiv %offsets_2, %5 : i32 loc(#loc19)\n    %offsets_5 = llvm.shl %offsets_3, %2 : i32 loc(#loc19)\n    %offsets_6 = llvm.or %2, %offsets_5 : i32 loc(#loc19)\n    %offsets_7 = llvm.shl %offsets_4, %offsets_0 : i32 loc(#loc19)\n    %offsets_8 = llvm.or %offsets_6, %offsets_7 : i32 loc(#loc19)\n    %offsets_9 = llvm.or %offsets_8, %2 : i32 loc(#loc19)\n    %offsets_10 = llvm.and %offsets_9, %offsets : i32 loc(#loc19)\n    %offsets_11 = llvm.lshr %offsets_10, %2 : i32 loc(#loc19)\n    %offsets_12 = llvm.or disjoint %offsets_11, %2 : i32 loc(#loc19)\n    %offsets_13 = llvm.xor %2, %offsets_12 : i32 loc(#loc19)\n    %offsets_14 = llvm.xor %offsets_13, %2 : i32 loc(#loc19)\n    %offsets_15 = llvm.add %offsets_14, %4 : i32 loc(#loc19)\n    %offsets_16 = llvm.add %block_start, %offsets_15 : i32 loc(#loc22)\n    %mask = llvm.icmp \"slt\" %offsets_16, %n_elements : i32 loc(#loc23)\n    %x = llvm.getelementptr %x_ptr[%offsets_16] : (!llvm.ptr<1>, i32) -> !llvm.ptr<1>, f32 loc(#loc24)\n    %x_17 = llvm.inline_asm has_side_effects asm_dialect = att operand_attrs = [] \"mov.u32 $0, 0x0;\\0A\\09@$2 ld.global.b32 { $0 }, [ $1 + 0 ];\", \"=r,l,b\" %x, %mask : (!llvm.ptr<1>, i1) -> i32 loc(#loc25)\n    %x_18 = llvm.bitcast %x_17 : i32 to vector<1xf32> loc(#loc25)\n    %x_19 = llvm.extractelement %x_18[%4 : i32] : vector<1xf32> loc(#loc25)\n    %y = llvm.getelementptr %y_ptr[%offsets_16] : (!llvm.ptr<1>, i32) -> !llvm.ptr<1>, f32 loc(#loc26)\n    %y_20 = llvm.inline_asm has_side_effects asm_dialect = att operand_attrs = [] \"mov.u32 $0, 0x0;\\0A\\09@$2 ld.global.b32 { $0 }, [ $1 + 0 ];\", \"=r,l,b\" %y, %mask : (!llvm.ptr<1>, i1) -> i32 loc(#loc27)\n    %y_21 = llvm.bitcast %y_20 : i32 to vector<1xf32> loc(#loc27)\n    %y_22 = llvm.extractelement %y_21[%4 : i32] : vector<1xf32> loc(#loc27)\n    %output = llvm.fadd %x_19, %y_22 : f32 loc(#loc28)\n    %6 = llvm.getelementptr %output_ptr[%offsets_16] : (!llvm.ptr<1>, i32) -> !llvm.ptr<1>, f32 loc(#loc13)\n    %7 = llvm.and %offsets_4, %1 : i32 loc(#loc1)\n    %8 = llvm.icmp \"eq\" %7, %2 : i32 loc(#loc1)\n    %9 = llvm.insertelement %output, %0[%2 : i32] : vector<1xf32> loc(#loc1)\n    %10 = llvm.bitcast %9 : vector<1xf32> to i32 loc(#loc1)\n    %11 = llvm.and %8, %mask : i1 loc(#loc1)\n    %12 = llvm.inline_asm has_side_effects asm_dialect = att operand_attrs = [] \"@$2 st.global.b32 [ $1 + 0 ], { $0 };\", \"r,l,b\" %10, %6, %11 : (i32, !llvm.ptr<1>, i1) -> !llvm.void loc(#loc1)\n    llvm.return loc(#loc14)\n  } loc(#loc)\n} loc(#loc)\n#loc1 = loc(\"/root/superlensai/sensitivity_study/perturbed_BLOCK_SIZE_32.py\":29:35)\n#loc2 = loc(\"/root/superlensai/sensitivity_study/perturbed_BLOCK_SIZE_32.py\":21:41)\n#loc3 = loc(unknown)\n#loc4 = loc(\"/root/superlensai/sensitivity_study/perturbed_BLOCK_SIZE_32.py\":15:24)\n#loc5 = loc(\"/root/superlensai/sensitivity_study/perturbed_BLOCK_SIZE_32.py\":20:24)\n#loc6 = loc(\"/root/superlensai/sensitivity_study/perturbed_BLOCK_SIZE_32.py\":21:28)\n#loc7 = loc(\"/root/superlensai/sensitivity_study/perturbed_BLOCK_SIZE_32.py\":23:21)\n#loc8 = loc(\"/root/superlensai/sensitivity_study/perturbed_BLOCK_SIZE_32.py\":25:24)\n#loc9 = loc(\"/root/superlensai/sensitivity_study/perturbed_BLOCK_SIZE_32.py\":25:16)\n#loc10 = loc(\"/root/superlensai/sensitivity_study/perturbed_BLOCK_SIZE_32.py\":26:24)\n#loc11 = loc(\"/root/superlensai/sensitivity_study/perturbed_BLOCK_SIZE_32.py\":26:16)\n#loc12 = loc(\"/root/superlensai/sensitivity_study/perturbed_BLOCK_SIZE_32.py\":27:17)\n#loc13 = loc(\"/root/superlensai/sensitivity_study/perturbed_BLOCK_SIZE_32.py\":29:26)\n#loc14 = loc(\"/root/superlensai/sensitivity_study/perturbed_BLOCK_SIZE_32.py\":29:4)\n#loc19 = loc(\"offsets\"(#loc2))\n#loc20 = loc(\"pid\"(#loc4))\n#loc21 = loc(\"block_start\"(#loc5))\n#loc22 = loc(\"offsets\"(#loc6))\n#loc23 = loc(\"mask\"(#loc7))\n#loc24 = loc(\"x\"(#loc8))\n#loc25 = loc(\"x\"(#loc9))\n#loc26 = loc(\"y\"(#loc10))\n#loc27 = loc(\"y\"(#loc11))\n#loc28 = loc(\"output\"(#loc12))"
  },
  {
    "type": "Before",
    "pass_desc": "CSE",
    "pass_id": "cse",
    "op_type": "builtin.module",
    "ir": "#loc = loc(\"/root/superlensai/sensitivity_study/perturbed_BLOCK_SIZE_32.py\":6:0)\n#loc15 = loc(\"x_ptr\"(#loc))\n#loc16 = loc(\"y_ptr\"(#loc))\n#loc17 = loc(\"output_ptr\"(#loc))\n#loc18 = loc(\"n_elements\"(#loc))\nmodule attributes {ttg.global_scratch_memory_alignment = 1 : i32, ttg.global_scratch_memory_size = 0 : i32, \"ttg.num-ctas\" = 1 : i32, \"ttg.num-warps\" = 4 : i32, ttg.shared = 0 : i32, ttg.target = \"cuda:75\", ttg.tensor_memory_size = 0 : i32, \"ttg.threads-per-warp\" = 32 : i32, \"ttg.total-num-warps\" = 4 : i32, \"ttng.two-ctas\" = false} {\n  llvm.mlir.global external @global_smem() {addr_space = 3 : i32, alignment = 16 : i64} : !llvm.array<0 x i8> loc(#loc)\n  llvm.func @vector_add_kernel(%x_ptr: !llvm.ptr<1> {tt.divisibility = 16 : i32} loc(\"x_ptr\"(#loc)), %y_ptr: !llvm.ptr<1> {tt.divisibility = 16 : i32} loc(\"y_ptr\"(#loc)), %output_ptr: !llvm.ptr<1> {tt.divisibility = 16 : i32} loc(\"output_ptr\"(#loc)), %n_elements: i32 {tt.divisibility = 16 : i32} loc(\"n_elements\"(#loc)), %arg4: !llvm.ptr<1> loc(\"/root/superlensai/sensitivity_study/perturbed_BLOCK_SIZE_32.py\":6:0), %arg5: !llvm.ptr<1> loc(\"/root/superlensai/sensitivity_study/perturbed_BLOCK_SIZE_32.py\":6:0)) attributes {noinline = false, nvvm.kernel = 1 : ui1, nvvm.reqntid = array<i32: 128>, ttg.global_scratch_memory_alignment = 1 : i32, ttg.global_scratch_memory_size = 0 : i32} {\n    %0 = llvm.mlir.undef : vector<1xf32> loc(#loc1)\n    %1 = llvm.mlir.constant(3 : i32) : i32 loc(#loc1)\n    %offsets = llvm.mlir.constant(31 : i32) : i32 loc(#loc19)\n    %offsets_0 = llvm.mlir.constant(5 : i32) : i32 loc(#loc19)\n    %2 = llvm.mlir.constant(0 : i32) : i32 loc(#loc3)\n    %3 = llvm.mlir.constant(127 : i32) : i32 loc(#loc3)\n    %4 = llvm.mlir.constant(0 : index) : i32 loc(#loc3)\n    %5 = llvm.mlir.constant(32 : i32) : i32 loc(#loc3)\n    %pid = nvvm.read.ptx.sreg.ctaid.x : i32 loc(#loc20)\n    %block_start = llvm.mul %pid, %5 : i32 loc(#loc21)\n    %offsets_1 = nvvm.read.ptx.sreg.tid.x : i32 loc(#loc19)\n    %offsets_2 = llvm.and %offsets_1, %3 : i32 loc(#loc19)\n    %offsets_3 = llvm.urem %offsets_2, %5 : i32 loc(#loc19)\n    %offsets_4 = llvm.udiv %offsets_2, %5 : i32 loc(#loc19)\n    %offsets_5 = llvm.shl %offsets_3, %2 : i32 loc(#loc19)\n    %offsets_6 = llvm.or %2, %offsets_5 : i32 loc(#loc19)\n    %offsets_7 = llvm.shl %offsets_4, %offsets_0 : i32 loc(#loc19)\n    %offsets_8 = llvm.or %offsets_6, %offsets_7 : i32 loc(#loc19)\n    %offsets_9 = llvm.or %offsets_8, %2 : i32 loc(#loc19)\n    %offsets_10 = llvm.and %offsets_9, %offsets : i32 loc(#loc19)\n    %offsets_11 = llvm.lshr %offsets_10, %2 : i32 loc(#loc19)\n    %offsets_12 = llvm.or disjoint %offsets_11, %2 : i32 loc(#loc19)\n    %offsets_13 = llvm.xor %2, %offsets_12 : i32 loc(#loc19)\n    %offsets_14 = llvm.xor %offsets_13, %2 : i32 loc(#loc19)\n    %offsets_15 = llvm.add %offsets_14, %4 : i32 loc(#loc19)\n    %offsets_16 = llvm.add %block_start, %offsets_15 : i32 loc(#loc22)\n    %mask = llvm.icmp \"slt\" %offsets_16, %n_elements : i32 loc(#loc23)\n    %x = llvm.getelementptr %x_ptr[%offsets_16] : (!llvm.ptr<1>, i32) -> !llvm.ptr<1>, f32 loc(#loc24)\n    %x_17 = llvm.inline_asm has_side_effects asm_dialect = att operand_attrs = [] \"mov.u32 $0, 0x0;\\0A\\09@$2 ld.global.b32 { $0 }, [ $1 + 0 ];\", \"=r,l,b\" %x, %mask : (!llvm.ptr<1>, i1) -> i32 loc(#loc25)\n    %x_18 = llvm.bitcast %x_17 : i32 to vector<1xf32> loc(#loc25)\n    %x_19 = llvm.extractelement %x_18[%4 : i32] : vector<1xf32> loc(#loc25)\n    %y = llvm.getelementptr %y_ptr[%offsets_16] : (!llvm.ptr<1>, i32) -> !llvm.ptr<1>, f32 loc(#loc26)\n    %y_20 = llvm.inline_asm has_side_effects asm_dialect = att operand_attrs = [] \"mov.u32 $0, 0x0;\\0A\\09@$2 ld.global.b32 { $0 }, [ $1 + 0 ];\", \"=r,l,b\" %y, %mask : (!llvm.ptr<1>, i1) -> i32 loc(#loc27)\n    %y_21 = llvm.bitcast %y_20 : i32 to vector<1xf32> loc(#loc27)\n    %y_22 = llvm.extractelement %y_21[%4 : i32] : vector<1xf32> loc(#loc27)\n    %output = llvm.fadd %x_19, %y_22 : f32 loc(#loc28)\n    %6 = llvm.getelementptr %output_ptr[%offsets_16] : (!llvm.ptr<1>, i32) -> !llvm.ptr<1>, f32 loc(#loc13)\n    %7 = llvm.and %offsets_4, %1 : i32 loc(#loc1)\n    %8 = llvm.icmp \"eq\" %7, %2 : i32 loc(#loc1)\n    %9 = llvm.insertelement %output, %0[%2 : i32] : vector<1xf32> loc(#loc1)\n    %10 = llvm.bitcast %9 : vector<1xf32> to i32 loc(#loc1)\n    %11 = llvm.and %8, %mask : i1 loc(#loc1)\n    %12 = llvm.inline_asm has_side_effects asm_dialect = att operand_attrs = [] \"@$2 st.global.b32 [ $1 + 0 ], { $0 };\", \"r,l,b\" %10, %6, %11 : (i32, !llvm.ptr<1>, i1) -> !llvm.void loc(#loc1)\n    llvm.return loc(#loc14)\n  } loc(#loc)\n} loc(#loc)\n#loc1 = loc(\"/root/superlensai/sensitivity_study/perturbed_BLOCK_SIZE_32.py\":29:35)\n#loc2 = loc(\"/root/superlensai/sensitivity_study/perturbed_BLOCK_SIZE_32.py\":21:41)\n#loc3 = loc(unknown)\n#loc4 = loc(\"/root/superlensai/sensitivity_study/perturbed_BLOCK_SIZE_32.py\":15:24)\n#loc5 = loc(\"/root/superlensai/sensitivity_study/perturbed_BLOCK_SIZE_32.py\":20:24)\n#loc6 = loc(\"/root/superlensai/sensitivity_study/perturbed_BLOCK_SIZE_32.py\":21:28)\n#loc7 = loc(\"/root/superlensai/sensitivity_study/perturbed_BLOCK_SIZE_32.py\":23:21)\n#loc8 = loc(\"/root/superlensai/sensitivity_study/perturbed_BLOCK_SIZE_32.py\":25:24)\n#loc9 = loc(\"/root/superlensai/sensitivity_study/perturbed_BLOCK_SIZE_32.py\":25:16)\n#loc10 = loc(\"/root/superlensai/sensitivity_study/perturbed_BLOCK_SIZE_32.py\":26:24)\n#loc11 = loc(\"/root/superlensai/sensitivity_study/perturbed_BLOCK_SIZE_32.py\":26:16)\n#loc12 = loc(\"/root/superlensai/sensitivity_study/perturbed_BLOCK_SIZE_32.py\":27:17)\n#loc13 = loc(\"/root/superlensai/sensitivity_study/perturbed_BLOCK_SIZE_32.py\":29:26)\n#loc14 = loc(\"/root/superlensai/sensitivity_study/perturbed_BLOCK_SIZE_32.py\":29:4)\n#loc19 = loc(\"offsets\"(#loc2))\n#loc20 = loc(\"pid\"(#loc4))\n#loc21 = loc(\"block_start\"(#loc5))\n#loc22 = loc(\"offsets\"(#loc6))\n#loc23 = loc(\"mask\"(#loc7))\n#loc24 = loc(\"x\"(#loc8))\n#loc25 = loc(\"x\"(#loc9))\n#loc26 = loc(\"y\"(#loc10))\n#loc27 = loc(\"y\"(#loc11))\n#loc28 = loc(\"output\"(#loc12))"
  },
  {
    "type": "Before",
    "pass_desc": "SymbolDCE",
    "pass_id": "symbol-dce",
    "op_type": "builtin.module",
    "ir": "#loc = loc(\"/root/superlensai/sensitivity_study/perturbed_BLOCK_SIZE_32.py\":6:0)\n#loc15 = loc(\"x_ptr\"(#loc))\n#loc16 = loc(\"y_ptr\"(#loc))\n#loc17 = loc(\"output_ptr\"(#loc))\n#loc18 = loc(\"n_elements\"(#loc))\nmodule attributes {ttg.global_scratch_memory_alignment = 1 : i32, ttg.global_scratch_memory_size = 0 : i32, \"ttg.num-ctas\" = 1 : i32, \"ttg.num-warps\" = 4 : i32, ttg.shared = 0 : i32, ttg.target = \"cuda:75\", ttg.tensor_memory_size = 0 : i32, \"ttg.threads-per-warp\" = 32 : i32, \"ttg.total-num-warps\" = 4 : i32, \"ttng.two-ctas\" = false} {\n  llvm.mlir.global external @global_smem() {addr_space = 3 : i32, alignment = 16 : i64} : !llvm.array<0 x i8> loc(#loc)\n  llvm.func @vector_add_kernel(%x_ptr: !llvm.ptr<1> {tt.divisibility = 16 : i32} loc(\"x_ptr\"(#loc)), %y_ptr: !llvm.ptr<1> {tt.divisibility = 16 : i32} loc(\"y_ptr\"(#loc)), %output_ptr: !llvm.ptr<1> {tt.divisibility = 16 : i32} loc(\"output_ptr\"(#loc)), %n_elements: i32 {tt.divisibility = 16 : i32} loc(\"n_elements\"(#loc)), %arg4: !llvm.ptr<1> loc(\"/root/superlensai/sensitivity_study/perturbed_BLOCK_SIZE_32.py\":6:0), %arg5: !llvm.ptr<1> loc(\"/root/superlensai/sensitivity_study/perturbed_BLOCK_SIZE_32.py\":6:0)) attributes {noinline = false, nvvm.kernel = 1 : ui1, nvvm.reqntid = array<i32: 128>, ttg.global_scratch_memory_alignment = 1 : i32, ttg.global_scratch_memory_size = 0 : i32} {\n    %0 = llvm.mlir.undef : vector<1xf32> loc(#loc1)\n    %1 = llvm.mlir.constant(3 : i32) : i32 loc(#loc1)\n    %offsets = llvm.mlir.constant(31 : i32) : i32 loc(#loc19)\n    %offsets_0 = llvm.mlir.constant(5 : i32) : i32 loc(#loc19)\n    %2 = llvm.mlir.constant(0 : i32) : i32 loc(#loc3)\n    %3 = llvm.mlir.constant(127 : i32) : i32 loc(#loc3)\n    %4 = llvm.mlir.constant(0 : index) : i32 loc(#loc3)\n    %5 = llvm.mlir.constant(32 : i32) : i32 loc(#loc3)\n    %pid = nvvm.read.ptx.sreg.ctaid.x : i32 loc(#loc20)\n    %block_start = llvm.mul %pid, %5 : i32 loc(#loc21)\n    %offsets_1 = nvvm.read.ptx.sreg.tid.x : i32 loc(#loc19)\n    %offsets_2 = llvm.and %offsets_1, %3 : i32 loc(#loc19)\n    %offsets_3 = llvm.urem %offsets_2, %5 : i32 loc(#loc19)\n    %offsets_4 = llvm.udiv %offsets_2, %5 : i32 loc(#loc19)\n    %offsets_5 = llvm.shl %offsets_3, %2 : i32 loc(#loc19)\n    %offsets_6 = llvm.or %2, %offsets_5 : i32 loc(#loc19)\n    %offsets_7 = llvm.shl %offsets_4, %offsets_0 : i32 loc(#loc19)\n    %offsets_8 = llvm.or %offsets_6, %offsets_7 : i32 loc(#loc19)\n    %offsets_9 = llvm.or %offsets_8, %2 : i32 loc(#loc19)\n    %offsets_10 = llvm.and %offsets_9, %offsets : i32 loc(#loc19)\n    %offsets_11 = llvm.lshr %offsets_10, %2 : i32 loc(#loc19)\n    %offsets_12 = llvm.or disjoint %offsets_11, %2 : i32 loc(#loc19)\n    %offsets_13 = llvm.xor %2, %offsets_12 : i32 loc(#loc19)\n    %offsets_14 = llvm.xor %offsets_13, %2 : i32 loc(#loc19)\n    %offsets_15 = llvm.add %offsets_14, %4 : i32 loc(#loc19)\n    %offsets_16 = llvm.add %block_start, %offsets_15 : i32 loc(#loc22)\n    %mask = llvm.icmp \"slt\" %offsets_16, %n_elements : i32 loc(#loc23)\n    %x = llvm.getelementptr %x_ptr[%offsets_16] : (!llvm.ptr<1>, i32) -> !llvm.ptr<1>, f32 loc(#loc24)\n    %x_17 = llvm.inline_asm has_side_effects asm_dialect = att operand_attrs = [] \"mov.u32 $0, 0x0;\\0A\\09@$2 ld.global.b32 { $0 }, [ $1 + 0 ];\", \"=r,l,b\" %x, %mask : (!llvm.ptr<1>, i1) -> i32 loc(#loc25)\n    %x_18 = llvm.bitcast %x_17 : i32 to vector<1xf32> loc(#loc25)\n    %x_19 = llvm.extractelement %x_18[%4 : i32] : vector<1xf32> loc(#loc25)\n    %y = llvm.getelementptr %y_ptr[%offsets_16] : (!llvm.ptr<1>, i32) -> !llvm.ptr<1>, f32 loc(#loc26)\n    %y_20 = llvm.inline_asm has_side_effects asm_dialect = att operand_attrs = [] \"mov.u32 $0, 0x0;\\0A\\09@$2 ld.global.b32 { $0 }, [ $1 + 0 ];\", \"=r,l,b\" %y, %mask : (!llvm.ptr<1>, i1) -> i32 loc(#loc27)\n    %y_21 = llvm.bitcast %y_20 : i32 to vector<1xf32> loc(#loc27)\n    %y_22 = llvm.extractelement %y_21[%4 : i32] : vector<1xf32> loc(#loc27)\n    %output = llvm.fadd %x_19, %y_22 : f32 loc(#loc28)\n    %6 = llvm.getelementptr %output_ptr[%offsets_16] : (!llvm.ptr<1>, i32) -> !llvm.ptr<1>, f32 loc(#loc13)\n    %7 = llvm.and %offsets_4, %1 : i32 loc(#loc1)\n    %8 = llvm.icmp \"eq\" %7, %2 : i32 loc(#loc1)\n    %9 = llvm.insertelement %output, %0[%2 : i32] : vector<1xf32> loc(#loc1)\n    %10 = llvm.bitcast %9 : vector<1xf32> to i32 loc(#loc1)\n    %11 = llvm.and %8, %mask : i1 loc(#loc1)\n    %12 = llvm.inline_asm has_side_effects asm_dialect = att operand_attrs = [] \"@$2 st.global.b32 [ $1 + 0 ], { $0 };\", \"r,l,b\" %10, %6, %11 : (i32, !llvm.ptr<1>, i1) -> !llvm.void loc(#loc1)\n    llvm.return loc(#loc14)\n  } loc(#loc)\n} loc(#loc)\n#loc1 = loc(\"/root/superlensai/sensitivity_study/perturbed_BLOCK_SIZE_32.py\":29:35)\n#loc2 = loc(\"/root/superlensai/sensitivity_study/perturbed_BLOCK_SIZE_32.py\":21:41)\n#loc3 = loc(unknown)\n#loc4 = loc(\"/root/superlensai/sensitivity_study/perturbed_BLOCK_SIZE_32.py\":15:24)\n#loc5 = loc(\"/root/superlensai/sensitivity_study/perturbed_BLOCK_SIZE_32.py\":20:24)\n#loc6 = loc(\"/root/superlensai/sensitivity_study/perturbed_BLOCK_SIZE_32.py\":21:28)\n#loc7 = loc(\"/root/superlensai/sensitivity_study/perturbed_BLOCK_SIZE_32.py\":23:21)\n#loc8 = loc(\"/root/superlensai/sensitivity_study/perturbed_BLOCK_SIZE_32.py\":25:24)\n#loc9 = loc(\"/root/superlensai/sensitivity_study/perturbed_BLOCK_SIZE_32.py\":25:16)\n#loc10 = loc(\"/root/superlensai/sensitivity_study/perturbed_BLOCK_SIZE_32.py\":26:24)\n#loc11 = loc(\"/root/superlensai/sensitivity_study/perturbed_BLOCK_SIZE_32.py\":26:16)\n#loc12 = loc(\"/root/superlensai/sensitivity_study/perturbed_BLOCK_SIZE_32.py\":27:17)\n#loc13 = loc(\"/root/superlensai/sensitivity_study/perturbed_BLOCK_SIZE_32.py\":29:26)\n#loc14 = loc(\"/root/superlensai/sensitivity_study/perturbed_BLOCK_SIZE_32.py\":29:4)\n#loc19 = loc(\"offsets\"(#loc2))\n#loc20 = loc(\"pid\"(#loc4))\n#loc21 = loc(\"block_start\"(#loc5))\n#loc22 = loc(\"offsets\"(#loc6))\n#loc23 = loc(\"mask\"(#loc7))\n#loc24 = loc(\"x\"(#loc8))\n#loc25 = loc(\"x\"(#loc9))\n#loc26 = loc(\"y\"(#loc10))\n#loc27 = loc(\"y\"(#loc11))\n#loc28 = loc(\"output\"(#loc12))"
  },
  {
    "type": "Before",
    "pass_desc": "ConvertNVVMToLLVMPass",
    "pass_id": "convert-nvvm-to-llvm",
    "op_type": "builtin.module",
    "ir": "#loc = loc(\"/root/superlensai/sensitivity_study/perturbed_BLOCK_SIZE_32.py\":6:0)\n#loc15 = loc(\"x_ptr\"(#loc))\n#loc16 = loc(\"y_ptr\"(#loc))\n#loc17 = loc(\"output_ptr\"(#loc))\n#loc18 = loc(\"n_elements\"(#loc))\nmodule attributes {ttg.global_scratch_memory_alignment = 1 : i32, ttg.global_scratch_memory_size = 0 : i32, \"ttg.num-ctas\" = 1 : i32, \"ttg.num-warps\" = 4 : i32, ttg.shared = 0 : i32, ttg.target = \"cuda:75\", ttg.tensor_memory_size = 0 : i32, \"ttg.threads-per-warp\" = 32 : i32, \"ttg.total-num-warps\" = 4 : i32, \"ttng.two-ctas\" = false} {\n  llvm.mlir.global external @global_smem() {addr_space = 3 : i32, alignment = 16 : i64} : !llvm.array<0 x i8> loc(#loc)\n  llvm.func @vector_add_kernel(%x_ptr: !llvm.ptr<1> {tt.divisibility = 16 : i32} loc(\"x_ptr\"(#loc)), %y_ptr: !llvm.ptr<1> {tt.divisibility = 16 : i32} loc(\"y_ptr\"(#loc)), %output_ptr: !llvm.ptr<1> {tt.divisibility = 16 : i32} loc(\"output_ptr\"(#loc)), %n_elements: i32 {tt.divisibility = 16 : i32} loc(\"n_elements\"(#loc)), %arg4: !llvm.ptr<1> loc(\"/root/superlensai/sensitivity_study/perturbed_BLOCK_SIZE_32.py\":6:0), %arg5: !llvm.ptr<1> loc(\"/root/superlensai/sensitivity_study/perturbed_BLOCK_SIZE_32.py\":6:0)) attributes {noinline = false, nvvm.kernel = 1 : ui1, nvvm.reqntid = array<i32: 128>, ttg.global_scratch_memory_alignment = 1 : i32, ttg.global_scratch_memory_size = 0 : i32} {\n    %0 = llvm.mlir.undef : vector<1xf32> loc(#loc1)\n    %1 = llvm.mlir.constant(3 : i32) : i32 loc(#loc1)\n    %offsets = llvm.mlir.constant(31 : i32) : i32 loc(#loc19)\n    %offsets_0 = llvm.mlir.constant(5 : i32) : i32 loc(#loc19)\n    %2 = llvm.mlir.constant(0 : i32) : i32 loc(#loc3)\n    %3 = llvm.mlir.constant(127 : i32) : i32 loc(#loc3)\n    %4 = llvm.mlir.constant(0 : index) : i32 loc(#loc3)\n    %5 = llvm.mlir.constant(32 : i32) : i32 loc(#loc3)\n    %pid = nvvm.read.ptx.sreg.ctaid.x : i32 loc(#loc20)\n    %block_start = llvm.mul %pid, %5 : i32 loc(#loc21)\n    %offsets_1 = nvvm.read.ptx.sreg.tid.x : i32 loc(#loc19)\n    %offsets_2 = llvm.and %offsets_1, %3 : i32 loc(#loc19)\n    %offsets_3 = llvm.urem %offsets_2, %5 : i32 loc(#loc19)\n    %offsets_4 = llvm.udiv %offsets_2, %5 : i32 loc(#loc19)\n    %offsets_5 = llvm.shl %offsets_3, %2 : i32 loc(#loc19)\n    %offsets_6 = llvm.or %2, %offsets_5 : i32 loc(#loc19)\n    %offsets_7 = llvm.shl %offsets_4, %offsets_0 : i32 loc(#loc19)\n    %offsets_8 = llvm.or %offsets_6, %offsets_7 : i32 loc(#loc19)\n    %offsets_9 = llvm.or %offsets_8, %2 : i32 loc(#loc19)\n    %offsets_10 = llvm.and %offsets_9, %offsets : i32 loc(#loc19)\n    %offsets_11 = llvm.lshr %offsets_10, %2 : i32 loc(#loc19)\n    %offsets_12 = llvm.or disjoint %offsets_11, %2 : i32 loc(#loc19)\n    %offsets_13 = llvm.xor %2, %offsets_12 : i32 loc(#loc19)\n    %offsets_14 = llvm.xor %offsets_13, %2 : i32 loc(#loc19)\n    %offsets_15 = llvm.add %offsets_14, %4 : i32 loc(#loc19)\n    %offsets_16 = llvm.add %block_start, %offsets_15 : i32 loc(#loc22)\n    %mask = llvm.icmp \"slt\" %offsets_16, %n_elements : i32 loc(#loc23)\n    %x = llvm.getelementptr %x_ptr[%offsets_16] : (!llvm.ptr<1>, i32) -> !llvm.ptr<1>, f32 loc(#loc24)\n    %x_17 = llvm.inline_asm has_side_effects asm_dialect = att operand_attrs = [] \"mov.u32 $0, 0x0;\\0A\\09@$2 ld.global.b32 { $0 }, [ $1 + 0 ];\", \"=r,l,b\" %x, %mask : (!llvm.ptr<1>, i1) -> i32 loc(#loc25)\n    %x_18 = llvm.bitcast %x_17 : i32 to vector<1xf32> loc(#loc25)\n    %x_19 = llvm.extractelement %x_18[%4 : i32] : vector<1xf32> loc(#loc25)\n    %y = llvm.getelementptr %y_ptr[%offsets_16] : (!llvm.ptr<1>, i32) -> !llvm.ptr<1>, f32 loc(#loc26)\n    %y_20 = llvm.inline_asm has_side_effects asm_dialect = att operand_attrs = [] \"mov.u32 $0, 0x0;\\0A\\09@$2 ld.global.b32 { $0 }, [ $1 + 0 ];\", \"=r,l,b\" %y, %mask : (!llvm.ptr<1>, i1) -> i32 loc(#loc27)\n    %y_21 = llvm.bitcast %y_20 : i32 to vector<1xf32> loc(#loc27)\n    %y_22 = llvm.extractelement %y_21[%4 : i32] : vector<1xf32> loc(#loc27)\n    %output = llvm.fadd %x_19, %y_22 : f32 loc(#loc28)\n    %6 = llvm.getelementptr %output_ptr[%offsets_16] : (!llvm.ptr<1>, i32) -> !llvm.ptr<1>, f32 loc(#loc13)\n    %7 = llvm.and %offsets_4, %1 : i32 loc(#loc1)\n    %8 = llvm.icmp \"eq\" %7, %2 : i32 loc(#loc1)\n    %9 = llvm.insertelement %output, %0[%2 : i32] : vector<1xf32> loc(#loc1)\n    %10 = llvm.bitcast %9 : vector<1xf32> to i32 loc(#loc1)\n    %11 = llvm.and %8, %mask : i1 loc(#loc1)\n    %12 = llvm.inline_asm has_side_effects asm_dialect = att operand_attrs = [] \"@$2 st.global.b32 [ $1 + 0 ], { $0 };\", \"r,l,b\" %10, %6, %11 : (i32, !llvm.ptr<1>, i1) -> !llvm.void loc(#loc1)\n    llvm.return loc(#loc14)\n  } loc(#loc)\n} loc(#loc)\n#loc1 = loc(\"/root/superlensai/sensitivity_study/perturbed_BLOCK_SIZE_32.py\":29:35)\n#loc2 = loc(\"/root/superlensai/sensitivity_study/perturbed_BLOCK_SIZE_32.py\":21:41)\n#loc3 = loc(unknown)\n#loc4 = loc(\"/root/superlensai/sensitivity_study/perturbed_BLOCK_SIZE_32.py\":15:24)\n#loc5 = loc(\"/root/superlensai/sensitivity_study/perturbed_BLOCK_SIZE_32.py\":20:24)\n#loc6 = loc(\"/root/superlensai/sensitivity_study/perturbed_BLOCK_SIZE_32.py\":21:28)\n#loc7 = loc(\"/root/superlensai/sensitivity_study/perturbed_BLOCK_SIZE_32.py\":23:21)\n#loc8 = loc(\"/root/superlensai/sensitivity_study/perturbed_BLOCK_SIZE_32.py\":25:24)\n#loc9 = loc(\"/root/superlensai/sensitivity_study/perturbed_BLOCK_SIZE_32.py\":25:16)\n#loc10 = loc(\"/root/superlensai/sensitivity_study/perturbed_BLOCK_SIZE_32.py\":26:24)\n#loc11 = loc(\"/root/superlensai/sensitivity_study/perturbed_BLOCK_SIZE_32.py\":26:16)\n#loc12 = loc(\"/root/superlensai/sensitivity_study/perturbed_BLOCK_SIZE_32.py\":27:17)\n#loc13 = loc(\"/root/superlensai/sensitivity_study/perturbed_BLOCK_SIZE_32.py\":29:26)\n#loc14 = loc(\"/root/superlensai/sensitivity_study/perturbed_BLOCK_SIZE_32.py\":29:4)\n#loc19 = loc(\"offsets\"(#loc2))\n#loc20 = loc(\"pid\"(#loc4))\n#loc21 = loc(\"block_start\"(#loc5))\n#loc22 = loc(\"offsets\"(#loc6))\n#loc23 = loc(\"mask\"(#loc7))\n#loc24 = loc(\"x\"(#loc8))\n#loc25 = loc(\"x\"(#loc9))\n#loc26 = loc(\"y\"(#loc10))\n#loc27 = loc(\"y\"(#loc11))\n#loc28 = loc(\"output\"(#loc12))"
  },
  {
    "type": "Before",
    "pass_desc": "LLVMDIScope",
    "pass_id": "enable-line-info",
    "op_type": "builtin.module",
    "ir": "#loc = loc(\"/root/superlensai/sensitivity_study/perturbed_BLOCK_SIZE_32.py\":6:0)\n#loc15 = loc(\"x_ptr\"(#loc))\n#loc16 = loc(\"y_ptr\"(#loc))\n#loc17 = loc(\"output_ptr\"(#loc))\n#loc18 = loc(\"n_elements\"(#loc))\nmodule attributes {ttg.global_scratch_memory_alignment = 1 : i32, ttg.global_scratch_memory_size = 0 : i32, \"ttg.num-ctas\" = 1 : i32, \"ttg.num-warps\" = 4 : i32, ttg.shared = 0 : i32, ttg.target = \"cuda:75\", ttg.tensor_memory_size = 0 : i32, \"ttg.threads-per-warp\" = 32 : i32, \"ttg.total-num-warps\" = 4 : i32, \"ttng.two-ctas\" = false} {\n  llvm.mlir.global external @global_smem() {addr_space = 3 : i32, alignment = 16 : i64} : !llvm.array<0 x i8> loc(#loc)\n  llvm.func @vector_add_kernel(%x_ptr: !llvm.ptr<1> {tt.divisibility = 16 : i32} loc(\"x_ptr\"(#loc)), %y_ptr: !llvm.ptr<1> {tt.divisibility = 16 : i32} loc(\"y_ptr\"(#loc)), %output_ptr: !llvm.ptr<1> {tt.divisibility = 16 : i32} loc(\"output_ptr\"(#loc)), %n_elements: i32 {tt.divisibility = 16 : i32} loc(\"n_elements\"(#loc)), %arg4: !llvm.ptr<1> loc(\"/root/superlensai/sensitivity_study/perturbed_BLOCK_SIZE_32.py\":6:0), %arg5: !llvm.ptr<1> loc(\"/root/superlensai/sensitivity_study/perturbed_BLOCK_SIZE_32.py\":6:0)) attributes {noinline = false, nvvm.kernel = 1 : ui1, nvvm.reqntid = array<i32: 128>, ttg.global_scratch_memory_alignment = 1 : i32, ttg.global_scratch_memory_size = 0 : i32} {\n    %0 = llvm.mlir.undef : vector<1xf32> loc(#loc1)\n    %1 = llvm.mlir.constant(3 : i32) : i32 loc(#loc1)\n    %offsets = llvm.mlir.constant(31 : i32) : i32 loc(#loc19)\n    %offsets_0 = llvm.mlir.constant(5 : i32) : i32 loc(#loc19)\n    %2 = llvm.mlir.constant(0 : i32) : i32 loc(#loc3)\n    %3 = llvm.mlir.constant(127 : i32) : i32 loc(#loc3)\n    %4 = llvm.mlir.constant(0 : index) : i32 loc(#loc3)\n    %5 = llvm.mlir.constant(32 : i32) : i32 loc(#loc3)\n    %pid = nvvm.read.ptx.sreg.ctaid.x : i32 loc(#loc20)\n    %block_start = llvm.mul %pid, %5 : i32 loc(#loc21)\n    %offsets_1 = nvvm.read.ptx.sreg.tid.x : i32 loc(#loc19)\n    %offsets_2 = llvm.and %offsets_1, %3 : i32 loc(#loc19)\n    %offsets_3 = llvm.urem %offsets_2, %5 : i32 loc(#loc19)\n    %offsets_4 = llvm.udiv %offsets_2, %5 : i32 loc(#loc19)\n    %offsets_5 = llvm.shl %offsets_3, %2 : i32 loc(#loc19)\n    %offsets_6 = llvm.or %2, %offsets_5 : i32 loc(#loc19)\n    %offsets_7 = llvm.shl %offsets_4, %offsets_0 : i32 loc(#loc19)\n    %offsets_8 = llvm.or %offsets_6, %offsets_7 : i32 loc(#loc19)\n    %offsets_9 = llvm.or %offsets_8, %2 : i32 loc(#loc19)\n    %offsets_10 = llvm.and %offsets_9, %offsets : i32 loc(#loc19)\n    %offsets_11 = llvm.lshr %offsets_10, %2 : i32 loc(#loc19)\n    %offsets_12 = llvm.or disjoint %offsets_11, %2 : i32 loc(#loc19)\n    %offsets_13 = llvm.xor %2, %offsets_12 : i32 loc(#loc19)\n    %offsets_14 = llvm.xor %offsets_13, %2 : i32 loc(#loc19)\n    %offsets_15 = llvm.add %offsets_14, %4 : i32 loc(#loc19)\n    %offsets_16 = llvm.add %block_start, %offsets_15 : i32 loc(#loc22)\n    %mask = llvm.icmp \"slt\" %offsets_16, %n_elements : i32 loc(#loc23)\n    %x = llvm.getelementptr %x_ptr[%offsets_16] : (!llvm.ptr<1>, i32) -> !llvm.ptr<1>, f32 loc(#loc24)\n    %x_17 = llvm.inline_asm has_side_effects asm_dialect = att operand_attrs = [] \"mov.u32 $0, 0x0;\\0A\\09@$2 ld.global.b32 { $0 }, [ $1 + 0 ];\", \"=r,l,b\" %x, %mask : (!llvm.ptr<1>, i1) -> i32 loc(#loc25)\n    %x_18 = llvm.bitcast %x_17 : i32 to vector<1xf32> loc(#loc25)\n    %x_19 = llvm.extractelement %x_18[%4 : i32] : vector<1xf32> loc(#loc25)\n    %y = llvm.getelementptr %y_ptr[%offsets_16] : (!llvm.ptr<1>, i32) -> !llvm.ptr<1>, f32 loc(#loc26)\n    %y_20 = llvm.inline_asm has_side_effects asm_dialect = att operand_attrs = [] \"mov.u32 $0, 0x0;\\0A\\09@$2 ld.global.b32 { $0 }, [ $1 + 0 ];\", \"=r,l,b\" %y, %mask : (!llvm.ptr<1>, i1) -> i32 loc(#loc27)\n    %y_21 = llvm.bitcast %y_20 : i32 to vector<1xf32> loc(#loc27)\n    %y_22 = llvm.extractelement %y_21[%4 : i32] : vector<1xf32> loc(#loc27)\n    %output = llvm.fadd %x_19, %y_22 : f32 loc(#loc28)\n    %6 = llvm.getelementptr %output_ptr[%offsets_16] : (!llvm.ptr<1>, i32) -> !llvm.ptr<1>, f32 loc(#loc13)\n    %7 = llvm.and %offsets_4, %1 : i32 loc(#loc1)\n    %8 = llvm.icmp \"eq\" %7, %2 : i32 loc(#loc1)\n    %9 = llvm.insertelement %output, %0[%2 : i32] : vector<1xf32> loc(#loc1)\n    %10 = llvm.bitcast %9 : vector<1xf32> to i32 loc(#loc1)\n    %11 = llvm.and %8, %mask : i1 loc(#loc1)\n    %12 = llvm.inline_asm has_side_effects asm_dialect = att operand_attrs = [] \"@$2 st.global.b32 [ $1 + 0 ], { $0 };\", \"r,l,b\" %10, %6, %11 : (i32, !llvm.ptr<1>, i1) -> !llvm.void loc(#loc1)\n    llvm.return loc(#loc14)\n  } loc(#loc)\n} loc(#loc)\n#loc1 = loc(\"/root/superlensai/sensitivity_study/perturbed_BLOCK_SIZE_32.py\":29:35)\n#loc2 = loc(\"/root/superlensai/sensitivity_study/perturbed_BLOCK_SIZE_32.py\":21:41)\n#loc3 = loc(unknown)\n#loc4 = loc(\"/root/superlensai/sensitivity_study/perturbed_BLOCK_SIZE_32.py\":15:24)\n#loc5 = loc(\"/root/superlensai/sensitivity_study/perturbed_BLOCK_SIZE_32.py\":20:24)\n#loc6 = loc(\"/root/superlensai/sensitivity_study/perturbed_BLOCK_SIZE_32.py\":21:28)\n#loc7 = loc(\"/root/superlensai/sensitivity_study/perturbed_BLOCK_SIZE_32.py\":23:21)\n#loc8 = loc(\"/root/superlensai/sensitivity_study/perturbed_BLOCK_SIZE_32.py\":25:24)\n#loc9 = loc(\"/root/superlensai/sensitivity_study/perturbed_BLOCK_SIZE_32.py\":25:16)\n#loc10 = loc(\"/root/superlensai/sensitivity_study/perturbed_BLOCK_SIZE_32.py\":26:24)\n#loc11 = loc(\"/root/superlensai/sensitivity_study/perturbed_BLOCK_SIZE_32.py\":26:16)\n#loc12 = loc(\"/root/superlensai/sensitivity_study/perturbed_BLOCK_SIZE_32.py\":27:17)\n#loc13 = loc(\"/root/superlensai/sensitivity_study/perturbed_BLOCK_SIZE_32.py\":29:26)\n#loc14 = loc(\"/root/superlensai/sensitivity_study/perturbed_BLOCK_SIZE_32.py\":29:4)\n#loc19 = loc(\"offsets\"(#loc2))\n#loc20 = loc(\"pid\"(#loc4))\n#loc21 = loc(\"block_start\"(#loc5))\n#loc22 = loc(\"offsets\"(#loc6))\n#loc23 = loc(\"mask\"(#loc7))\n#loc24 = loc(\"x\"(#loc8))\n#loc25 = loc(\"x\"(#loc9))\n#loc26 = loc(\"y\"(#loc10))\n#loc27 = loc(\"y\"(#loc11))\n#loc28 = loc(\"output\"(#loc12))"
  }
]